models/model_objs/big boy test.pth (torch, 836871 bytes, 11 tensors)

weight f4 [256, 135]
0	0xbdcee83f	-0.10102891
1	0xbd9c2fb4	-0.07626286
2	0xbdc6ecea	-0.097131565
3	0xbdb8bab3	-0.09019985
4	0x3d9ce912	0.07661642
5	0x3c8bebb7	0.017080171
6	0x3c1890eb	0.009311895
7	0xbdd6309a	-0.10458489
8	0xbd9fd01b	-0.07803365
9	0xbd1ba7c9	-0.03800181
10	0xbc181514	-0.009282369
11	0xbdc86ae1	-0.097860105
12	0xbd5b6741	-0.053565267
13	0xbd854e7d	-0.06509111
14	0xbc6e348e	-0.014538897
15	0xbd46ef57	-0.048568096
16	0xbc4157ac	-0.011800688
17	0xbd9226bf	-0.071362965
18	0xbd6e782b	-0.05822007
19	0xbd840bd4	-0.064475685
20	0xbd0af399	-0.03392372
21	0xbd91e5d9	-0.07123918
22	0x3d4c8d2d	0.049939323
23	0xbcb39044	-0.021919377
24	0x3dbaaa65	0.091145314
25	0xbbcf4e69	-0.006326486
26	0xbdb63aef	-0.088979594
27	0x3d1a45aa	0.037664093
28	0xbd1febfc	-0.03904341
29	0xbd3d61ec	-0.046235964
30	0xbd1a558d	-0.037679244
31	0xbc31833e	-0.010834513
32	0xbccb032c	-0.024781786
33	0xbcdfadab	-0.027304491
34	0x3ce037a1	0.027370276
35	0xbdb25bdd	-0.08708928
36	0x3d9bec3d	0.07613418
37	0xbdb78bb1	-0.08962191
38	0x3bbd12ad	0.0057700486
39	0x3d1199af	0.035546955
40	0x3d54ffc7	0.05200174
41	0x3d532c71	0.051556055
42	0x3d88094f	0.066424005
43	0xbe1440d3	-0.14477853
44	0x3c4178ae	0.011808557
45	0xbd57e8b2	-0.05271215
46	0xbcac227c	-0.021012537
47	0xbd1abcde	-0.037777774
48	0x3defe5a3	0.117137216
49	0xbd391a91	-0.04519135
50	0x3cf976a9	0.03045209
51	0x3d73ee0c	0.05955319
52	0x3d012fb4	0.031539634
53	0xbdad7bb8	-0.08470863
54	0x3e123dcf	0.1428139
55	0x3d133acf	0.035944756
56	0xbcf007e9	-0.029300647
57	0xbd166aa3	-0.03672279
58	0x3da74eb0	0.08169305
59	0xbcd8a2af	-0.026444761
60	0xbc96d01e	-0.018409785
61	0x3dc4f917	0.096178226
62	0x3ccca219	0.024979638
63	0xbd0be1be	-0.03415083
64	0xbd391698	-0.045187563
65	0x3bea8309	0.007156734
66	0x3af0fa86	0.0018385209
67	0xbc3af191	-0.011410133
68	0xbdbb4b3e	-0.09145211
69	0xbe0b6b5a	-0.1361517
70	0xbd3074db	-0.043080192
71	0x3d8b37eb	0.06797775
72	0x3d496a00	0.049173355
73	0xbe07951a	-0.13240471
74	0x3b078379	0.002067773
75	0x3c4b409e	0.012405543
76	0x3d2dc2e8	0.042422205
77	0x3cb3930e	0.021920707
78	0xbc41471a	-0.011796737
79	0x3ce5e82a	0.028064806
80	0x3c125299	0.008930826
81	0xbd3134de	-0.04326331
82	0xbc14ce2d	-0.009082359
83	0x3d143603	0.036184322
84	0xbd17dcb8	-0.03707573
85	0xbdb8ff96	-0.09033124
86	0x3d579e0b	0.052640956
87	0x3d0fa69b	0.035070997
88	0xbc9a4937	-0.01883374
89	0xbd51ecc7	-0.0512512
90	0x3c675057	0.014118276
91	0xbbe58545	-0.0070044124
92	0x3d113d34	0.03545876
93	0x3cdbd1d9	0.026833462
94	0xbda90a00	-0.082538605
95	0xbd7c97c8	-0.061668187
96	0x3cc9c7a9	0.024631338
97	0x3cc2cdb6	0.023779731
98	0xbc8c5ce5	-0.01713414
99	0xbce17f43	-0.027526503
100	0xbdb092f7	-0.08621781
101	0xbd9d7253	-0.07687821
102	0xbd3ccfbd	-0.046096552
103	0x3d8982fd	0.06714437
104	0x3d9deac3	0.07710793
105	0x3d457a6e	0.04821246
106	0xbdbda3a7	-0.0925973
107	0xbd4968f0	-0.04917234
108	0x3bf8d35c	0.0075935554
109	0x3d6c5470	0.057697713
110	0x3b8f1f26	0.004367727
111	0x3c3002d1	0.010742859
112	0xbccd20e7	-0.025040103
113	0xbcfd3f94	-0.030914105
114	0xbd17b5d2	-0.03703863
115	0x3db345a8	0.0875352
116	0xbda00d43	-0.078150295
117	0xbbb70ae0	-0.005586013
118	0xbd428c23	-0.047496926
119	0x3d5d4fc0	0.054031134
120	0x3d2edb8c	0.042689845
121	0x3d4f36c0	0.050589323
122	0xbe0d7f44	-0.13818079
123	0xbdc9c752	-0.098524705
124	0xbddd30f8	-0.10800356
125	0x3d82f43b	0.063942395
126	0x3c6f7295	0.014614721
127	0x3d87b6ec	0.066266865
128	0x3d82e178	0.06390661
129	0x3db542b2	0.08850612
130	0x3c7a936f	0.01529394
131	0xbd7b47e8	-0.061347872
132	0xbdccaf51	-0.099943765
133	0xbddd1da8	-0.10796672
134	0x3d37a4b5	0.04483481
135	0xbd9792b5	-0.07401029
136	0xbd09fe93	-0.033690047
137	0xbd8a9531	-0.06766737
138	0xbd4071f3	-0.04698367
139	0xbd998676	-0.074963495
140	0xbd845b2e	-0.06462704
141	0x3c8b83c3	0.017030602
142	0xbd4b419b	-0.049623113
143	0x3d146cec	0.03623669
144	0xbd20a6f9	-0.039221738
145	0xbdaa0b80	-0.08302975
146	0xbcfd05af	-0.0308865
147	0xbd6453fc	-0.055744156
148	0xbd13edbc	-0.036115393
149	0xbdb3f6c2	-0.087873
150	0x3d6255c0	0.05525756
151	0xbd9d0701	-0.076673515
152	0x3ce0404e	0.027374413
153	0x3d5db0d2	0.054123707
154	0x3daf59b1	0.08562029
155	0xbcf6d79e	-0.030132111
156	0x3d506672	0.05087895
157	0xbd9cf931	-0.07664717
158	0xba1170e8	-0.00055481354
159	0x3d89b3a5	0.067237176
160	0xbca5ffc9	-0.02026357
161	0x3ccec703	0.02524138
162	0xbd5000bd	-0.050781954
163	0xbdc95771	-0.09831131
164	0x3cbe8cce	0.0232605
165	0xbd78a7ef	-0.06070703
166	0x3d51138e	0.05104404
167	0xbc2c4b67	-0.010516024
168	0x3d8e9499	0.069619365
169	0xbd067c85	-0.032833595
170	0xbda897e3	-0.08232095
171	0x3cb24deb	0.02176567
172	0x3d86b1c1	0.065768726
173	0xbdc49ab4	-0.0959982
174	0xbc25ad85	-0.010112171
175	0xbd613a99	-0.054987524
176	0x3c30ae02	0.010783674
177	0xbcaea9ea	-0.021321256
178	0xbdd54095	-0.10412709
179	0xbd16cc8e	-0.036816172
180	0xbdc3449e	-0.09534572
181	0x3de3144f	0.11087858
182	0x3df6dd26	0.120538995
183	0xbb1da386	-0.0024053766
184	0xbd1540b1	-0.036438648
185	0xbd052fd3	-0.03251631
186	0xbd99d2a5	-0.075108804
187	0xbe11140c	-0.14167804
188	0x3d37b196	0.044847094
189	0xbbe216a7	-0.006899673
190	0x3caa2b38	0.020772561
191	0xbc485bee	-0.012228949
192	0xbd14a162	-0.03628672
193	0xbb088c59	-0.0020835607
194	0xbc652195	-0.013985057
195	0x3cde542c	0.027139746
196	0xbc3020b7	-0.010749987
197	0xbc81aeb5	-0.015830377
198	0xbdd4616e	-0.10370146
199	0x3d6b8d49	0.057507787
200	0xbd17a297	-0.037020292
201	0x3afdf4e0	0.0019375347
202	0xbccd45f5	-0.025057772
203	0xbd2f0c4a	-0.04273633
204	0x3d9fa890	0.077958226
205	0x3d9844e4	0.07435015
206	0xbdd1bf6e	-0.102415904
207	0x3d5ebc94	0.05437906
208	0x3cd96a0c	0.026539825
209	0x3ba42d3b	0.0050102747
210	0x3c5ae0fa	0.013359303
211	0x3dbc3d4c	0.09191379
212	0xbc34a61d	-0.011025933
213	0x392a9590	0.0001626818
214	0xbd9dff7d	-0.07714746
215	0xbd212deb	-0.03935043
216	0x3d0a87dd	0.033820976
217	0x3d1809e8	0.037118822
218	0xbd17f471	-0.037098352
219	0xbd7c734f	-0.061633404
220	0xbdb33a88	-0.08751398
221	0xbdfab620	-0.12241769
222	0xbda06278	-0.078312814
223	0xbc48c0dc	-0.0122530125
224	0x3d11d3ae	0.035602264
225	0x3c604eb9	0.013690644
226	0xbde2e2a3	-0.11078384
227	0xbd5ab222	-0.053392537
228	0x3d7eae5b	0.062177997
229	0xbd995e59	-0.074886985
230	0xbcf7c4b5	-0.030245164
231	0x3cbbc3fb	0.0229206
232	0xbd3b8595	-0.04578169
233	0xbcc7a928	-0.024372652
234	0x3d69a6d2	0.057043858
235	0xbd7358d7	-0.059410896
236	0xbd541bf7	-0.05178448
237	0xbd8c8198	-0.068606555
238	0xbd8ff51b	-0.07029172
239	0x3c7d51a0	0.015461355
240	0x3d970f6b	0.073759876
241	0xbceb053c	-0.02868902
242	0xbd899bb1	-0.06719149
243	0x3c97d504	0.018534191
244	0xbc225f1b	-0.00991037
245	0x3da16a2f	0.07881581
246	0x3d662972	0.05619187
247	0x3d75df53	0.06002743
248	0xbdcec66a	-0.10096438
249	0xbd145512	-0.036213942
250	0x3d5a2886	0.053261302
251	0xbc696a09	-0.014246472
252	0xbd90f994	-0.07078853
253	0x3d91eef3	0.07125654
254	0xba21a678	-0.00061664684
255	0xbd965713	-0.07340827

bias f4 [256]
0	0x3cb90c29	0.022588806
1	0x3c4db8a9	0.012556233
2	0xbcad0d97	-0.021124644
3	0xbc19c836	-0.009386113
4	0xbca26f32	-0.019828413
5	0x3ca51e85	0.020156154
6	0x3d13c8a0	0.036080003
7	0x3caa9c5e	0.020826515
8	0xbcf0e538	-0.029406175
9	0x3d47e6b8	0.048804015
10	0xbd88f3b1	-0.066871054
11	0xbcdadb3a	-0.026715863
12	0x3cda7c5f	0.026670633
13	0xbbe67079	-0.0070324508
14	0xbd2e38af	-0.042534526
15	0xbd10d5c0	-0.035360098
16	0xbbd705f5	-0.0065619894
17	0x3c4a0d2e	0.012332244
18	0x3d948d46	0.07253508
19	0x3d07156b	0.03297941
20	0x3c8521c2	0.016251449
21	0x3dcdfcf6	0.10058014
22	0x3d384b72	0.044993825
23	0x3cc81a15	0.0244265
24	0x3c2992c8	0.010349937
25	0xba6dce1c	-0.0009071545
26	0x3cfbb2be	0.03072488
27	0xbdc048b6	-0.093888685
28	0xbce67e37	-0.028136356
29	0xbb69a744	-0.0035652677
30	0xbcce24ec	-0.02516409
31	0xbd6007af	-0.054694828
32	0xbd27505a	-0.040848114
33	0xbceed1f1	-0.029152842
34	0x3da19989	0.07890613
35	0xbc869bf7	-0.016431792
36	0xbcd0fb15	-0.02551035
37	0x3b129cfa	0.0022371397
38	0x3d9537e7	0.07286053
39	0xbc89e520	-0.016832888
40	0x3d2a54a5	0.04158463
41	0xbdbd049a	-0.09229393
42	0x3b30966e	0.0026945132
43	0xbcfd1ba1	-0.030896964
44	0x3d297d60	0.041379333
45	0x3ba43f83	0.005012454
46	0x3c285ed2	0.010276513
47	0x3cc640b4	0.024200775
48	0xbcc7a560	-0.02437085
49	0xbd33a56a	-0.043858923
50	0xbd1f53ae	-0.038898163
51	0xbd55cd68	-0.052197844
52	0x3ca6c433	0.020357227
53	0x3dcd2f5b	0.10018798
54	0x3d81c33d	0.06336067
55	0xbbbf9610	-0.0058467463
56	0x3ce5ae3a	0.02803718
57	0xbcfd3dc7	-0.030913247
58	0xbd7dfc3e	-0.062008135
59	0xbcf9d355	-0.030496279
60	0x3dc93ed3	0.09826436
61	0x3d8203f7	0.063484125
62	0x3c66a681	0.014077784
63	0xbccc32ed	-0.024926627
64	0x3c90c222	0.017670695
65	0xbcc8023d	-0.02441513
66	0xbceaba7a	-0.028653372
67	0xbb7a174e	-0.0038160863
68	0xbd4745bc	-0.04865049
69	0xbc809bb9	-0.015699254
70	0x3d18f481	0.037342552
71	0x3c8d0464	0.017214008
72	0x3d27214a	0.04080323
73	0xbc6f1688	-0.014592774
74	0xbcd0e5b8	-0.025500163
75	0xbc462d0e	-0.012095703
76	0xbd6d11bc	-0.05787824
77	0x3cb32935	0.021870235
78	0x3bcc4cdb	0.006234748
79	0xbd25f4fa	-0.04051683
80	0x3b5354f3	0.0032246679
81	0x3daac383	0.08338072
82	0x3d44a547	0.048009183
83	0xbc9b4bab	-0.01895698
84	0x3d4f020e	0.05053907
85	0xba7c9824	-0.0009635708
86	0x3d7619ef	0.060083326
87	0xbd2ddfc0	-0.042449713
88	0x3d7c4ba2	0.061595567
89	0xbc0bf879	-0.008543127
90	0xbd14dadf	-0.036341544
91	0x3d9e6ac1	0.077352054
92	0x3d2c9195	0.042131025
93	0x3d94ca3e	0.07265137
94	0xbc04eab7	-0.008112601
95	0xbca4a2dd	-0.02009719
96	0xbcc1b84d	-0.023647452
97	0xbcf35a12	-0.029706035
98	0x3cf1d4c0	0.029520392
99	0xbb825403	-0.0039773
100	0xbdb7de30	-0.08977926
101	0xbd9efb55	-0.077627815
102	0x3d1fb48e	0.03899055
103	0x3d52c3f4	0.051456407
104	0x3bf8524e	0.007578171
105	0x3da28b0a	0.07936676
106	0xbb79416e	-0.0038033384
107	0xbd812053	-0.063049935
108	0x3d811361	0.06302524
109	0xbb4b3399	-0.0031006096
110	0xbc50d9e7	-0.0127472645
111	0x3c08fd7c	0.008361217
112	0xbd1d211a	-0.038361646
113	0xbd95559a	-0.07291718
114	0x3dbdd22d	0.092686035
115	0xbd76f4d3	-0.060292076
116	0xbd0385ac	-0.0321099
117	0x3d9c9fad	0.07647643
118	0x3da1d3d2	0.0790173
119	0x3d8adc51	0.06780303
120	0x3d272984	0.040811077
121	0xbd818544	-0.063242465
122	0xbd43976a	-0.04775182
123	0xbced0889	-0.028934734
124	0xbc1d3729	-0.009595671
125	0xbd39d1e5	-0.045366187
126	0xbd34877b	-0.044074517
127	0x3d9c13ec	0.07620987
128	0xbb12018b	-0.0022278752
129	0xbc8e418b	-0.017365238
130	0xbd962d51	-0.07332862
131	0xbd7f3fe3	-0.062316786
132	0x3ddcc400	0.107795715
133	0xbd7fee7b	-0.062483292
134	0xbc9cf0c3	-0.019157773
135	0xbdd1f3cb	-0.10251578
136	0x3d3bb483	0.045826446
137	0x3de04512	0.10950674
138	0x3d37e783	0.04489852
139	0x3d9955e5	0.07487086
140	0xbb80d7a8	-0.003931958
141	0xbdc8c365	-0.098028935
142	0xbd85b644	-0.06528905
143	0xbba8e210	-0.005153902
144	0x3d62b546	0.055348657
145	0xbbf05b2f	-0.0073350887
146	0x3d43a7fe	0.04776763
147	0x3d85494d	0.06508122
148	0xbc8df890	-0.017330438
149	0xbdc47d27	-0.095941834
150	0xbd0f7c96	-0.035030924
151	0xbd9f3266	-0.077732846
152	0x3d1c4a85	0.038157005
153	0xbd14104a	-0.036148347
154	0xbb42a85c	-0.00297024
155	0xbd01ac57	-0.031658497
156	0xbd128b5d	-0.03577744
157	0x3cffd897	0.031231208
158	0xbc0cac93	-0.008586067
159	0xbc86b956	-0.016445797
160	0x3cb1b655	0.021693388
161	0xbd895f4c	-0.067076296
162	0x3d06ac1d	0.032878984
163	0xbdbe0af8	-0.09279436
164	0x3c506136	0.012718489
165	0xbccc6df1	-0.024954768
166	0x3d47be72	0.048765607
167	0xbd289bd0	-0.04116422
168	0x3ccdba05	0.025113115
169	0xbda53cfb	-0.08068272
170	0x3cafd8ca	0.021465678
171	0x3d446d8b	0.04795603
172	0x3d196d2c	0.03745763
173	0xbd99326b	-0.074803196
174	0xbd9265bd	-0.07148311
175	0xbd4f2ff5	-0.050582845
176	0x3d473f40	0.048644304
177	0x3d6bf3ce	0.057605557
178	0xbbd15655	-0.0063884654
179	0xbd59eb34	-0.053202823
180	0x3d770324	0.06030573
181	0xbd68f250	-0.056871712
182	0xbda010ec	-0.078157276
183	0xbcc9a3e8	-0.02461429
184	0x3d6948e4	0.05695428
185	0xbd38d0b9	-0.04512093
186	0x3d732fce	0.059371762
187	0x3d621a10	0.055200636
188	0x3d4f4dbd	0.050611246
189	0xbd9ff092	-0.07809557
190	0xbc5b0247	-0.013367242
191	0xbdd9612a	-0.10614236
192	0xbd7e02d7	-0.062014427
193	0x3d899903	0.06718638
194	0x3c657e58	0.0140071735
195	0x3dc7be48	0.0975309
196	0x3d91fc71	0.071282275
197	0xbd4a5a4a	-0.049402513
198	0x3c18d49e	0.009328036
199	0x3d7682a1	0.06018317
200	0xbd168823	-0.036750924
201	0xbd05282b	-0.03250901
202	0x3d8b6183	0.06805708
203	0xbdc283f6	-0.09497826
204	0xbcb70b3e	-0.022344228
205	0xbc2a1cb0	-0.010382816
206	0x3dbc7e2b	0.09203752
207	0xbdc304d8	-0.09522408
208	0xbda614cd	-0.08109436
209	0xbd8129a2	-0.06306769
210	0xbd5acba6	-0.05341687
211	0xbdc8ffaa	-0.09814389
212	0xbdc341ea	-0.095340565
213	0xbc14e9ea	-0.009088973
214	0x3d9322f4	0.07184401
215	0xbbe0cf03	-0.006860615
216	0xbc9078d7	-0.017635746
217	0x3d7b2a9e	0.06131994
218	0xbcab4097	-0.020904822
219	0x3d6f7e07	0.0584698
220	0x3cc9c4ff	0.024630068
221	0xbd653b8a	-0.055964984
222	0x3d38ce19	0.045118425
223	0x3cd8cd6a	0.026465137
224	0xbd0394fa	-0.032124497
225	0x3d95e985	0.07319931
226	0x3d4e895b	0.05042396
227	0xb9b5ffe8	-0.00034713675
228	0xbd20f678	-0.03929755
229	0xbc97887f	-0.018497704
230	0xbd990217	-0.07471102
231	0xbd194740	-0.037421465
232	0xbcbf4017	-0.02334599
233	0x3d08c0e5	0.033387084
234	0x3b956d13	0.004560122
235	0x3cde295a	0.027119327
236	0xbd4675c3	-0.04845215
237	0xbbf289b8	-0.0074016713
238	0x3a4cc986	0.0007812012
239	0x3d8c3271	0.068455584
240	0xbd40ae18	-0.04704103
241	0x3d7b7536	0.061391078
242	0xbb6fefaf	-0.0036611368
243	0x3d8b1e2e	0.06792866
244	0xbdcba92b	-0.099443756
245	0x3d1d37a6	0.03838315
246	0xbd146932	-0.036233135
247	0xbda5801b	-0.08081075
248	0xbd22af46	-0.039717935
249	0x3c19548b	0.0093585355
250	0x3ac82d7d	0.0015272346
251	0xbd872299	-0.06598396
252	0xbc351431	-0.011052177
253	0x3bd025c2	0.0063521573
254	0xbd5bbdda	-0.053647853
255	0xbc014b89	-0.007891544

weight f4 [256, 256]
0	0x3da1079b	0.07862779
1	0xbd0404cc	-0.032231137
2	0xbd1b2aeb	-0.037882727
3	0x3d16af55	0.036788303
4	0xbd265c9f	-0.040615674
5	0x3a1cf6e9	0.000598772
6	0x3d829875	0.06376735
7	0xbd8582c1	-0.0651908
8	0xbd293514	-0.041310385
9	0x3d19902d	0.037491012
10	0x3cbf5807	0.023357404
11	0xbc5ae1c2	-0.013359489
12	0x3ce313c5	0.027719388
13	0xbd0de24e	-0.03463965
14	0xbc834835	-0.016025642
15	0x3c336b1a	0.010950828
16	0xbb6ee70f	-0.003645364
17	0x3cbd9771	0.023143502
18	0xbdb0e27b	-0.08636948
19	0xbc4fa434	-0.012673426
20	0xba9f23d2	-0.0012141413
21	0xbd963c89	-0.07335765
22	0xbc85a565	-0.016314218
23	0x3ca2b594	0.019861974
24	0x3b94b852	0.0045385743
25	0x3ca15951	0.01969591
26	0xbcdd7ede	-0.027038034
27	0x3d626b9a	0.055278398
28	0x3c8e1046	0.017341744
29	0x3c99319d	0.018700415
30	0xbd4f8d33	-0.050671767
31	0x3c6cae5c	0.014445867
32	0x3d7bcde0	0.061475635
33	0xbdb20274	-0.08691874
34	0x3cb86e58	0.022513554
35	0xbdafaedc	-0.08578274
36	0xbbd734d8	-0.0065675788
37	0xbd6faddd	-0.05851542
38	0xbcd59bc5	-0.026075253
39	0x3c199506	0.009373909
40	0xbd5a9cf8	-0.053372353
41	0x3b283bb5	0.0025670354
42	0xbd1b3512	-0.03789241
43	0xbd54d770	-0.05196327
44	0xbd8b6ae1	-0.06807495
45	0x3d4e8a83	0.050425064
46	0xbcf634aa	-0.030054409
47	0xbdac8678	-0.084240854
48	0xbdaf4f3c	-0.08560035
49	0xbd9b2ff4	-0.07577506
50	0xbc8bc185	-0.01706005
51	0x3d1243a0	0.035709023
52	0xbcd69beb	-0.026197394
53	0xbd971431	-0.07376898
54	0xbd0b5b8d	-0.034022857
55	0x3cc928d4	0.024555601
56	0x3bb21162	0.005434201
57	0x3d9fe263	0.07806852
58	0x3d628aa4	0.055308
59	0x3d76ef15	0.0602866
60	0xbda7e90e	-0.081987485
61	0xbbf08d4d	-0.007341063
62	0xbd840db1	-0.06447924
63	0xbd62857d	-0.055303086
64	0x3c444ecb	0.011981676
65	0x3c2d25c6	0.010568088
66	0xbd9d5358	-0.07681912
67	0xbd3ae788	-0.04563096
68	0x3c1a1602	0.009404661
69	0xbd2bbbd7	-0.041927185
70	0x3cde3bae	0.027128067
71	0xbd360e44	-0.0444472
72	0x3cfcee07	0.030875219
73	0x3d7523f5	0.059848744
74	0x3c9604dd	0.018312866
75	0x3d586311	0.052828852
76	0xbd1757c7	-0.036948945
77	0x3d2652e3	0.04060639
78	0x3d0c4ea0	0.03425467
79	0xbca1087c	-0.019657366
80	0xbd6ca156	-0.05777105
81	0xbd1500b7	-0.036377635
82	0x3c02fecb	0.007995318
83	0x3d7a79ba	0.061151244
84	0xbbe04487	-0.0068441066
85	0x3d7bae64	0.06144561
86	0xbd300274	-0.04297109
87	0xbd8b5e1a	-0.06805058
88	0xbc5e16cc	-0.01355524
89	0xbda37096	-0.079804584
90	0xbdba9847	-0.09111076
91	0xbd8eb888	-0.0696879
92	0x3d00d392	0.03145177
93	0xbd2f2448	-0.04275921
94	0xbbb842d8	-0.005623203
95	0x3d3cb0e4	0.046067134
96	0xbd299d8b	-0.04141001
97	0xbc6c1b1c	-0.01441076
98	0x3c89cf5a	0.016822506
99	0x3d2d3f90	0.042296946
100	0x3c96400b	0.018341085
101	0x3c12e8ca	0.008966634
102	0xbd45826e	-0.04822009
103	0xbdf46f91	-0.11935342
104	0x3c9e93b9	0.019357549
105	0xbcc68fc1	-0.02423847
106	0xbc33748d	-0.010953081
107	0xbc725bff	-0.014792441
108	0x3d187f70	0.03723091
109	0xbccd802e	-0.025085535
110	0xbca9f9ec	-0.020749055
111	0x3dadf6ba	0.08494325
112	0xbd1652e5	-0.036700148
113	0x3c8869b8	0.016651973
114	0xbaaea014	-0.0013322853
115	0x3c5e51b6	0.013569286
116	0x3c90e776	0.017688494
117	0xbaadff66	-0.0013274967
118	0xb986b6d1	-0.0002569468
119	0xbd95ca6b	-0.07313999
120	0xbd2ed427	-0.042682793
121	0xbcd95e1b	-0.02653413
122	0x3da1b091	0.078950055
123	0x3cb4b422	0.02205855
124	0xbc9bb6a2	-0.019007985
125	0x3d43fe8e	0.047850184
126	0xbd17a448	-0.037021905
127	0x3b11a597	0.0022223943
128	0xbd912342	-0.07086803
129	0x3c96437f	0.018342732
130	0x3d85fd42	0.06542446
131	0xbc0e5be0	-0.008688897
132	0xbbed5abf	-0.007243484
133	0x3d0c40d3	0.03424151
134	0xbca76259	-0.020432638
135	0xbbfa1eb0	-0.0076330528
136	0xbcf9c192	-0.03048781
137	0xbd5e4a45	-0.054270048
138	0x3cbef064	0.023307987
139	0xbcc8d436	-0.024515253
140	0x3ce76146	0.028244626
141	0xbb7279d8	-0.0036998894
142	0x3db6c371	0.08923996
143	0xbd193605	-0.037405033
144	0xbd6ecc0c	-0.058300063
145	0x3d4d2be5	0.05009069
146	0xbd7954fb	-0.06087206
147	0xbd158bdd	-0.036510337
148	0xbd4d0886	-0.050056957
149	0xbd259634	-0.040426448
150	0xbc0ee705	-0.008722072
151	0x3bb02c1f	0.0053763534
152	0xbbbd90f4	-0.005785102
153	0x3b4ad71f	0.0030950976
154	0x3c7f3dbf	0.015578686
155	0xbbe8b804	-0.0071020145
156	0x3a103d0c	0.0005502261
157	0xbc317ffd	-0.010833737
158	0x3d534122	0.051575787
159	0xbd95e0dc	-0.07318279
160	0x3ca57e85	0.02020193
161	0xbabe4f0e	-0.001451941
162	0xbd0e680e	-0.034767203
163	0xbcfffdc1	-0.031248929
164	0xbd296926	-0.041360043
165	0xbcfdf4d8	-0.03100054
166	0x3c602a62	0.01368198
167	0x3c001033	0.007816362
168	0xbc598683	-0.013276699
169	0x3d8f9102	0.0701008
170	0x3d62d48e	0.05537849
171	0x3d8b7c18	0.068107784
172	0x3c27be5d	0.010238257
173	0x3d647dcf	0.055784043
174	0xbd2745aa	-0.04083792
175	0x3d5cb402	0.053882606
176	0x3cf7e243	0.030259257
177	0xbd38a7ae	-0.045081787
178	0xbbbb878a	-0.0057229446
179	0xbdbe84bf	-0.09302663
180	0xb97a7069	-0.00023883734
181	0xbd2a59d2	-0.041589566
182	0x3cda2ab2	0.026631687
183	0x3be00101	0.006836057
184	0x3c067385	0.008206253
185	0xbc7ef3c9	-0.015561053
186	0x3cf0d647	0.02939905
187	0xbd2dfef4	-0.04247947
188	0xbd520471	-0.051273767
189	0xbd232028	-0.03982559
190	0x3cf5e057	0.0300142
191	0x3cd93336	0.026513677
192	0xba8747c6	-0.0010321073
193	0xbd86a600	-0.06574631
194	0x3b8a8312	0.0042270506
195	0xb91eb180	-0.00015134178
196	0x3d0aa6c6	0.033850454
197	0xbd303e0d	-0.043027926
198	0xbd86ccea	-0.06582053
199	0xbd21108a	-0.039322414
200	0x3d465eab	0.048430126
201	0xbd0d107f	-0.03443956
202	0xbb205dce	-0.0024469974
203	0x3bd40e04	0.0064713974
204	0x3b15f98b	0.0022884335
205	0xbdc29125	-0.0950034
206	0x3bce63a1	0.006298498
207	0x3d7c2da8	0.06156698
208	0xbcc97239	-0.024590598
209	0x3daa09eb	0.08302673
210	0xbcae1902	-0.021252159
211	0x3c032e1b	0.008006598
212	0xbca98592	-0.020693574
213	0x3d960bad	0.07326446
214	0x3cb41a5c	0.021985225
215	0xbc8bb423	-0.01705367
216	0x3d9dc869	0.07704241
217	0xbd0f00b0	-0.034912765
218	0xbc354131	-0.011062906
219	0xbc71ff9f	-0.0147704175
220	0xbc8aa4da	-0.01692431
221	0xbb9db6b2	-0.0048130387
222	0x3d095776	0.033530675
223	0xbd8fbd5a	-0.07018538
224	0x3d4fa9a3	0.050698888
225	0x3c937397	0.017999453
226	0xbcb56d32	-0.022146795
227	0xbd1a7e02	-0.037717827
228	0xbc2b3546	-0.010449713
229	0x3d05b127	0.03263965
230	0xbd3491a4	-0.044084206
231	0x3d6ebf82	0.058288105
232	0x3c838e78	0.016059145
233	0xbdb9d9b5	-0.090747274
234	0xbd469fab	-0.048492115
235	0xbdc959f0	-0.09831607
236	0xbdca4931	-0.098772414
237	0x3b33de58	0.002744576
238	0xbd5ce476	-0.053928815
239	0xbd789f28	-0.06069866
240	0xbbe400d5	-0.006958107
241	0x3bfdd5e0	0.007746443
242	0xbdbebcb0	-0.09313333
243	0xbc9104b9	-0.017702447
244	0x3cdd8ed7	0.02704565
245	0x3a7cc9ce	0.00096431084
246	0xbd3991c4	-0.04530503
247	0x3d7b50da	0.061356403
248	0x3d2a9d67	0.041654017
249	0xbd92db93	-0.07170787
250	0x3d817af8	0.063222826
251	0x3d99181f	0.07475304
252	0xbd820471	-0.063485034
253	0xbd8c8555	-0.068613686
254	0x3d748d39	0.059704993
255	0xbc811f1a	-0.0157619

bias f4 [256]
0	0xbd465585	-0.0484214
1	0x3c82a38d	0.015947128
2	0x3d609c1c	0.054836378
3	0x3d8d0c9e	0.06887172
4	0x3d98f48d	0.07468519
5	0xbd464cfe	-0.04841327
6	0xbcb9a445	-0.022661338
7	0x3d83f4af	0.06443154
8	0x3d639040	0.05555749
9	0x3d8b54c5	0.06803278
10	0xbcf94d72	-0.030432437
11	0xbda8e0dc	-0.082460135
12	0xbd6ca327	-0.05777278
13	0x3988c702	0.00026088214
14	0xbd8a8a48	-0.06764656
15	0xbd056bb6	-0.032573424
16	0x3d72f451	0.05931503
17	0xbc0e4df1	-0.008685575
18	0x3c9f96ee	0.019481149
19	0xbd371a31	-0.044702712
20	0x3be058f3	0.006846541
21	0xba3a5158	-0.0007107458
22	0x3cca0a98	0.024663255
23	0x3d21bc7a	0.039486386
24	0x3d8fe311	0.07025731
25	0x3c91c130	0.017792314
26	0x3c9e70ba	0.019340862
27	0x3b406314	0.002935593
28	0xbd39336f	-0.045215067
29	0x3d186f43	0.037215482
30	0x3cd8ca1f	0.026463566
31	0xbd4b25d4	-0.049596623
32	0xbd96fe62	-0.073727384
33	0xbda0e4f8	-0.07856172
34	0x3bd561ec	0.0065119173
35	0xbaf37a3e	-0.001857586
36	0xbca23087	-0.01979853
37	0x3cb6e44c	0.022325657
38	0x3bc9b93e	0.006156116
39	0xbc90153a	-0.017588247
40	0xbd6384ef	-0.055546697
41	0x3d1aa7fd	0.037757862
42	0x3c64f813	0.013975161
43	0xbcd32a82	-0.025777105
44	0x3d3b6f13	0.045760226
45	0x3d661f33	0.056182098
46	0xbd1478a9	-0.036247883
47	0x3cef6246	0.029221665
48	0xbcd03a03	-0.025418287
49	0x3c40feed	0.011779529
50	0x3be91b85	0.0071138763
51	0x3caeea45	0.021351943
52	0xbd6e581b	-0.058189493
53	0x3d51cf12	0.05122287
54	0x3b6c585b	0.0036063406
55	0x3c016f68	0.0079000965
56	0x3d1b3836	0.037895404
57	0xbcd37adf	-0.025815425
58	0x3d7d297d	0.061807144
59	0x3d4d12b9	0.050066683
60	0x3cab8aaf	0.020940153
61	0x3ce244dd	0.027620727
62	0x3d8bfe6d	0.06835637
63	0x3c19daa5	0.009390508
64	0xb9ffdfe0	-0.0004880419
65	0xbc8ddcf3	-0.01731727
66	0x3d4202c4	0.04736592
67	0xbc9531e1	-0.01821226
68	0xbd196c36	-0.037456714
69	0xbbdfe042	-0.0068321535
70	0x3c06d6e0	0.008229941
71	0x3cd540ba	0.02603184
72	0xbc9788e5	-0.018497894
73	0xbca38896	-0.01996259
74	0xbd1ed282	-0.038774975
75	0x3cc3f1d9	0.023919033
76	0x3d809921	0.06279207
77	0x3b7e49f3	0.0038801401
78	0xbd011ac7	-0.031519677
79	0x3d8eb5d8	0.06968278
80	0xbad5e115	-0.001631769
81	0x3d6bd621	0.057577256
82	0x3d584a62	0.052805312
83	0x3c34c5ab	0.011033456
84	0x3d22d59f	0.039754506
85	0xbcdd30d9	-0.027000831
86	0x3c06a3e3	0.008217785
87	0xbcc03700	-0.023463726
88	0xbd0543be	-0.032535307
89	0xbd622b5a	-0.055217125
90	0x3cc9bc4e	0.024625923
91	0xbd39e3d2	-0.045383282
92	0xbd1f73c0	-0.038928747
93	0x3d869fdb	0.06573459
94	0x3c42561e	0.011861352
95	0x3bc4e8a5	0.0060091787
96	0x3d8631ca	0.06552465
97	0x3c8c0e2b	0.0170966
98	0xbd688311	-0.05676562
99	0x3c095e09	0.008384236
100	0x3cc780d3	0.02435342
101	0x3d2aca93	0.041697096
102	0xbc84ad11	-0.016195806
103	0xbb400b3b	-0.002930357
104	0xbcebb0cc	-0.028770827
105	0x3ad744f7	0.0016423751
106	0xbcb6efed	-0.022331202
107	0x3c29f736	0.010373881
108	0xbca291d7	-0.019844932
109	0x3d67167a	0.05641792
110	0xbd9ca26f	-0.07648169
111	0x3d5d3679	0.054007027
112	0xbc9bfbd1	-0.019040974
113	0xbc277953	-0.010221797
114	0xbc91fae2	-0.017819826
115	0x3cb2ecd0	0.021841437
116	0x3c1885df	0.009309261
117	0x3d0c5992	0.03426511
118	0xbcaefa8f	-0.02135971
119	0x3d8e5448	0.06949669
120	0x3cadf7fc	0.021236412
121	0xbcda0146	-0.026611935
122	0x3c71c3a9	0.014756122
123	0x3d636f44	0.055526033
124	0xbcd1b415	-0.025598565
125	0xbd083730	-0.033255756
126	0xbd269cbd	-0.04067682
127	0xbd8e8bd2	-0.06960262
128	0xbd5d3cb8	-0.054012984
129	0x3d1d855b	0.038457256
130	0xbd5a821a	-0.05334673
131	0x3c63a614	0.013894577
132	0xbd10c1e2	-0.03534115
133	0x3c161f16	0.009162685
134	0x3d812ebe	0.063077435
135	0x3d2a1ba4	0.041530266
136	0x3cb63510	0.022242099
137	0xbbed016d	-0.007232836
138	0x3d066810	0.032814085
139	0x3d948937	0.07252734
140	0xbd83e905	-0.06440929
141	0x3cd68b55	0.026189486
142	0x3b94b16a	0.004537751
143	0xbd849fb1	-0.06475771
144	0x3d09a86f	0.033607896
145	0x3d58ee54	0.052961662
146	0xbc5757bd	-0.013143477
147	0xbd48d7d4	-0.049033955
148	0xbc859406	-0.016305935
149	0x3b816ff3	0.003950113
150	0x3d8b26c2	0.06794502
151	0x3cf27e9f	0.029601393
152	0xbce0f89e	-0.0274623
153	0xbd516e4b	-0.051130574
154	0xbd9b955c	-0.075968474
155	0xbbb319ac	-0.005465707
156	0x3c81ac58	0.01582925
157	0xbd1fa47a	-0.038975216
158	0x3c1694cf	0.009190752
159	0xbb769128	-0.003762314
160	0x3c356209	0.011070737
161	0xbb2f90c7	-0.0026789175
162	0xbd7cbf21	-0.061705712
163	0x3c9f385d	0.019436056
164	0x3d49f6ea	0.04930774
165	0x3d677be4	0.056514636
166	0xbb895cc1	-0.0041919653
167	0x3c9642c3	0.018342381
168	0x3d9ce6f6	0.0766124
169	0xbd4511a3	-0.048112523
170	0x3d0c8c17	0.034313288
171	0xbcdf472d	-0.027255619
172	0xbcac065c	-0.020999126
173	0x3d6ef043	0.0583346
174	0x3bd730ce	0.0065670973
175	0x3d015e91	0.031584326
176	0xbce56a58	-0.02800481
177	0x3ca1dcc9	0.019758599
178	0x3cc2ab23	0.023763245
179	0xbc94c141	-0.018158557
180	0xbcd1a90d	-0.025593305
181	0x3d801d50	0.06255591
182	0x3d156923	0.03647722
183	0x3c449e25	0.012000595
184	0x3d557dc0	0.052121878
185	0xbd414f1a	-0.047194578
186	0x3d8a6c6b	0.0675896
187	0xbccca3d6	-0.024980467
188	0x3c7ce855	0.015436252
189	0x3cfb772d	0.030696476
190	0xbc609be5	-0.013709043
191	0xbd6d7180	-0.05796957
192	0x3ce5652f	0.02800235
193	0xbc20f544	-0.009824101
194	0xbd59585a	-0.053062774
195	0xbd9924b1	-0.074777015
196	0x3d713666	0.05888977
197	0x3cec8c8c	0.028875612
198	0xbb996fdf	-0.0046825255
199	0x3cb7d299	0.022439288
200	0x3ba1566e	0.0049236333
201	0xbcd3050b	-0.02575924
202	0xbc830b81	-0.015996696
203	0xbc42cb1c	-0.011889245
204	0xbd29274b	-0.04129724
205	0xbc296b92	-0.010340588
206	0xbc28c442	-0.010300698
207	0xbda4e537	-0.08051532
208	0x3cab13eb	0.020883521
209	0xbcf2fa32	-0.029660318
210	0x3d015b36	0.031581126
211	0xbc477e29	-0.012176075
212	0x3da70171	0.08154572
213	0xbd830b38	-0.06398624
214	0xbcd6bb10	-0.026212245
215	0x3c6e7209	0.014553555
216	0xbd1b14e3	-0.037861716
217	0x3c13aa2c	0.00901274
218	0x3c940d1e	0.018072661
219	0x3ca53d19	0.020170735
220	0x3d47ca36	0.048776828
221	0xbca26582	-0.019823793
222	0x3d409175	0.04701372
223	0x3d22454d	0.03961687
224	0xbd1ff0d8	-0.039048046
225	0x3d452c39	0.048137877
226	0xbd6e1836	-0.058128558
227	0x3cef55b1	0.029215666
228	0xbc2e1ea1	-0.01062742
229	0xbcc41b5c	-0.023938827
230	0x3c2cf3fd	0.010556218
231	0xbc812731	-0.015765758
232	0x3beb562d	0.007181904
233	0xbcf1149f	-0.029428778
234	0xbd0121f1	-0.03152651
235	0x3d59a248	0.05313328
236	0x3ccac7ea	0.02475353
237	0x3c2c8664	0.010530088
238	0x3b75f0f9	0.0037527664
239	0x3d8e2851	0.069412835
240	0x3cac5552	0.021036778
241	0x3c0ac8ca	0.008470723
242	0x3d74ed4f	0.059796628
243	0xbc5af68b	-0.0133644445
244	0xbc3edf32	-0.011649894
245	0xbc399d68	-0.0113290325
246	0xbcfbad21	-0.030722203
247	0xbd977a6e	-0.073963985
248	0x3cbcced1	0.023047836
249	0xbc80e586	-0.015734445
250	0xbd8e8011	-0.069580205
251	0xbcef01a8	-0.029175594
252	0xbd25483c	-0.04035209
253	0x3d82026e	0.0634812
254	0x3c19f71c	0.009397294
255	0xbd1c8838	-0.038215846

weight f4 [256, 256]
0	0xbca21058	-0.019783184
1	0x3bc8cde0	0.006128058
2	0x3d2b8c37	0.041881766
3	0x3c2142a2	0.009842547
4	0x3d399267	0.045305636
5	0x3c8c4e0d	0.017127061
6	0xbdaa2cd2	-0.0830933
7	0x3da762a3	0.0817311
8	0x3cec5602	0.028849605
9	0x3ce0c9db	0.027440002
10	0x3d6895b5	0.056783397
11	0xbc2e9006	-0.010654455
12	0x3c113c3f	0.008864461
13	0xbc45d1bd	-0.012073931
14	0xbd251c01	-0.04030991
15	0xbc395fa6	-0.011314308
16	0x3d815e3e	0.063168034
17	0x3d8ff7ea	0.07029708
18	0xbd7c8796	-0.061652742
19	0xbd050f18	-0.032485098
20	0x3c89cd65	0.016821573
21	0x3d59cbf0	0.053173006
22	0x3d9eda50	0.077564836
23	0xbd3f1483	-0.04665042
24	0x3bf81bea	0.007571687
25	0xbd219942	-0.0394528
26	0xbdc838ee	-0.097764835
27	0xbd2af12f	-0.041733917
28	0xbcd44f54	-0.025916733
29	0xbc1548a5	-0.009111558
30	0x3bda91c9	0.006670211
31	0xbd4069c0	-0.04697585
32	0xbcaa568e	-0.020793226
33	0x3c802184	0.015640981
34	0x3d919006	0.071075484
35	0x3d428cae	0.047497444
36	0xbd45ba7b	-0.048273545
37	0x3d6b279a	0.057410814
38	0x3cfaaaff	0.030599115
39	0x3d6559a7	0.055993702
40	0x3c77bf0f	0.0151212355
41	0x3ba1abd3	0.004933813
42	0xbd9a9d67	-0.07549553
43	0x3cc6c5c9	0.024264233
44	0x3c5e442e	0.01356606
45	0x3ca40e76	0.020026427
46	0x3c2ecef4	0.010669459
47	0xbd02c874	-0.03192945
48	0xbd9a3eb8	-0.07531494
49	0xbc661b03	-0.014044526
50	0x3bc46a7f	0.0059941406
51	0x3d8fec07	0.070274405
52	0xbd4e6bf0	-0.050395906
53	0x3c669bc6	0.014075225
54	0x3d7ce214	0.061739042
55	0xbb067aa6	-0.0020519882
56	0xbb5bfcda	-0.003356746
57	0x3cd5c6f9	0.026095854
58	0x3d5666c2	0.05234409
59	0x3c06ce63	0.008227917
60	0xbdda7d1b	-0.10668393
61	0x3c709c52	0.014685707
62	0x3afa79dc	0.0019109803
63	0xbd3d80e0	-0.046265483
64	0x3db1c9e3	0.08681085
65	0x3cb930bb	0.022606244
66	0x3d2de688	0.04245618
67	0x3d123a43	0.035700094
68	0x3d03428b	0.032045882
69	0xbdc8983d	-0.09794662
70	0x3c87e093	0.016586578
71	0xbd433698	-0.047659487
72	0x3d8a13ef	0.06742083
73	0xbdcf0eb6	-0.10110228
74	0xbcfeca8f	-0.031102447
75	0xbd118c19	-0.035534
76	0x3ce56efd	0.028007025
77	0x3c1704c8	0.0092174485
78	0xbd353d3b	-0.044247847
79	0x3da2fbe6	0.07958202
80	0x3e07f02a	0.13275209
81	0xbc845da1	-0.016157927
82	0x3bef72e5	0.0073073977
83	0x3c0f42d2	0.008743959
84	0x3d9979f5	0.074939646
85	0x3db05037	0.0860905
86	0x3c04a16c	0.008095127
87	0x3df0a829	0.11750824
88	0xbd796b97	-0.06089362
89	0x3d51a4af	0.051182445
90	0xbd608a1d	-0.054819215
91	0x3d9cabdf	0.07649969
92	0x3dae67a3	0.08515861
93	0xbcbec91a	-0.023289252
94	0xbd70e85b	-0.05881534
95	0x3a36bebb	0.000697117
96	0x3d826324	0.06366566
97	0x3ccfab29	0.02535017
98	0xbd482219	-0.048860643
99	0xbd98d466	-0.07462387
100	0x3c628821	0.013826401
101	0x3d463f64	0.048400298
102	0xbcbe8bda	-0.023260046
103	0xbc9fa878	-0.019489512
104	0xbd490715	-0.04907902
105	0xbdac5ff3	-0.08416738
106	0xbd18591c	-0.037194356
107	0x3bf16093	0.007366249
108	0xbc7e6cf2	-0.015528904
109	0xbc37ebbc	-0.011225637
110	0xbcb3d08d	-0.02195003
111	0x3d2756d0	0.040854275
112	0x3d3fa3de	0.046787135
113	0x3d0bf352	0.034167595
114	0xbd6c94e4	-0.05775918
115	0x3da4c12d	0.08044658
116	0x3c4bc6b4	0.012437511
117	0x3d3d19e3	0.046167266
118	0xbd464500	-0.048405647
119	0xbd508c96	-0.050915323
120	0x3d8d41b7	0.068973
121	0x3d417164	0.04722728
122	0x3da37029	0.07980377
123	0x3d78f6bc	0.06078218
124	0x3da492b7	0.08035796
125	0x3c5137be	0.012769638
126	0xbd389efb	-0.04507349
127	0xbd414749	-0.047187123
128	0x3d870625	0.06592969
129	0x3cd30783	0.025760418
130	0xbd560498	-0.052250475
131	0x3ae92e1a	0.0017790229
132	0x3d214a5c	0.039377555
133	0xbe0ab31e	-0.1354489
134	0x3d975434	0.07389107
135	0x3cf9ba05	0.030484209
136	0x3be59af3	0.007006997
137	0x3c79522c	0.015217345
138	0xbd0f7e61	-0.035032634
139	0xbccb05f6	-0.024783116
140	0x3d432ee5	0.047652144
141	0xbb8c7a99	-0.0042870757
142	0x3be9381f	0.007117286
143	0xbd78b676	-0.060720883
144	0xbc8307b0	-0.015994877
145	0xbcd65d0f	-0.02616742
146	0x3d03759e	0.03209459
147	0xbd7a09bb	-0.061044436
148	0xbd5e5fe4	-0.054290667
149	0x3dc8c73a	0.098036245
150	0x3ccab3f5	0.024744013
151	0x3d1946cc	0.037421033
152	0x3c30fdcd	0.010802698
153	0xbd4cc895	-0.049995977
154	0x3cc104a7	0.023561789
155	0x3c92f177	0.017937405
156	0xbd889e1c	-0.06670782
157	0x3e1fc089	0.1560079
158	0x3dbef561	0.09324146
159	0x3c937432	0.017999742
160	0x3d470ea7	0.048597958
161	0xbc64839d	-0.013947395
162	0x3d5aa3f4	0.053379014
163	0x3d3804ee	0.044926576
164	0x3d1e4e4d	0.038648892
165	0x3c942f69	0.018089013
166	0x3dd98744	0.10621503
167	0xbc877034	-0.016532995
168	0x3d48d9cd	0.049035836
169	0x3be83c40	0.0070872605
170	0x3d889e62	0.06670834
171	0x3cf978c5	0.030453095
172	0xbc4c2b08	-0.012461431
173	0xbd0fafc0	-0.035079718
174	0x3c12e7a7	0.008966363
175	0xbcef89c0	-0.029240489
176	0x3cfffc9e	0.031248387
177	0x3c05087c	0.008119699
178	0x3c9c82a1	0.019105257
179	0xbdc333e9	-0.095313855
180	0xbd8105bf	-0.06299924
181	0x3d2391b5	0.03993388
182	0xbcf870a7	-0.030327154
183	0xbc8dab66	-0.017293643
184	0xbd8703e4	-0.06592539
185	0xbc3f7436	-0.011685422
186	0xbca0c88e	-0.019626882
187	0xbd217fff	-0.039428707
188	0x3d7baefa	0.061446168
189	0x3d50ddb5	0.050992686
190	0xbd0fa185	-0.035066146
191	0xbd953619	-0.07285709
192	0x3c98b752	0.018642101
193	0x3d404677	0.0469422
194	0x3bc98e05	0.0061509633
195	0x3c989851	0.018627318
196	0x3d17487d	0.036934365
197	0x3d3e2294	0.046419695
198	0x3e0b262b	0.13588779
199	0x3d04d517	0.03242978
200	0x3da330c5	0.079682864
201	0x3d0eac32	0.034832187
202	0xbdc5c917	-0.096574955
203	0xbc975851	-0.01847473
204	0x3d97856f	0.07398497
205	0x3d25f0e0	0.04051292
206	0x3cb9b7ed	0.02267071
207	0xbc9c13be	-0.019052383
208	0xbd859326	-0.06522207
209	0xbd815a7e	-0.06316088
210	0xbb66eea4	-0.0035237456
211	0x3d88f365	0.06687049
212	0x3cbb9b3b	0.022901168
213	0xbd4de4ae	-0.050266914
214	0x3d15f559	0.036610935
215	0x3c2b92d7	0.010472021
216	0x3db620ee	0.088929996
217	0xbb2eecf5	-0.002669153
218	0x3db5015f	0.08838152
219	0x3cdf129b	0.027230551
220	0x3cd39459	0.025827574
221	0xbc8fa2f0	-0.01753375
222	0x3e03048e	0.12794706
223	0xbd058970	-0.032601774
224	0xbd1c3f9c	-0.0381466
225	0xbc77a04a	-0.0151138995
226	0xbd303e50	-0.043028176
227	0x3d240d15	0.04005154
228	0xbd5531f1	-0.05204958
229	0xbcc5d78c	-0.024150632
230	0xbc2ad76f	-0.01042734
231	0x3c8b8771	0.017032357
232	0x3d05a6f5	0.032629926
233	0x3be6f6a9	0.007048447
234	0x3cc93f28	0.024566248
235	0xbd9e9a64	-0.077442914
236	0xbd88601d	-0.06658957
237	0xbd955699	-0.07291908
238	0x3b29fd1f	0.0025938225
239	0xbc94151a	-0.018076468
240	0x3b4c6466	0.0031187772
241	0xbd9bf6e6	-0.076154515
242	0xbd5ef3f4	-0.05443187
243	0xbd0b2ba5	-0.03397717
244	0x3d4f9087	0.05067494
245	0xbc99dbd5	-0.018781582
246	0xbda2769c	-0.07932779
247	0x3d409e2e	0.047025852
248	0x3d074c39	0.033031676
249	0x3d2812ce	0.04103356
250	0xbd5f36e0	-0.054495692
251	0x3e459665	0.19295652
252	0x3d942d74	0.07235232
253	0x3d38b975	0.04509874
254	0x3d54f892	0.051994868
255	0xbd545c2a	-0.051845707

bias f4 [256]
0	0x3d2aeb78	0.041728467
1	0x3cd88a88	0.026433244
2	0x3d2dd105	0.042435665
3	0x3d8c97a9	0.068648644
4	0x3d1fd5f6	0.03902241
5	0x3cff52b0	0.031167358
6	0xbcd83f37	-0.02639733
7	0xbca0ce58	-0.019629642
8	0x3c1d230f	0.009590878
9	0x3cf60199	0.030030059
10	0xbd821543	-0.063517116
11	0xbd0caa41	-0.034342054
12	0x3cd0dc7d	0.025495762
13	0xbaa7cce8	-0.0012802156
14	0x3d795adb	0.060877662
15	0xbc3d6426	-0.011559522
16	0x3d6f492b	0.058419388
17	0xbc6a13f3	-0.014286983
18	0xbd61753f	-0.055043455
19	0x3cb6db24	0.022321291
20	0xbc38d997	-0.011282346
21	0xbd0ccc3e	-0.034374468
22	0xbd44516e	-0.04792922
23	0xbc31bc5e	-0.010848133
24	0xbc3d6159	-0.011558854
25	0x3d907cc5	0.07055048
26	0x3d36b87b	0.044609528
27	0x3b1bc4dd	0.0023768463
28	0xbd0c8d5c	-0.0343145
29	0x3d3780ec	0.044800684
30	0x3c1fe851	0.009759978
31	0xbd045609	-0.032308612
32	0xbcecd8fb	-0.028912058
33	0x3ca1f30d	0.019769216
34	0x3d36b84f	0.044609364
35	0xbc9b1b1f	-0.01893383
36	0xbc9f1125	-0.019417355
37	0xbd905379	-0.07047171
38	0xbd8fd4f9	-0.07023043
39	0xbcf70105	-0.030151853
40	0x3c5fb40f	0.013653769
41	0x3c8b9045	0.017036567
42	0xbccc9683	-0.024974113
43	0x3d117f0a	0.035521545
44	0x3d25fa99	0.04052219
45	0xbc69aa58	-0.0142618045
46	0xbd8030a8	-0.062592804
47	0x3d0158fe	0.03157901
48	0x3d864386	0.06555848
49	0x3d92e77a	0.07173057
50	0x3d49f820	0.049308896
51	0x3ca7536a	0.020425517
52	0xbd0e0a7b	-0.034677964
53	0xbd9d2d3b	-0.07674643
54	0x3d0d2bba	0.03446553
55	0xbce8ceae	-0.028418865
56	0xbcf71d7f	-0.030165432
57	0x3d03e533	0.032201003
58	0xbcb3aadc	-0.021932058
59	0x3d9a7cc7	0.07543331
60	0x3d646740	0.05576253
61	0xbc6907e4	-0.014223073
62	0xbca706b9	-0.020388948
63	0xbcf09f3c	-0.029372804
64	0x3d2bb189	0.041917358
65	0x3d81a3e1	0.063300855
66	0xbc1d0369	-0.009583333
67	0x3d9b07fa	0.07569881
68	0x3cba89ba	0.022770751
69	0xbba082f5	-0.004898424
70	0x3d1b2036	0.037872516
71	0x3d2f311a	0.042771436
72	0xbd314772	-0.043281026
73	0x3c6f3120	0.014599115
74	0xbd560560	-0.05225122
75	0xbca10c46	-0.019659173
76	0x3d8c96cd	0.068647005
77	0x3b3e8ed0	0.0029076822
78	0x3c8b0033	0.016967868
79	0xbd08d490	-0.03340584
80	0xbc034352	-0.008011656
81	0x3ccc2dca	0.024924178
82	0xbd07684b	-0.033058446
83	0x3d46babf	0.04851794
84	0xbc6ff6d9	-0.014646255
85	0xbbe5bd5e	-0.0070110997
86	0xbcce89a1	-0.025212111
87	0x3d71aaf9	0.059000943
88	0xbd6fea0d	-0.058572818
89	0x3ca062c4	0.019578345
90	0x3d34a66e	0.044104032
91	0xbd9d86fb	-0.07691761
92	0xbd3b2a3f	-0.045694586
93	0x3b19b188	0.0023451764
94	0x3be981ac	0.007126054
95	0x3d4daf88	0.050216228
96	0x3be7e3f8	0.0070767365
97	0x3c8b8ffb	0.017036429
98	0xbce7abba	-0.028280128
99	0x3b7c9165	0.003853881
100	0xbb501a24	-0.0031753862
101	0x3c804f6f	0.015662877
102	0x3c549c7e	0.012976764
103	0xbc8ccad4	-0.01718656
104	0x3bbb927b	0.005724249
105	0xbc93999a	-0.018017579
106	0x3c672e6b	0.014110188
107	0x3d8e41de	0.06946157
108	0xbd94a178	-0.0725736
109	0xbd72e6cd	-0.05930214
110	0xbd70d1ba	-0.05879376
111	0xbcd89c2b	-0.026441654
112	0x3cae8809	0.021305101
113	0xbd7865eb	-0.06064407
114	0x3c50caac	0.012743633
115	0x3be9e119	0.0071374294
116	0x3cdd49aa	0.027012665
117	0x3d5f5ba4	0.054530755
118	0x3bc557b0	0.006022416
119	0x3b0f2a64	0.0021845335
120	0xbd94e2a9	-0.072697945
121	0x3d7712de	0.060320728
122	0xbd457c1f	-0.048214074
123	0xbd30e797	-0.04318961
124	0x3b81bc20	0.003959194
125	0x3cfb45c8	0.030672923
126	0xbd20d724	-0.039267674
127	0xbbf75a96	-0.0075486405
128	0xbcdc347c	-0.026880495
129	0x3c55ffad	0.013061446
130	0xbd8bcefd	-0.06826589
131	0x3d19dfe4	0.037567034
132	0x3be02840	0.0068407357
133	0x3ceb3c16	0.028715175
134	0xbd39d3bb	-0.045367938
135	0x3cd34a9f	0.025792418
136	0xbd5fb6db	-0.054617744
137	0x3cd370a9	0.025810556
138	0x3d4a1971	0.04934067
139	0x3ca0a18d	0.019608283
140	0xbd79452c	-0.060856983
141	0xbd075204	-0.0330372
142	0x3d9092eb	0.070592724
143	0xbd4de86a	-0.050270475
144	0xbd127299	-0.03575382
145	0xbd9f7eb8	-0.077878416
146	0x3b707e52	0.0036696387
147	0x3d505d61	0.050870303
148	0xbc44dc69	-0.0120154405
149	0xbd314ddd	-0.043287147
150	0x3c75e2ac	0.015007656
151	0x3ca4d18b	0.02011945
152	0x3bee938e	0.0072807735
153	0x3d610f19	0.05494604
154	0xbbee93dc	-0.00728081
155	0xbbba0348	-0.0056766607
156	0x3d047855	0.03234132
157	0x3d4a63ef	0.04941171
158	0x3cde1ee1	0.027114334
159	0x3d26b810	0.04070288
160	0xbd9a9e26	-0.07549696
161	0x3d33ca6c	0.043894216
162	0xbcc2015b	-0.023682287
163	0xbb6aeae9	-0.0035845584
164	0xbcaf664a	-0.02141108
165	0xbb83f62f	-0.00402715
166	0x3c9b4124	0.01895196
167	0x3d311f24	0.04324259
168	0x3d43461d	0.047674287
169	0x3cd56378	0.026048407
170	0x3d77b861	0.06047857
171	0x3d5c9dc3	0.05386139
172	0xbd837b5e	-0.06420015
173	0x3d63e21c	0.055635557
174	0xbd7be0bf	-0.06149363
175	0xbd890a2c	-0.06691393
176	0x3c90da20	0.017682135
177	0xbd8c1f1f	-0.068418734
178	0x3ce4e438	0.027940854
179	0xbd492ff4	-0.049117997
180	0x3cbe24d2	0.023210917
181	0xbbd3e45f	-0.006466433
182	0xbc4ec122	-0.012619289
183	0xbd651c35	-0.055935103
184	0x3d81a665	0.06330565
185	0xbb4ba891	-0.0031075815
186	0x3d43f6a2	0.04784263
187	0xbc7752b6	-0.015095403
188	0xbd99b285	-0.07504753
189	0xbcd2bf80	-0.02572608
190	0x3d8cc455	0.06873385
191	0x3c4b1157	0.012394271
192	0x3cdbf9ba	0.026852477
193	0xbbee4761	-0.0072716926
194	0xbd926cd6	-0.07149665
195	0xbd56d399	-0.05244789
196	0x3d2da92f	0.042397674
197	0xbc759dcd	-0.014991236
198	0x3b85cefd	0.004083513
199	0x3d8b1f98	0.067931354
200	0xbd6afe3e	-0.05737137
201	0xbd97e072	-0.074158564
202	0xbcf89765	-0.030345628
203	0x3d565087	0.05232289
204	0xbd367a7f	-0.044550415
205	0x3d5936c5	0.053030748
206	0xbd155996	-0.03646239
207	0xbcfe8529	-0.031069355
208	0x3d83dc3e	0.06438492
209	0xbd742332	-0.059603877
210	0xbd83feaf	-0.064450614
211	0xbd1a4443	-0.037662756
212	0x3d7975cd	0.06090336
213	0xbd8fe6e9	-0.070264645
214	0x3d07cc1b	0.033153635
215	0xbd97853d	-0.0739846
216	0xbd8143df	-0.063117735
217	0xbca65880	-0.020305872
218	0xbc4020b4	-0.011726547
219	0x3c80abec	0.015706979
220	0x3c04ef5c	0.008113708
221	0xbc36d653	-0.011159497
222	0xbd61ace9	-0.05509654
223	0xbd8db191	-0.06918634
224	0x3d7b6f7e	0.061385624
225	0x3c0cba12	0.0085892845
226	0xbd2c6e0c	-0.042097136
227	0xbce1d1ec	-0.027565919
228	0x3d83a610	0.06428158
229	0xbb5b6987	-0.0033479647
230	0x3d607296	0.054796778
231	0xbd7ff7c7	-0.06249216
232	0x3d2a1e4e	0.041532807
233	0xbd9b8bc6	-0.07595019
234	0x3d77befc	0.06048487
235	0xbc9217f6	-0.017833691
236	0xbcfae5b2	-0.030627105
237	0x3d96a199	0.07355041
238	0x3c06dcab	0.008231322
239	0x3b2b9cae	0.0026185918
240	0xbd242754	-0.04007657
241	0x3d7def30	0.061995685
242	0xbc35051f	-0.011048584
243	0xbd92ba85	-0.07164482
244	0xbc806eae	-0.015677776
245	0xbcb24391	-0.021760734
246	0xbd2e7c11	-0.042598788
247	0xbbc0f869	-0.005888988
248	0x3c0fc17d	0.008774159
249	0xbbccd104	-0.0062505025
250	0xbcca9acc	-0.024732016
251	0xbd5ccbbe	-0.05390524
252	0xbb0de0b0	-0.0021648817
253	0xbca1d473	-0.019754624
254	0xbd9df101	-0.077119835
255	0xbcbf648e	-0.023363378

weight f4 [128, 256]
0	0xbcf18e8c	-0.029486917
1	0x3c151f79	0.009101742
2	0x3d54d8ad	0.05196445
3	0xbd26b02d	-0.040695358
4	0xbcfa5883	-0.030559784
5	0x3bc66c50	0.0060553923
6	0xbc71c87b	-0.014757271
7	0xbcfe9459	-0.031076597
8	0xb908974b	-0.00013026332
9	0xbd3bf93f	-0.045891996
10	0xbd4d62fa	-0.05014322
11	0x3d215d88	0.03939584
12	0x3c2f3a0e	0.010694994
13	0x3d33dba1	0.043910626
14	0xbc667ccd	-0.014067841
15	0xbc5f0696	-0.01361241
16	0xbb8f0180	-0.0043641925
17	0xbc0b686f	-0.008508786
18	0x3d057d2c	0.032590076
19	0xbca5f918	-0.020260379
20	0xbd883b5d	-0.06651948
21	0xbd320392	-0.043460436
22	0xbd0b22d2	-0.033968754
23	0xbce31905	-0.027721891
24	0xbd257325	-0.040393014
25	0xbd64a32c	-0.055819675
26	0x3d110ea4	0.035414353
27	0xbcf2f966	-0.029659938
28	0xbc34d610	-0.011037365
29	0xbc9b21ec	-0.018937074
30	0xbd02acdc	-0.031903133
31	0xbd4a0733	-0.049323272
32	0xbd2400c8	-0.040039808
33	0x3ccaf674	0.024775721
34	0x3cffa5c0	0.031206965
35	0x3d30a6ed	0.043127943
36	0xbcadf0ca	-0.021232981
37	0x3d0a4951	0.033761326
38	0x3d281678	0.041037053
39	0xbcfe0919	-0.031010197
40	0x35dda320	1.6513259e-06
41	0xbcbbe805	-0.022937784
42	0xbd69bda0	-0.057065606
43	0xbd218b39	-0.039439414
44	0xbbb7722d	-0.0055983276
45	0x3d442e03	0.047895443
46	0x3d3049df	0.0430392
47	0x3d1a69da	0.037698604
48	0xbd48a32a	-0.04898373
49	0x3cb85761	0.022502603
50	0xbbed2c4d	-0.007237947
51	0xbb0b57c7	-0.0021262036
52	0xbd892d04	-0.06698039
53	0x3cdb6965	0.026783654
54	0x3d49f355	0.049304325
55	0x3cc5ee28	0.024161413
56	0x3d5877c3	0.05284859
57	0xbc12599c	-0.008932497
58	0xbd1df117	-0.03856
59	0xbcefcf0f	-0.029273538
60	0x3bd47ee6	0.006484854
61	0x3c78a0c8	0.015175052
62	0x3d285928	0.04110065
63	0xbca88ab6	-0.020573955
64	0xbd2f43b0	-0.04278916
65	0xbd491c2f	-0.049099144
66	0x3d13563e	0.03597092
67	0xbc69d95d	-0.014273015
68	0xbd9b3930	-0.07579267
69	0x3cdf52f2	0.027261231
70	0xbcc4270a	-0.023944397
71	0xbd34e92a	-0.044167675
72	0x3aafbf1e	0.0013408398
73	0x3d8107c0	0.06300306
74	0x3c161830	0.00916104
75	0x3b9505a3	0.004547791
76	0xbc8cdfd5	-0.017196575
77	0xbd523f66	-0.051329993
78	0xbadbfe44	-0.0016784151
79	0xbc8f1086	-0.017463934
80	0xbc7e6214	-0.015526313
81	0xbc395fbe	-0.011314331
82	0xbd3a9f1b	-0.04556189
83	0xbd4d3600	-0.050100327
84	0xbcb1d19f	-0.0217064
85	0xbd2d3436	-0.04228612
86	0x3c495bf1	0.012289987
87	0x3d4e3785	0.050345916
88	0xbd554cb0	-0.052075088
89	0x3d3cf837	0.046135154
90	0x3d2613c7	0.040546205
91	0xbd4f0d7c	-0.05054997
92	0x3c4eef90	0.012630358
93	0xbb22c823	-0.002483853
94	0x3d6bfb53	0.05761273
95	0x3d373ced	0.044735838
96	0x3c207102	0.009792568
97	0x3c8e2104	0.017349727
98	0xbcf6545a	-0.030069519
99	0xbce91261	-0.028451147
100	0xbd601266	-0.054705046
101	0x3ce148ee	0.027500596
102	0xbc384856	-0.011247715
103	0x3c949ece	0.01814213
104	0xbc8ea150	-0.017410904
105	0x3d7e2d78	0.06205508
106	0xbbdaf51c	-0.0066820513
107	0xbd0a10a7	-0.033707287
108	0xbd390394	-0.045169428
109	0x3b6af362	0.0035850634
110	0x3d0982f2	0.033572145
111	0x3c8f330a	0.017480392
112	0xbd082198	-0.033235162
113	0xbcdc01df	-0.026856361
114	0x3d70c8d0	0.05878526
115	0xbd7f975f	-0.062400218
116	0x3d5a993c	0.053368792
117	0xbd117626	-0.035513066
118	0x3d06f2fb	0.032946568
119	0xbd29ef1f	-0.04148781
120	0xbd33cfa1	-0.043899182
121	0x3cf861c6	0.03032006
122	0x3c163af4	0.009169329
123	0x3ce41042	0.027839784
124	0x3d3ac5ed	0.045598913
125	0xbd3c03d5	-0.045902092
126	0x3c86396f	0.016384808
127	0x3a66a7ca	0.0008798806
128	0x3c4a5a8a	0.012350688
129	0xbd876910	-0.06611836
130	0x3cc0c21d	0.02353006
131	0x3d73fbe1	0.059566382
132	0x3be0f856	0.0068655415
133	0x3b6d7d38	0.0036237966
134	0x3d463e60	0.04839933
135	0xbd50353f	-0.05083203
136	0xbd396d99	-0.045270536
137	0xbd061897	-0.032738294
138	0x3d225f82	0.039641865
139	0x3d0e1da4	0.034696236
140	0x3d3e9558	0.046529144
141	0x3bcb14c3	0.0061975433
142	0x3d0b8a08	0.034067184
143	0xbc943f45	-0.018096576
144	0x3d489a05	0.04897501
145	0x3d0ab3b6	0.033862792
146	0x3d0a5374	0.033770993
147	0x3d275e83	0.040861618
148	0x3d547c7d	0.051876534
149	0xbd4c7e9d	-0.049925435
150	0x3d4d7f83	0.050170433
151	0x3c8b3058	0.016990826
152	0x3a8267eb	0.0009949183
153	0x3d229cb8	0.03970024
154	0x3d40b99f	0.047052022
155	0x3d1a84ee	0.037724428
156	0x3cc0f063	0.023552125
157	0xbced1b41	-0.02894366
158	0x3c2bd851	0.010488586
159	0xbd8fade4	-0.07015589
160	0xbcf30868	-0.029667094
161	0x3d3defbe	0.046371214
162	0xbd56ee6a	-0.052473463
163	0xbcdfbeb3	-0.027312612
164	0x3cab728e	0.020928647
165	0x3c36d458	0.011159025
166	0x3d3ab572	0.045583196
167	0x3d3cf052	0.046127625
168	0xbd51508d	-0.05110221
169	0x3d447ebf	0.047972437
170	0xbd4b2034	-0.04959126
171	0xbbeae142	-0.007167966
172	0x3d2e0ba2	0.042491563
173	0xbd1b4c97	-0.03791484
174	0xbd5d63a4	-0.054050103
175	0xbd098488	-0.033573657
176	0xbc769c84	-0.015051965
177	0xbd580dc6	-0.05274751
178	0xbb4086f0	-0.0029377304
179	0x3bd40516	0.006470333
180	0xbd4ef874	-0.050529912
181	0x3cb333ad	0.021875227
182	0xbc3e06d5	-0.011598309
183	0xbd68640f	-0.05673605
184	0x3d1db4e7	0.0385026
185	0xbd8bf714	-0.06834236
186	0xbd17be39	-0.037046645
187	0xbcf92271	-0.03041193
188	0x3d2de6c1	0.042456392
189	0x3c7e6534	0.015527058
190	0xbd6a75da	-0.0572413
191	0x3d448166	0.047974966
192	0xbc149ec2	-0.009071054
193	0x3d287579	0.041127656
194	0x3d0cb0d3	0.03434832
195	0xbc7e5082	-0.015522124
196	0xbd0b0bda	-0.03394685
197	0xbba29a64	-0.0049622525
198	0xbd0cd43a	-0.034382083
199	0xbbbb0180	-0.005706966
200	0xbc5134cf	-0.012768938
201	0xbbef1a1b	-0.007296813
202	0xbbd1bde1	-0.006400809
203	0xbc919c93	-0.017774856
204	0x3c6f7a19	0.014616513
205	0x3ca242df	0.019807277
206	0x3cdff280	0.027337313
207	0x3d63bc03	0.055599224
208	0xbcd404b6	-0.025881153
209	0xbc8c8263	-0.017152017
210	0x3c349d8b	0.011023889
211	0x3c9d1b7f	0.01917815
212	0x3d2ee6cb	0.04270057
213	0x3d31fbca	0.043453015
214	0xbd71148b	-0.058857482
215	0x3cede635	0.029040435
216	0x3d36aec9	0.044600282
217	0x3d393bb3	0.04522295
218	0xbd808bc5	-0.06276659
219	0x3d42b9c9	0.04754046
220	0x3c83fa74	0.016110636
221	0xbd21eaf8	-0.039530724
222	0xbcb2d5fe	-0.021830555
223	0xbd23d8aa	-0.04000155
224	0xbc57f171	-0.013180123
225	0x3cba7aa7	0.022763563
226	0x3d225d0c	0.039639518
227	0x3cc9ffcc	0.024658106
228	0xbbd17a36	-0.0063927425
229	0x3d34e400	0.04416275
230	0xbd44a60c	-0.048009917
231	0xbcdca5d2	-0.026934538
232	0x3cd5bea0	0.026091874
233	0x3d53a3a2	0.051669724
234	0xbd4eb8ee	-0.05046933
235	0xbcbbf16a	-0.022942264
236	0x3d5043f9	0.050846074
237	0xbd0e1c9b	-0.03469525
238	0x3c49cfa5	0.012317573
239	0xbd6cd962	-0.0578245
240	0xbd648f1d	-0.055800546
241	0x3d3f5dec	0.04672043
242	0xbce11b65	-0.027478883
243	0x3d05fe7a	0.03271339
244	0xbac552e0	-0.0015054606
245	0xbd473c0d	-0.048641253
246	0x3c331bee	0.010931952
247	0x3d758089	0.059937034
248	0x3d837d55	0.064203896
249	0x3c6e8e60	0.014560312
250	0x3c0392b0	0.0080305785
251	0xbcd51a86	-0.026013624
252	0x3d356b30	0.044291675
253	0x3d839f81	0.06426907
254	0xbd0aa5fb	-0.033849698
255	0xbc3d29c6	-0.011545604
