models/model_objs/bruhh?.pth (torch, 836083 bytes, 11 tensors)

weight f4 [256, 135]
000000 c3 7d 8a 3d da 07 8d 3c ec b9 9f 3d 48 38 ae bd
       0.067622684 0.017215658 0.07799134 -0.085068285
000010 a4 47 c3 bd 89 b2 9b bd 64 9d 8c bd b4 d0 d1 3c
       -0.09535149 -0.07602412 -0.068659574 0.025612213
000020 6b a9 74 3c a3 02 76 3d d6 94 37 bd 1e 87 9a bd
       0.0149329705 0.06006111 -0.044819675 -0.07545303
000030 16 88 00 3d 36 ac 1c bd 3f 98 55 3d 6c 01 a2 bc
       0.03137978 -0.03825017 0.052147146 -0.019776069
000040 7f 23 40 3d d5 ab a4 bd b0 78 88 bd 2e 07 e8 3c
       0.04690885 -0.08040587 -0.06663644 0.028323736
000050 be 96 ab bb 55 25 67 bc d8 d4 2f 3d 5a 95 fb 3c
       -0.0052364757 -0.014108022 0.042927593 0.030710865
000060 4f 97 7f bd 4f 41 86 bd 79 4c ad 3d 52 50 8e bd
       -0.06240016 -0.065554254 0.084618516 -0.06948914
000070 02 7b f9 bc fe 21 ac bd 0c b0 19 bd 19 eb 55 3c
       -0.030454163 -0.08404921 -0.037521407 0.01305654
000080 a8 82 c9 bc 44 aa 22 3a 40 35 87 3d 2e 0d 8d 3b
       -0.024598435 0.0006205181 0.066019535 0.0043045497
000090 2b 30 f6 bd 70 30 c8 bd f4 8c 77 bd ce 04 70 bd
       -0.12020906 -0.09774864 -0.060437158 -0.058598332
0000a0 89 ec b8 3d e6 2d 82 3c 06 09 df 3c 66 87 bb bd
       0.090294905 0.015891027 0.027225982 -0.091566846
0000b0 2d 97 59 bd a9 14 3e bd 57 5e a0 bc 5d d1 ab bd
       -0.053122688 -0.04640642 -0.019576235 -0.08389542
0000c0 71 30 c8 bd ca 39 89 bd f2 6c 04 bc 9d 56 90 bd
       -0.097748645 -0.067004755 -0.008082615 -0.0704777
0000d0 99 8b fd 3c c7 b3 0e bd 05 63 cd bc 86 79 b4 bc
       0.030950354 -0.034839418 -0.02507163 -0.022030603
0000e0 e6 40 1f bc 14 80 71 3c 34 b4 d9 3c 1b b4 86 bc
       -0.009720063 0.014740009 0.026575185 -0.016443303
0000f0 7d 46 25 3d 44 78 99 3c 2f 13 a5 bd 61 ee 2f 3d
       0.040350426 0.018734105 -0.080602996 0.042951945
000100 b6 38 03 bd 00 b9 87 bd db e3 9b bd fc 07 a2 bd
       -0.032036506 -0.06627083 -0.07611819 -0.07911679
000110 ea 0f fe 3b dc 94 63 bc fe c8 65 3d 42 22 d0 3a
       0.007753362 -0.013890471 0.056099884 0.001587935
000120 db 97 12 3c 24 88 c9 bd e4 89 2e bd da 7f c2 3d
       0.008947338 -0.0984042 -0.04261197 0.09497042
000130 b8 b3 39 3d da 8e 8b 3d 79 7b c2 3d 3c f5 e0 bd
       0.04533741 0.06814356 0.09496207 -0.10984275
000140 a9 6a 36 bc 23 9c 99 bd d3 9a e4 bc f7 03 96 bd
       -0.011133828 -0.07500484 -0.027905857 -0.07324975
000150 a0 4a c8 3d 27 da 34 bd 0c 4a 26 3d b8 4c 34 3d
       0.097798586 -0.04415336 0.04059796 0.044018477
000160 ad 74 17 3c a2 f7 45 bd ec b4 a9 3d 01 a8 97 3c
       0.009244126 -0.048331864 0.08286461 0.018512728
000170 cf 5f 9c 3a ac 95 bd bd 03 13 d5 3c c0 69 89 ba
       0.0011930409 -0.09257063 0.026010042 -0.0010483786
000180 6e aa 9a bd ef f0 6e 3d 50 34 4d 3c 8c 82 f4 bb
       -0.07552038 0.05833524 0.012524679 -0.0074618515
000190 65 20 ac bc d9 2c b5 bc bb 00 82 3c 1e 91 5d bd
       -0.02101154 -0.022116112 0.015869489 -0.054093473
0001a0 96 8c d1 bd db d5 6a bd e8 b1 ed bc 3b 3a 3b bd
       -0.10231893 -0.057332855 -0.029015496 -0.04570983
0001b0 dc a8 91 3d d7 01 d7 bd b3 ce 64 3d 1b 92 3e 3d
       0.071122855 -0.10498398 0.055861186 0.046526056
0001c0 0f 41 f5 3c b8 19 84 bd 02 91 bf bc a5 f9 94 3d
       0.029938249 -0.06450218 -0.023384575 0.072741784
0001d0 9d 6e 6e 3b 93 bd aa bc 9e de a5 ba cf 57 60 3b
       0.0036381849 -0.02084235 -0.0012654846 0.0034232026
0001e0 86 aa 60 bc b6 17 88 bc 40 d8 1a 3d 45 d7 60 3d
       -0.013712531 -0.016612869 0.03780389 0.054892797
0001f0 0a b3 8e 3b 3b 26 06 bc a7 f2 84 bc 61 a6 8f 3c
       0.004354839 -0.008187826 -0.016228987 0.01753539
000200 79 fc 18 3d 32 e1 17 3d 70 d9 be bd d3 c4 3f bd
       0.03735015 0.037079997 -0.09318817 -0.046818566
000210 07 bf 9a 3d 39 96 10 3d 04 3f fd bc 00 da 7d bd
       0.07555967 0.035299513 -0.030913837 -0.06197548
000220 4e fc 63 bd 72 a5 ac bd 87 81 0a bd 97 85 68 3c
       -0.05566054 -0.08429994 -0.033814933 0.014192007
000230 69 7b 42 3d 66 61 0b 3d 80 53 a7 bd a0 d6 85 bd
       0.047480974 0.034028433 -0.08170223 -0.06535077
000240 8d ae c4 bc b2 16 ad 3d d6 83 67 bb 6a 61 0a bd
       -0.024009014 0.084515944 -0.0035326383 -0.033784308
000250 9c e1 0b 3d a8 a9 1b bd 18 f1 54 bd a0 ac 81 3d
       0.034150705 -0.038003594 -0.051987737 0.06331754
000260 5b e2 48 bd b3 ad ed bb 8e 54 9b bd 35 99 39 3d
       -0.049043994 -0.0072533726 -0.07584487 0.045312125
000270 a9 ac bf 3d 87 49 75 3d d6 96 2e bd 02 98 6b bd
       0.09359104 0.059884574 -0.042624317 -0.057518013
000280 0f 3d ad bd 1c 66 5e 3d 24 a5 db 3c 6c b6 ca 3d
       -0.08458912 0.054296598 0.026812144 0.098980755
000290 84 ee 2b 3d 95 d4 06 3d 17 e2 8e bc 2c 21 65 bd
       0.041975513 0.032917578 -0.017441792 -0.05593984
0002a0 98 9e 01 bd 12 92 18 bd 24 5d 9e 3d 94 83 39 bd
       -0.031645387 -0.03724868 0.07732609 -0.0452915
0002b0 a1 6d 9f bc 79 1d 6c bd d1 cc 9f bc 8b d2 90 bd
       -0.019461455 -0.057645295 -0.019506844 -0.07071408
0002c0 e2 94 67 bd 5e ed e7 3c 8b c6 0b bd 1e 0b 27 3d
       -0.05653847 0.028311428 -0.034124892 0.040782087
0002d0 79 4a c7 bc 04 77 22 bd 32 1d 2f bc 5f 3e 77 bd
       -0.024327504 -0.039664283 -0.010688113 -0.060362216
0002e0 7c ac b7 bc 96 6a 09 be d5 67 78 3c 85 64 8e bd
       -0.022421114 -0.13419566 0.015161474 -0.06952766
0002f0 af 30 8c 3d 12 e1 9b 3d 47 d6 c3 3d de 92 98 bd
       0.06845223 0.07611288 0.095623545 -0.07449888
000300 ac 0a a6 3d 91 2d ab bd 29 57 a3 3d f4 95 9a 3d
       0.08107504 -0.083583005 0.07975609 0.075481325
000310 c3 71 54 3c a7 5c 93 bc 6a 20 6c bd 94 18 98 bd
       0.012966576 -0.017988516 -0.0576481 -0.07426563
000320 e7 30 b9 3c 7b e8 01 be f3 8b 66 3d d0 c7 95 3d
       0.022606326 -0.1268634 0.05628581 0.07313502
000330 04 0e c7 3d 29 8c a3 bc 62 a0 1d bd 24 0e 30 3d
       0.0971947 -0.019964295 -0.03848303 0.042982236
000340 b0 b8 5f bc dd af c7 bd ea 91 12 bd 8f e3 9b bd
       -0.013654873 -0.0975034 -0.035783686 -0.07611763
000350 2e fc e4 3b 71 dd f9 bc fa 0c 8a bd d6 88 72 bd
       0.00698807 -0.0305011 -0.06740756 -0.05921253
000360 eb d7 e3 bd aa 26 7b 3d cc 98 9d 3d 65 24 f4 bc
       -0.111251675 0.06131617 0.07695159 -0.02980251
000370 a0 2a 89 3c e8 c7 e8 bc 09 e6 4c bd 53 83 de bd
       0.016743958 -0.028415635 -0.050024066 -0.10864892
000380 48 bd 0b 3d ab 8e 41 bd 93 eb 3b bd 3c 87 d7 39
       0.03411606 -0.0472552 -0.045878958 0.00041108753
000390 b1 5d 39 bd e1 9c 01 bd f4 ea 1b 3d ba e2 4e bd
       -0.045255367 -0.031643752 0.038065866 -0.050509192
0003a0 01 38 0a bd 0c 3d 31 bd 82 08 15 bd 09 e9 a8 3d
       -0.033744816 -0.04327111 -0.036385067 0.08247573
0003b0 c9 71 6e bd 9f bf 01 3d de f0 d3 bd 2d 14 8c bd
       -0.058213983 0.031676885 -0.10348676 -0.06839786
0003c0 8b 9c 38 3d 40 bc c8 3d 2a 2e 22 be a0 dd e0 3c
       0.045071166 0.09801531 -0.15837923 0.027449429
0003d0 28 be b1 3d 0d 29 50 3d 4e 3d bd 3d 1c 0b c0 3d
       0.086788476 0.0508204 0.092402086 0.09377119
0003e0 8d 5d 69 bd 9f 97 de 3b cc 20 38 bc 3e 0c 6c bd
       -0.056973983 0.006792977 -0.011238288 -0.057628863
0003f0 c7 a9 85 3d 74 f8 88 3d 21 78 95 bd a7 5a 7c bd
       0.06526523 0.06688014 -0.072983034 -0.06160989

bias f4 [256]
000000 f0 0f aa 3c 7c c5 8a bd 8f bf cf 3c e0 3f 19 3d
       0.020759553 -0.067759484 0.025359897 0.03741443
000010 99 4f 18 3d d6 e5 08 3c 69 9b 7b 3d 99 c3 80 3d
       0.037185285 0.008355578 0.061427508 0.06287307
000020 ad b1 60 3d 9b 98 58 bd 1a 73 72 3c 47 a2 34 3d
       0.054856945 -0.05287991 0.01479795 0.044100072
000030 44 67 a2 3d 1f b9 a9 3d 1d 94 ad bd 94 4a 92 3d
       0.079298526 0.08287262 -0.08475516 0.07143131
000040 46 ec 7d 3c f2 e5 55 bd 83 32 c4 bd d1 f5 af 3c
       0.0154982265 -0.052221246 -0.09579947 0.02147952
000050 e5 d0 69 3d e6 71 89 3d bd c5 6c 3d e0 e8 73 bd
       0.057083983 0.067111775 0.057805765 -0.05954826
000060 c5 d8 ba bd 12 a2 dc bc ba 34 2f bd 5a d4 39 bd
       -0.09123377 -0.02693275 -0.042774893 -0.04536853
000070 06 7b 91 bd b9 fe 5a 3d 6e 46 ae 3c 6f ef 3d 3d
       -0.07103543 0.05346558 0.021273818 0.04637092
000080 64 c2 35 bd 38 de 3f bd 4a 37 0d 3c 29 5d 6d 3d
       -0.04437484 -0.046842784 0.008619139 0.057950173
000090 1a 45 1e 3d 66 bb 0a 3d bb 62 03 bd b3 53 c9 3c
       0.03864012 0.033870123 -0.03207658 0.024576044
0000a0 a4 b3 d1 bc c5 17 85 3d 04 84 96 3d 6a b9 66 3c
       -0.025598355 0.06498674 0.07349399 0.014082292
0000b0 9a 13 2b bc 37 95 b2 3d 00 f8 75 bd 22 8c 5b ba
       -0.010441685 0.08719867 -0.060050964 -0.00083750684
0000c0 a4 f5 84 3b dc 35 8d bc 6e 47 31 3c a9 9b 52 bd
       0.004057603 -0.017237596 0.010820253 -0.05141798
0000d0 9b 05 9b bb ee 3b 12 3d 3f 77 8b 3d 21 4e 92 3d
       -0.004730893 0.035701685 0.06809854 0.07143808
0000e0 dc 02 39 3d 17 72 a9 3d 27 3f 23 3d ed e5 0e 3d
       0.045168743 0.08273714 0.03985515 0.034887243
0000f0 76 2c f7 3c be d3 40 3d 68 8f 83 3b 85 ab 7d bd
       0.030172568 0.047076933 0.004014898 -0.061931152
000100 17 4d 14 3c 01 3c 15 bc 0c 3e df bc e2 bd 17 bd
       0.009051583 -0.009108544 -0.027251266 -0.03704632
000110 35 dd f8 bc e1 0b 20 bd 66 e8 b4 3d 7c 34 0a bd
       -0.030378917 -0.03907383 0.08833389 -0.03374146
000120 5d 86 a2 3b 3a 08 00 bc f7 6a 7b 3d fd 82 f0 bc
       0.004959865 -0.007814461 0.061381306 -0.029359335
000130 a5 f3 2f 3d 5c 4f 9f bd 44 dc d4 3c a2 fa 82 bd
       0.042956967 -0.077788085 0.025983937 -0.06395461
000140 4c 0b 89 3c 6b 5d 28 3d fc f9 1c 3d 3b 93 9f 3c
       0.01672902 0.041104715 0.03832434 0.019479385
000150 c2 69 24 bd 43 66 33 bd d5 b0 3a bd 14 19 4a bc
       -0.04013992 -0.043798696 -0.045578796 -0.012335081
000160 7a f9 ce bc 05 92 93 3d b5 34 0d 3d be 59 8d 3a
       -0.025265444 0.072055854 0.034474093 0.0010784192
000170 c5 e9 7a 3d 9a 67 0b 3b cc 71 79 bd 7d 81 41 bd
       0.061258096 0.0021271468 -0.06089954 -0.04724263
000180 70 1f 97 3d 84 8b 1b 3d 07 d9 91 3c 90 5f e8 bc
       0.07379043 0.03797485 0.017803682 -0.02836588
000190 e0 40 30 b7 f3 99 f0 3a c5 e0 65 bd 81 bc d4 bc
       -1.0505522e-05 0.0018356427 -0.05612256 -0.025968792
0001a0 3c 8f 46 bd 78 8f f9 3c 0d c5 2b 3d 70 c2 82 ba
       -0.048476443 0.030463919 0.04193597 -0.000997616
0001b0 bd 0a 14 3d 1a 28 86 3c 89 2c 52 bd 1a 57 9a bb
       0.036143053 0.016376544 -0.051312003 -0.0047100903
0001c0 cd eb 9e bd f9 ab d6 3c 8e da 76 3d 67 87 51 bc
       -0.07759819 0.02620505 0.060267024 -0.01278863
0001d0 92 bc ce bb ce 40 a2 3d af bf 68 3d 0f eb 40 3d
       -0.0063091004 0.07922517 0.05682343 0.04709917
0001e0 74 3e 32 3d 2e 29 ab 3c 20 cb ad 3d 68 cb 59 bd
       0.04351659 0.02089366 0.08486009 -0.0531725
0001f0 5c 55 94 3d d8 b7 68 bb 3e bb 30 bd 50 5b 99 3d
       0.072428435 -0.003550997 -0.043147318 0.074881196
000200 fc 6c b8 3d 91 32 a7 3d 48 c6 06 3d 51 0e 67 3c
       0.09005162 0.08163942 0.03290394 0.014102534
000210 5f c3 0b bd a0 fd 7d bb 59 09 cd 3b ae d4 15 bd
       -0.034121867 -0.0038755909 0.006257218 -0.03657978
000220 28 b8 48 bd c3 85 36 bd 5f e8 18 3d 55 c8 3e 3d
       -0.04900375 -0.04456116 0.03733098 0.04657777
000230 fd a3 87 3c 29 b6 51 3d 11 04 a7 bc 23 2e 40 bd
       0.016557688 0.051199112 -0.020387681 -0.046919
000240 1e d3 88 3d d4 ae fd 3c 1e 1a 3d 3c 90 d2 35 3d
       0.066808924 0.030967154 0.011541871 0.04439026
000250 18 4d 6e bd 39 e4 51 bd 4a ff 89 3d 54 da 02 bd
       -0.05817899 -0.05124304 0.06738146 -0.031946495
000260 a9 a6 93 3a c3 dd ac 3d b8 7e aa 3d cd f8 54 3d
       0.0011264879 0.08440735 0.08324951 0.051995087
000270 eb c8 d4 3c 66 15 8a bd c3 76 8c bc b3 05 07 3c
       0.025974711 -0.06742363 -0.017146474 0.008241105
000280 1d 02 b2 bc 98 7c 45 bd b8 0c 7b bd be d1 74 3d
       -0.021729523 -0.048214525 -0.061291426 0.05977034
000290 a5 3a 14 3c 7a bf e8 bc 9e e6 f5 bc 22 27 3c bd
       0.009047185 -0.028411616 -0.030017193 -0.045935757
0002a0 54 68 94 3d 66 4f ba bc ee 73 24 bd 53 74 98 bd
       0.072464615 -0.022742938 -0.04014962 -0.07444062
0002b0 6e 98 81 3d c6 f5 c8 3d fc 74 3b 3d 63 f6 81 3d
       0.06327902 0.098125026 0.045765862 0.06345823
0002c0 16 86 ab bc 39 f6 7a bd 20 ec ba bc 58 04 62 3c
       -0.02093796 -0.061269972 -0.022817671 0.013794981
0002d0 56 73 bb 3d 87 0a 90 3c 15 a0 06 3d 76 0a a6 3d
       0.09152858 0.017583145 0.03286751 0.08107464
0002e0 98 00 ab bc 1c e3 ab bd 6f 40 41 bd 87 7c b4 bd
       -0.020874307 -0.08392927 -0.04718059 -0.08812814
0002f0 d6 f7 41 3d 99 26 0d bd 12 67 00 bc 0e 0f 16 bd
       0.047355495 -0.034460638 -0.007837074 -0.03663545
000300 fd ba f5 bc 96 24 bd 3d f5 eb 80 3c de 18 23 bd
       -0.02999639 0.09235494 0.015737513 -0.039818637
000310 0f f3 83 3d d3 1d 36 bd 1f f4 14 3c 73 c3 6f bd
       0.06442844 -0.044462036 0.009091406 -0.058536004
000320 dd ee f8 3b 16 13 85 bd bb 5e 60 3d 42 66 94 bc
       0.007596834 -0.06497781 0.054777842 -0.018115167
000330 76 25 af 3c 8d 2c 2c bd 2a 3e b5 3d 89 89 93 3d
       0.021380167 -0.042034674 0.088497475 0.07203967
000340 1d 37 8a 3d fd 5b aa bd 0f a1 a0 bd 2d c3 83 bd
       0.06748793 -0.083183266 -0.078432195 -0.06433711
000350 98 85 33 3d 7b 27 5a 3d 3b d1 fd 3c b1 c7 73 bd
       0.043828577 0.053260308 0.030983558 -0.059516612
000360 c2 42 32 3d f2 e9 a4 bd 64 85 90 bd 5d 41 e5 bc
       0.043520696 -0.08052434 -0.07056692 -0.02798527
000370 a4 18 3a 3d 90 81 4a bd 4f f9 7f 3d e6 4f 51 3d
       0.045433655 -0.049439967 0.06249362 0.051101588
000380 db 7b 00 3d dc 78 a6 bd 47 fa ab bc 2a 37 b7 bd
       0.031368118 -0.08128521 -0.020993365 -0.089460686
000390 f1 73 20 bc d0 4f 74 3d 1c 3b 9a bc ab 21 ba 3d
       -0.009793268 0.059646428 -0.018827014 0.09088453
0003a0 85 df 88 3d 02 78 59 bc 74 eb 86 3c ed 21 7b 3d
       0.06683258 -0.013273241 0.016469695 0.06131165
0003b0 5e 71 2c 3c a3 f8 30 bb 88 ba 99 3d 63 63 6b bd
       0.010525076 -0.0027003668 0.07506281 -0.05746783
0003c0 37 ce 37 bd 54 f9 30 bc 33 26 b6 3d 5e 5b 88 bd
       -0.044874396 -0.010801632 0.08894005 -0.06658052
0003d0 f4 1f 36 bd 88 06 29 bd 01 a8 8c bc 30 72 ac bd
       -0.044464067 -0.041265994 -0.017169954 -0.08420217
0003e0 0d 24 68 bd 02 2c ac 3c 50 b3 6b 3d f2 f4 a9 3c
       -0.056675006 0.021017078 0.057544053 0.020746682
0003f0 45 1f 19 3c 0e a1 90 3d 2c ba f4 bb bb b0 35 3d
       0.009345834 0.07061969 -0.0074684825 0.044357996

weight f4 [256, 256]
000000 65 6e d0 3c 49 3f 17 3b 6a ae 2b 3d 1d d0 95 3d
       0.025443265 0.0023078492 0.04191438 0.07315085
000010 f8 a2 fa 3b cc 9b 96 3d e0 2c 35 3d fb c1 04 bc
       0.007648822 0.07353935 0.04423225 -0.008102889
000020 88 56 2d bd b0 5e e4 3b b8 41 50 bd ec 83 8f 3c
       -0.04231885 0.0069692954 -0.050843924 0.01751896
000030 82 3d 61 3a a4 10 00 3c 15 87 08 3d 75 1a 48 3c
       0.0008592234 0.007816467 0.03333195 0.012213339
000040 e1 a2 d1 bc 12 d6 b9 bb 3b 60 8f bc e0 89 95 3d
       -0.025590362 -0.005671271 -0.017501941 0.07301688
000050 9a 32 6d bc 29 0a 26 3d ad 7b eb 3c 73 80 20 3d
       -0.014477396 0.040537033 0.028745497 0.039185
000060 77 a5 47 bd 72 06 30 3d 62 6e b4 39 d2 bd 47 bd
       -0.048741784 0.042974897 0.00034414517 -0.04876501
000070 2a 45 8a bd 1a 11 45 3c 4b fe e1 3c e9 65 0f bd
       -0.06751473 0.012028003 0.027587077 -0.0350093
000080 d7 9f b2 3c d4 01 af bb 59 5d 1a bd 8f dd 3f 3c
       0.021804733 -0.005340794 -0.03768668 0.0117105385
000090 10 56 1c 3d 58 6c 89 bd 13 b4 10 bb c0 6b 7d 3b
       0.038168013 -0.06710118 -0.002207999 0.003866896
0000a0 cc dc 64 bd 4a 36 4e bc 9a e8 32 3d c9 f5 66 bd
       -0.05587463 -0.012586186 0.043678857 -0.056386743
0000b0 7c 68 48 bd 92 58 f4 3c 25 06 a2 3d 80 e6 80 bd
       -0.04892777 0.02982739 0.07911328 -0.062939644
0000c0 46 fb 65 3d 5d c4 04 bd 2a 3a e0 bc 08 f2 fc 3c
       0.056147836 -0.03241383 -0.027371485 0.030877128
0000d0 b6 17 b2 3d 09 58 58 3c 9a aa be bc 73 46 b3 bc
       0.08695929 0.013204583 -0.023274709 -0.021884179
0000e0 a4 11 04 bd 93 d9 56 bd 4a a2 29 3d 6c b1 b1 3c
       -0.032243386 -0.05245359 0.041414537 0.021691047
0000f0 ef f3 21 3c c8 d2 87 3c 86 62 fd 3c 5d e3 19 3d
       0.009884818 0.01658 0.030930769 0.037570346
000100 57 8c e6 3b d6 68 06 3d 5c 91 bb bc 37 d3 cd 3c
       0.007035773 0.032814823 -0.022896461 0.02512513
000110 91 ac 1e 3d ac 44 6e bd 6e 19 eb 3c 5e a6 37 bd
       0.03873879 -0.05817096 0.02869865 -0.044836394
000120 d6 c2 0e bd 80 2f 18 bd 8e 88 f7 ba 2f 61 e2 3c
       -0.03485378 -0.037154675 -0.0018885301 0.027634231
000130 2b f0 1e bc d4 99 f4 3c 27 ec 4a bd d5 97 1b bc
       -0.009700815 0.029858507 -0.04954162 -0.009496649
000140 11 a1 0c bd 96 65 56 3d 9d 82 f6 bc d7 b1 82 bd
       -0.034333292 0.052342974 -0.030091578 -0.063815765
000150 ab 4c c5 bc da bb 5c bd 74 05 c3 bc a7 8e 44 3d
       -0.02408441 -0.053890087 -0.023806311 0.047987606
000160 dc 72 9c 3c 42 c0 14 bd 6b 44 26 3d a0 19 b5 3b
       0.019097738 -0.036316164 0.040592592 0.0055267364
000170 f7 09 20 3c b8 7c 1c 3d e9 5d 1a 3d 90 2b c0 3c
       0.009768001 0.03820488 0.037687216 0.023458272
000180 09 59 93 bd 44 0e 8a bb db bb 61 bd 75 00 96 bc
       -0.071947165 -0.0042131264 -0.055110794 -0.018310765
000190 9d ba 7c 3d 74 0a 33 bc 08 c2 ab bd f5 46 32 bc
       0.061701406 -0.010927785 -0.08386618 -0.010881175
0001a0 54 d3 32 3c ee 4a da bc 4b 6b 72 3d c2 4d c5 bc
       0.010914642 -0.026647057 0.059184354 -0.02408493
0001b0 e3 e5 f6 3c 81 b0 96 3c 6d d6 65 3d 32 56 71 3d
       0.030138915 0.01839471 0.056112695 0.058920093
0001c0 72 14 97 bc fd c1 2c 3d dd 28 11 ba 8c fc dd b9
       -0.018442366 0.04217719 -0.00055374 -0.00042340567
0001d0 cf d2 09 bd 78 11 01 bb c0 f9 02 3b ad d8 ca 3c
       -0.03364831 -0.001969425 0.0019985288 0.024761522
0001e0 14 06 39 3d b2 9d 98 3c 23 ed 90 bd da e1 8e bd
       0.045171812 0.018629882 -0.0707648 -0.069766715
0001f0 4c 0b 28 bb 7c 91 54 bd 68 3a 9e bc a0 5e 5d bd
       -0.00256415 -0.051896557 -0.01931496 -0.05404532
000200 ed 9f e7 3b f0 01 99 bd c7 9d 0a bd f4 7f 59 3d
       0.007068625 -0.07471073 -0.033841874 0.05310054
000210 2b 6f c7 bc 27 4b 2f bd 6b e9 06 3d 48 cd 82 3d
       -0.024345001 -0.04279628 0.03293745 0.063868105
000220 55 92 a2 3c f9 c6 e1 bc 5d 49 18 bd 92 86 be bc
       0.019845167 -0.027560698 -0.03717934 -0.023257528
000230 9d 73 21 3c db 2d 42 3c 7d 5c 87 bb 4c b4 11 bd
       0.0098542245 0.011851753 -0.0041308985 -0.035572335
000240 06 c7 87 3d 65 22 43 bd 04 4a 1f bd 3d d2 94 3d
       0.066297576 -0.047640223 -0.038888946 0.07266662
000250 88 db 4d 3c b2 61 0c bd e3 ba 30 3d b2 ef c3 3b
       0.012564547 -0.034272857 0.04314698 0.0059795016
000260 19 71 74 3b df ef 37 3d 6b b5 21 3c 12 05 83 bd
       0.0037298857 0.044906493 0.009869914 -0.063974515
000270 30 f2 32 3d 02 49 0f bd a2 d8 eb 3d b9 15 6c 3c
       0.043688 -0.034981735 0.11515929 0.014409476
000280 84 34 82 3c 59 c1 aa 3c fb 14 28 bc bf b3 0b 3d
       0.015894182 0.020844148 -0.010258908 0.034106966
000290 01 a9 99 bd cf 3f 24 3c 70 11 ad 3d 20 59 00 bd
       -0.07502938 0.010024979 0.084505916 -0.031334996
0002a0 67 4a 91 b9 e7 b8 16 bc a9 70 14 bd b8 71 50 bd
       -0.0002771199 -0.009199358 -0.036240254 -0.0508897
0002b0 fc 9e 23 bc 2d 56 29 bd 4d 7a 04 3d 0c a7 26 bc
       -0.009986635 -0.04134195 0.032343198 -0.010171663
0002c0 07 35 79 3d 7c ae 4b bd 49 ad 75 3d a8 1b af bc
       0.060841586 -0.04972695 0.05997971 -0.021375492
0002d0 22 8a 43 bd 71 2b c4 3c c2 2d b1 bc 93 0b 51 bd
       -0.047739156 0.023946496 -0.021628264 -0.05103643
0002e0 41 09 dc bc 41 dd e2 bc aa 4b 34 3c d5 9c f8 3c
       -0.026859881 -0.027693393 0.011004368 0.03034822
0002f0 13 50 77 3c 83 f0 98 3c e6 f4 21 3d 28 b2 0d bb
       0.015094775 0.018669372 0.039540194 -0.0021621082
000300 89 e1 6d 3c a9 c8 33 bc f6 93 89 3d 03 63 46 bd
       0.014519104 -0.010973134 0.067176744 -0.04843427
000310 46 97 4c bc 2c 28 bc bc cd 0f a0 3d ba f1 5d bd
       -0.012487238 -0.022968374 0.07815514 -0.054185607
000320 fb 5f 99 bc 3d 50 8b 3d 82 65 7e bb 19 3c a9 3c
       -0.018722525 0.068024136 -0.0038817828 0.02065854
000330 95 e1 ce ba b8 00 82 3d bc e5 44 3d 9f 29 85 3d
       -0.0015783781 0.06347793 0.048070654 0.06502079
000340 2a cd 30 bc fb 7e 84 3d 55 3a 73 bc 29 6b 4f 3d
       -0.010791102 0.06469532 -0.01484545 0.050639305
000350 9e bc 31 3d da 3d 10 bd 75 bd 8f bb e5 49 99 bd
       0.04339277 -0.035215236 -0.0043865987 -0.074847974
000360 d9 fb a1 3c 2b 0a 35 bb 31 7c 2c bc cf 92 c1 3c
       0.01977341 -0.0027624469 -0.010527656 0.023629574
000370 4e 32 4e 3c a1 08 d1 bc 79 c6 67 3d 29 8d 0f bd
       0.012585236 -0.02551681 0.056585763 -0.03504673
000380 ba b9 60 bb ad 62 51 bc 8d fb b5 3d 26 84 85 3c
       -0.003429039 -0.012779874 0.0888587 0.016298365
000390 1c b6 97 bc d6 e0 32 bd 74 66 81 3d 78 1b 7a bc
       -0.018519454 -0.04367145 0.063183695 -0.015265338
0003a0 f1 8a 38 3d 7c b9 81 bd 30 ca 7b bd e0 11 dd bc
       0.04505438 -0.063342065 -0.061472118 -0.026986063
0003b0 0b 58 05 3d 58 ac 88 bd 61 69 3d 3c ca fa ef bc
       0.032554667 -0.06673497 0.011560769 -0.02929439
0003c0 d2 1f c0 3c f6 de a0 bd 65 b2 2a 3d 79 8c f9 bb
       0.023452673 -0.078550264 0.041674037 -0.0076156226
0003d0 3d 98 60 bd 25 a1 aa 3d 97 03 14 bd 49 3d 64 bb
       -0.054832686 0.08331517 -0.036136236 -0.0034826568
0003e0 1f 3b 7c bd 98 80 8f 3c d7 ef 09 3d c0 25 fc bc
       -0.06157982 0.017517373 0.033675995 -0.03077972
0003f0 c3 2c 83 3d fc f1 04 bc e9 8a 27 3c 13 63 d8 3b
       0.06405022 -0.008114334 0.01022599 0.0066036074

bias f4 [256]
000000 a0 c2 ab bb 11 44 d5 3c b9 0c 43 3d 2a 5f 2a bd
       -0.005241707 0.026033433 0.047619555 -0.04159466
000010 65 8f f8 3a 40 e0 b4 3c d0 15 55 bc b9 2c 47 3c
       0.0018963633 0.022079587 -0.013005689 0.012156659
000020 47 1e 3e bd 7c 9f 46 3d 78 6d 99 3c c1 db 19 bd
       -0.046415593 0.04849194 0.018728957 -0.03756309
000030 c6 e4 e1 bc 4c 51 ed bc e5 5e ba 3c b9 de 41 3d
       -0.027574908 -0.02896943 0.022750327 0.047331546
000040 58 bd 53 bd 68 5b da bb 5c 8a 81 bd 09 ce 1c bd
       -0.051694244 -0.0066637285 -0.06325218 -0.038282428
000050 8e a4 52 3c 2e 21 bd bc 3e e6 0c bd 42 46 94 3d
       0.012856616 -0.02308711 -0.034399264 0.07239963
000060 8d 85 f1 3b 48 07 8a bd f3 6e 35 3d b5 75 42 3d
       0.007370657 -0.0673967 0.044295263 0.047475535
000070 d6 f6 09 bd 00 aa f3 bc 90 40 47 bd ed c6 d9 3c
       -0.033682667 -0.029744148 -0.048645556 0.026584113
000080 ef 2b 8c 3b 26 92 6d bd 95 6e 05 3b 13 76 1a bd
       0.004277698 -0.058000706 0.0020360101 -0.03771026
000090 61 19 fb bc 1f 12 00 3c a7 df 4f 3d ee 13 3e 3d
       -0.03065175 0.00781682 0.0507504 0.046405725
0000a0 b5 b6 4d 3d 20 14 59 bc 0e 59 0e bc d4 ce 82 3d
       0.05022307 -0.013249427 -0.0086882245 0.063871056
0000b0 b4 de 2c 3d 03 ac 5d 3d 0e ea ed bc e4 0c 81 bd
       0.042204574 0.05411912 -0.02904227 -0.06301287
0000c0 94 5b e8 bc 08 e8 05 3d e0 7a 74 bd 32 ff 81 bc
       -0.02836398 0.032691985 -0.059687495 -0.015868757
0000d0 e8 b1 60 3d c0 84 21 bd 28 a9 ff 3c 7e 2b 93 bd
       0.054857165 -0.03943324 0.03120859 -0.0718603
0000e0 4a 6f bc bc 9e 5e 5b bc de 57 74 3d 0b e2 91 3c
       -0.023002286 -0.013389258 0.05965411 0.017807981
0000f0 2e 13 31 3d 0b 7f 12 3d 58 88 b0 3c bf 87 8e 3c
       0.04323118 0.03576569 0.021549389 0.017398713
000100 6f 46 df bb a1 c5 84 3c 2d 3b a6 3c 4a e3 0a bd
       -0.0068138163 0.016207518 0.02029189 -0.033908166
000110 48 db 77 bd 5b be 47 bd 80 d0 1d bc 18 96 e9 bc
       -0.060511857 -0.04876552 -0.00963223 -0.028513953
000120 b9 ad 33 3c bc 2f 2d 3d b2 88 55 3c 63 64 20 bd
       0.010966712 0.04228185 0.013033079 -0.039158236
000130 98 16 14 bd ec 38 8a 3d bf 7c 25 bc 01 fd 60 bd
       -0.03615436 0.06749138 -0.010100543 -0.054928783
000140 16 32 00 3d ae e4 46 3d cc 2e 35 bd 8b 92 eb 3c
       0.031297766 0.04855793 -0.044234082 0.0287564
000150 90 98 89 bb 0b 25 29 3d 59 eb b5 bc 77 3a 0d 3c
       -0.004199095 0.041295093 -0.02220695 0.008619896
000160 da 69 6a bd 00 5c 02 3d e3 48 9e ba 41 46 6c 3b
       -0.057229854 0.03182602 -0.0012076165 0.0036052617
000170 be b0 11 3d 1f 88 3c bd 07 9a 5d 3d d8 45 18 3d
       0.035568945 -0.046028253 0.05410197 0.037175983
000180 e6 7b 90 bb 3e a7 ac 3c 2d ba 88 3d 76 73 c7 3c
       -0.004409301 0.021075841 0.06676135 0.024347048
000190 c7 1b 3d b9 5d ed 34 bd d5 73 41 3d dd 84 5a bd
       -0.00018034792 -0.04417168 0.047229607 -0.053349365
0001a0 c0 cc 46 bd 8e 3e 13 bc 0c 27 07 bc 95 fd 31 bc
       -0.04853511 -0.008987082 -0.008249056 -0.010863681
0001b0 d0 45 b3 bc 7f 00 95 3c 85 8e 45 bd 48 8d e5 ba
       -0.021883875 0.018188713 -0.04823162 -0.0017513419
0001c0 fe 5d 64 3d f1 97 d3 bc f8 6f 2b bc 8a 41 81 3d
       0.0557537 -0.025829287 -0.010463707 0.06311329
0001d0 63 d6 04 bc 8a b6 0a 3d da b3 58 3d 37 7e 3c 3d
       -0.008107754 0.03386549 0.052905895 0.046018805
0001e0 be e0 12 3d f8 15 da 3b 72 31 78 bc 26 df 04 bd
       0.035858862 0.006655451 -0.015148507 -0.032439373
0001f0 0a cb 51 bc 94 78 a8 bc 8f 13 f0 3b d8 c5 17 bd
       -0.012804756 -0.020565309 0.0073265503 -0.037053913
000200 8a 95 44 bd fc 81 77 3d ab 1a 1a 3d fd dd 97 bc
       -0.047994174 0.060426697 0.03762309 -0.01853847
000210 7b 49 45 3d 26 26 70 bc 54 2a 3d bd b6 0f 1c 3d
       0.04816578 -0.014657533 -0.046182945 0.03810092
000220 9e 02 e0 3c 54 84 89 3c aa 40 b4 3b 1e aa 43 3c
       0.027344998 0.016786732 0.0055008726 0.011942415
000230 a0 14 07 bd 42 d1 57 3c 09 54 73 3c 51 51 42 3b
       -0.032978654 0.01317245 0.0148515785 0.002965052
000240 94 fa 61 39 43 99 55 3d 76 fd 68 bd 84 28 2f 3d
       0.0002155102 0.052148115 -0.056882344 0.042763248
000250 b9 f9 81 3c 16 58 12 bc 27 c0 84 3c ad 49 d2 3c
       0.015866147 -0.008932134 0.016204907 0.025669897
000260 a5 e4 4a 3d e6 be 2b 3c ef b2 b8 bb 5c 0a 58 3d
       0.04953446 0.010482525 -0.005636565 0.052744254
000270 6d b0 96 3c eb 6f 10 bd e4 ce 61 3d 15 e6 55 3d
       0.018394673 -0.035262983 0.055128947 0.052221376
000280 b3 d5 16 bd 77 31 67 bd 41 33 d1 bc a7 36 57 bd
       -0.036824893 -0.056443658 -0.025537135 -0.052542355
000290 0c b8 6b bd 0a 2d 1c 3d a5 a7 38 bd 18 7b 06 bc
       -0.057548568 0.03812889 -0.045081753 -0.008208059
0002a0 a4 2e 32 bd ed 31 8b bc 2b 6e 8d 3d ab 4d 76 3d
       -0.04350151 -0.01699158 0.069057785 0.060132664
0002b0 e4 b6 5c 3c 00 2b cb 3c d6 d8 54 3b ad f3 3a 3d
       0.013471339 0.024800777 0.0032477877 0.045642544
0002c0 62 73 40 bd b3 0b c6 3c 6e f6 a4 bc af 77 58 bd
       -0.046985038 0.0241755 -0.020137038 -0.052848514
0002d0 f9 2e 96 3b c2 f9 55 3d c1 f0 34 3c 5f f9 43 bc
       0.0045832363 0.05224014 0.011043728 -0.01196131
0002e0 37 b9 06 ba 08 40 a6 bc 14 af 38 3d a1 43 c3 3b
       -0.00051392935 -0.020294204 0.045088843 0.0059589897
0002f0 e6 e0 3b bd cb 39 e4 bc 42 0f 40 bd 63 0a 22 bc
       -0.045868777 -0.02785959 -0.04688955 -0.009890172
000300 32 b9 e3 3c 0a e7 1b bd a8 13 9b 3c 05 ac 94 3c
       0.027798269 -0.038062133 0.018930271 0.018148432
000310 94 e2 fd bb 6b f9 9b bc 3b 7a 05 bd e7 52 80 3c
       -0.0077479575 -0.01903983 -0.03258727 0.01566453
000320 12 77 21 3d 14 cb 2d 3d 40 ce a5 bc 15 02 4b 3d
       0.039420195 0.04243 -0.02023995 0.049562532
000330 59 e7 93 3d 7c a2 2a bd a1 ad b1 3b 77 b9 56 bd
       0.072218604 -0.041658863 0.0054223095 -0.052422967
000340 f8 11 62 bd 53 17 4d 3d ef 1f a0 bc 7d 13 81 3d
       -0.055192918 0.05007107 -0.019546477 0.06302545
000350 34 2d 81 bc b6 e0 5f 3d b1 5a 28 3d 4d af 86 3c
       -0.015768625 0.05465766 0.041102115 0.016441012
000360 5d 56 f8 3b b3 90 58 3d 61 71 58 3d 4f eb 81 bc
       0.0075786547 0.05287237 0.0528425 -0.015859274
000370 c7 05 a3 3c 06 82 4f bc 19 fa 34 3d a7 65 c3 bb
       0.019900216 -0.012665277 0.044183824 -0.0059630456
000380 c3 e6 d1 3b 58 9c b1 3c aa 74 99 bc 69 a8 e0 bc
       0.006405683 0.021680996 -0.018732388 -0.027424054
000390 a0 1c b3 3c b8 d1 b1 bb 3f 2f ba bc 83 01 66 bd
       0.021864235 -0.0054266118 -0.022727607 -0.056153785
0003a0 c0 33 62 3d 37 87 97 3c 23 84 d9 3c 22 b3 5e 3d
       0.055225134 0.018497093 0.026552266 0.054370053
0003b0 99 ea 9a bc 58 6a 17 bd d8 7e 66 bd 47 70 0f bd
       -0.018910693 -0.03696665 -0.05627331 -0.035019185
0003c0 ad d7 4a bd e9 14 73 3c b0 38 42 ba 70 c9 48 bd
       -0.04952209 0.014836528 -0.000740896 -0.04902023
0003d0 d8 b3 08 3d 1b e4 4e bd 25 ad 4b 3d e1 20 a3 bc
       0.033374637 -0.050510507 0.04972567 -0.019913139
0003e0 e4 d5 49 3d 74 bd 58 bd 7e 21 34 bd 00 fc 39 bb
       0.049276248 -0.05291505 -0.043977253 -0.0028378963
0003f0 a8 8f 3e bd 3d db b7 bb 97 19 3c 3d a0 d9 57 3a
       -0.04652372 -0.005610852 0.045922842 0.0008234028

weight f4 [256, 256]
000000 d5 57 e3 3c ec b5 ad 3c 1a db 12 3d e8 38 42 3d
       0.027751843 0.021204911 0.035853483 0.04741755
000010 42 1d 85 bd 60 26 98 3d e5 88 38 bd f0 15 be 3c
       -0.06499721 0.074291945 -0.045052428 0.02320382
000020 b1 09 9a b9 5c fd 53 3c 8e 9b 5f 3d ea f7 44 bd
       -0.0002938039 0.012938824 0.054591708 -0.04808799
000030 41 be 38 3d bf 77 9d 3c 7f a6 ee bc e8 b6 58 3d
       0.045103315 0.019222138 -0.029132126 0.052908808
000040 29 86 7d 3d 58 46 85 3c 26 a4 6b bc 56 f0 6b 3d
       0.061895523 0.016268894 -0.014382398 0.05760225
000050 d9 25 25 3d 33 96 cf 3c 6c c3 70 3d 00 46 f9 bc
       0.040319297 0.025340175 0.05878012 -0.030428886
000060 87 43 82 bb 19 db 31 3b 4d 2c 0d bc 50 43 36 bd
       -0.003975335 0.002713865 -0.008616519 -0.044497788
000070 4f 8d f2 3c a2 af 1f bd db da c8 bc c0 cf 35 bd
       0.029608397 -0.038985856 -0.02451842 -0.04438758
000080 ba d3 30 bd 15 6a 46 3d e0 be cc 3c 70 2c 38 bc
       -0.04317067 0.04844101 0.02499336 -0.0112410635
000090 b0 5d be bc 79 54 26 3d c9 ee 61 3d dc 14 8b 3d
       -0.023238033 0.040607903 0.055159364 0.06791088
0000a0 3e ea 52 bc f7 c9 33 3c d8 7f 81 bd 7e b4 8b 3d
       -0.0128732305 0.010973445 -0.063232124 0.068215355
0000b0 15 34 3e 3d 1c 3a 03 3c dd 56 86 3d 45 06 e4 bc
       0.046436388 0.00800946 0.065595366 -0.02783502
0000c0 57 52 3a 3b 90 c6 15 bc 0f 79 96 bc b4 e2 e6 bb
       0.0028430426 -0.009141579 -0.018368272 -0.007046068
0000d0 93 b9 83 3d 70 ee 70 3d d2 18 2a bd 3d b7 45 bd
       0.0643188 0.05882114 -0.041527577 -0.048270453
0000e0 99 80 92 ba 67 2b a2 3d ce 99 97 3d c3 b7 80 bd
       -0.0011177241 0.079184346 0.07402383 -0.0628505
0000f0 ab 22 4d ba 91 c5 e7 bc a5 86 75 bd 38 18 de bc
       -0.00078252953 -0.02829245 -0.05994286 -0.027111158
000100 4d 84 bf 3b 7d f7 17 bd 6f 86 82 3c 0a 52 9e bc
       0.005844629 -0.037101258 0.015933244 -0.019326229
000110 bd 9d a2 bc 7a 95 97 3d 6a 3e 96 3d ee 01 e6 3c
       -0.019850606 0.07401557 0.07336123 0.028077092
000120 ca ed bb 3b 88 3a 15 3d a9 5c 0a 3d f2 27 25 3d
       0.005735134 0.036432773 0.033779774 0.040321298
000130 bc 4d 81 bc dc 18 21 3d a7 1f 92 3c 54 da 56 3c
       -0.015784137 0.03933035 0.017837359 0.013113577
000140 2d 42 58 3c e7 23 a0 3c 50 a3 49 bc 85 5c a1 bc
       0.013199371 0.01954837 -0.012307003 -0.019697437
000150 d0 e2 80 bd aa d6 55 3d db 48 0f bc 92 9c 90 3d
       -0.06293261 0.052206673 -0.008745397 0.070611134
000160 48 b3 36 bd 4b 0a f5 bc 07 bf 65 3d 71 6d 34 3c
       -0.04460457 -0.029912135 0.05609038 0.011012421
000170 7d da ef 3b 4c 3f 5e bd b2 11 7c 3d ee f2 9d bd
       0.007319747 -0.054259583 0.061540313 -0.07712351
000180 60 22 f9 bc 6d 81 ac bc 46 76 72 bb c3 53 8f bc
       -0.0304119 -0.021057809 -0.0036996766 -0.017495995
000190 2b 7d af 3d 78 74 3e 3c 40 66 72 3d 59 b8 1b 3d
       0.08568796 0.011624448 0.059179544 0.038017605
0001a0 92 0b a6 3d e0 f7 37 bb ed c7 db bc c0 e4 80 bd
       0.081076756 -0.002807133 -0.02682873 -0.062936306
0001b0 46 9a 4b 3d 76 13 2c be f0 62 41 bd d1 30 11 bd
       0.049707673 -0.16804299 -0.047213495 -0.035446946
0001c0 3b 92 87 3c 8b 6f c3 3b 95 9a d2 bb 70 e3 ad 3d
       0.01654922 0.0059642247 -0.006427119 0.08490646
0001d0 1a d5 46 3d 3c 82 70 bd 9e 95 5f 3c 91 dd 94 3d
       0.048543073 -0.05871795 0.013646511 0.07268823
0001e0 d0 dc 97 3d 4f 00 85 3d 88 26 03 bd d1 bf 4c 3d
       0.074151635 0.064941995 -0.03201917 0.049987618
0001f0 aa 7f 85 bd 16 b0 9f 3d b6 92 42 3d db 57 78 3d
       -0.065184906 0.077972576 0.047503196 0.06063066
000200 30 63 a8 3d c8 a3 36 ba 8b f5 13 3c 2d 6a f3 bb
       0.082220435 -0.00069671543 0.00903071 -0.0074284286
000210 c5 0b 34 3d c6 eb 2f 3c ba 4a fa bc 58 8b d1 bc
       0.043956537 0.010737365 -0.03055321 -0.02557914
000220 9e a7 8b 3b 84 78 8c 3c 7b 4c 25 3c d2 1e dd 3a
       0.004261925 0.01714731 0.010089035 0.0016870147
000230 9e 41 13 bc 5b a3 9b bd 09 14 05 3d 11 d6 ca 3c
       -0.008987812 -0.07599517 0.03248981 0.024760278
000240 c8 d3 d3 bc 2e 78 fc 3c 9a 5d 36 bc f0 72 21 3d
       -0.025857821 0.030819025 -0.011130715 0.039416254
000250 f1 70 8d 3d 76 3b a6 3c cd df 94 bc a4 53 b9 bc
       0.069063075 0.020292025 -0.018173123 -0.02262289
000260 37 33 15 3d 1a c0 14 3d ff 3a 1d bd 94 19 8c bd
       0.036425795 0.036316015 -0.03838634 -0.06840816
000270 6d 0a 36 3d d2 24 93 3d 9c 86 3c 3d f4 8f a9 3d
       0.044443537 0.07184757 0.04602681 0.0827941
000280 27 92 ca 3d 96 a1 aa bc 04 48 8d bc ce 31 4a bd
       0.098911576 -0.020829003 -0.017246254 -0.049363904
000290 c8 1e 6a 3d 87 45 25 3d 1e 94 11 bd 63 41 1b 3d
       0.05715826 0.04034951 -0.035541646 0.037904155
0002a0 0f fe 36 3d cb 8e 08 bd b3 fb 90 3d 3b eb dc bc
       0.044675883 -0.033339303 0.07079258 -0.026967635
0002b0 58 82 94 bc c9 81 82 3d a8 f8 2a bd 0b 73 13 bd
       -0.018128559 0.06372411 -0.041741043 -0.035998385
0002c0 43 eb 31 3d 83 8c db 3c 96 7e 8e bc 77 01 2a bd
       0.043437254 0.0268004 -0.017394345 -0.041505303
0002d0 6c 41 48 bd 36 98 85 bc d2 e6 d1 3d d9 5b 6c 3b
       -0.048890516 -0.016307931 0.102491036 0.0036065488
0002e0 95 43 42 bd 88 3a 39 3d 61 1f 82 3d 76 0c 3f 3d
       -0.047427732 0.045221835 0.06353641 0.046642743
0002f0 25 93 89 3d b3 72 59 bb f0 bc ac 3d 31 09 7a bd
       0.06717519 -0.0033179938 0.084344745 -0.06104392
000300 71 68 01 bc 15 95 8e 3c b6 80 ec bc ff 26 09 bd
       -0.007898436 0.017405072 -0.028869968 -0.033484455
000310 be dc 24 3d 4f 4f b8 bb 68 7c 49 3d 31 18 95 3d
       0.04024958 -0.0056246887 0.04919091 0.07280005
000320 b2 19 18 3d 04 b0 ae bc db 8b 9f 3d ab f2 2e 3d
       0.03713388 -0.021324165 0.07790347 0.042711895
000330 64 20 40 3d 04 8a 20 3d 2e ab 1e 3d 0c ce a5 ba
       0.04690589 0.039194122 0.03873747 -0.0012649908
000340 8d 8c cc bc 5b 4d 27 bd c6 61 7d bc 66 ad 0a 3d
       -0.024969364 -0.040845256 -0.015465206 0.033856772
000350 ac 88 30 3d 3a 5f 66 3d d1 83 8c 3c 66 68 09 bd
       0.04309909 0.05624316 0.017152699 -0.033546828
000360 36 60 71 bc b1 1c 99 3d 8f 7d 48 3b 9c 95 3c bd
       -0.014732411 0.074761756 0.0030592417 -0.046041116
000370 d1 60 06 3d a9 90 23 3c fa 44 3b bd a6 c9 34 bd
       0.032807175 0.00998322 -0.045720078 -0.04413762
000380 da c0 6b 3d 0a 72 52 3d 9a 62 2a bd b7 7c 89 bc
       0.057556964 0.051378287 -0.04159794 -0.016783101
000390 fb c2 aa 3c 11 1d 12 3d 06 79 93 3d eb 1a c0 3c
       0.020844927 0.03567225 0.07200818 0.023450335
0003a0 41 5f 22 3d 96 5b 52 3d 71 36 54 3d ac 0d a0 3c
       0.039641622 0.051356874 0.051809732 0.01953777
0003b0 7e 5d 09 3d b4 8d ec 3c 5e 93 58 bd 78 66 3c bd
       0.033536427 0.028876163 -0.052874915 -0.04599616
0003c0 13 9a 8f 3d 72 23 99 3d 92 6d 39 3d 26 d9 0d 3d
       0.07011809 0.07477464 0.04527051 0.034630917
0003d0 20 ae 4c bd 0b cf 5b 3b 26 d5 4e 3a ef fc 91 3d
       -0.049970746 0.0033540155 0.0007890038 0.071283214
0003e0 20 a2 8a 3c 3f 2e c6 bc 25 c3 3f 3d ac dd 0e 3c
       0.01692301 -0.024191974 0.046816964 0.008719843
0003f0 82 61 84 3d 41 e5 8a 3c d0 fe f3 3c 3d a9 82 3d
       0.06463911 0.01695502 0.02978459 0.06379936

bias f4 [256]
000000 a2 c2 dc bc ed 13 39 bd 2a 6b 6d bd fe a9 84 3d
       -0.026948277 -0.04518502 -0.057963528 0.06477736
000010 ec 5d f0 3c 95 d5 29 bc 37 b1 3a bd 1d 20 01 bd
       0.02934166 -0.010365863 -0.04557916 -0.031524766
000020 00 b9 15 3d 0b 04 8b 3d 9f 46 0a 3c d2 cb 87 bd
       0.036553383 0.067878805 0.008439689 -0.066306725
000030 ac e0 94 3c 2a 8d 2d 3d dc 8d 8e bd bb 8d 34 bd
       0.018173538 0.042370953 -0.06960651 -0.044080477
000040 28 1d 0c 3d e9 6b 3e 3c 5a d3 80 bd 0a 58 5f 3b
       0.034207493 0.0116224075 -0.06290312 0.0034079575
000050 05 6e 78 3c 0a 81 f4 bc e0 e8 34 bd a5 94 e1 3b
       0.015162949 -0.029846687 -0.0441674 0.006884175
000060 c4 b0 6b bd 3d 9f cd bc 69 d6 36 3c 52 30 15 bd
       -0.057541624 -0.025100345 0.011159518 -0.036423035
000070 ad e8 f1 bc 50 43 66 bd b8 95 1a bc 0e cc d1 bb
       -0.029529894 -0.056216538 -0.00943511 -0.006402499
000080 34 6e 75 3d 4f cc f3 bb 1e ec 08 3d a4 9d 38 3d
       0.05991955 -0.007440127 0.033428304 0.045072213
000090 9c 75 8a 3c de 52 b3 39 7e 0f ff 3c d4 42 93 3d
       0.016901784 0.0003420328 0.031135317 0.07190481
0000a0 af ec 92 3d 41 4f 72 3c 2c c0 74 bc aa 2b a1 bb
       0.0717405 0.014789403 -0.0149383955 -0.0049185352
0000b0 bb 73 5e bc bf bd 31 3d f1 be 51 bd 45 09 c3 bc
       -0.013577397 0.043393847 -0.051207487 -0.023808131
0000c0 ea ff 5d 3c 1b a0 21 3c 34 4b 78 3d e0 f7 ae bc
       0.013549784 0.009864832 0.060618594 -0.02135843
0000d0 06 06 34 3d b3 86 bd bc 3b a6 38 bd f7 09 72 3d
       0.043951057 -0.023135519 -0.045080405 0.059091534
0000e0 3b f5 83 3c 34 77 77 b9 fc d9 14 bd 5e 28 9f 3c
       0.016108146 -0.00023600162 -0.0363407 0.019428428
0000f0 c3 0c 0e bd 6f 3b 36 3d 56 07 28 3d 73 10 fe 3c
       -0.03468014 0.044490274 0.04102262 0.031013703
000100 82 4c 8b bd 9d cb 21 3d 3b 35 1f bb f7 9b 2f bd
       -0.06801702 0.03950082 -0.0024293202 -0.04287335
000110 36 36 37 bc dd 2e 55 3d 19 0a 24 3d 20 cd e1 bb
       -0.0111823585 0.052046645 0.040048692 -0.006890908
000120 ee 40 29 bc d1 66 47 bd af 3c 4e bd 72 f1 1c bd
       -0.010330422 -0.048682038 -0.05035084 -0.038316198
000130 dc 25 01 3d 6c 3f d2 ba 75 ce 0c bd e5 5b 15 3d
       0.031530246 -0.001604063 -0.03437658 0.03646459
000140 ca 92 56 3c 91 5b d2 bc cc a1 50 bd a6 14 1b 3c
       0.013096521 -0.025678428 -0.05093555 0.009465372
000150 0a 5d 82 3d 54 15 86 3d 94 63 d0 3c 73 3c 81 ba
       0.06365402 0.06547037 0.025438108 -0.0009859934
000160 19 ef 4c bd af 8b 84 bd 02 7a 36 3c 0c 60 e8 3a
       -0.05003271 -0.06471955 0.011137487 0.001772882
000170 9b 5a 88 bc 6c 43 d3 3c 7e e8 dd bc 8c f4 8d 3d
       -0.016644767 0.025788985 -0.0270884 0.06931409
000180 7c 84 66 3d f7 79 aa bc f9 ac 22 3c 2c 93 e5 bc
       0.05627869 -0.02081011 0.009928935 -0.028024279
000190 59 09 08 3d 52 8d 5d 3d 86 3d 10 bd bd 92 93 3d
       0.03321204 0.05408985 -0.035214923 0.072057225
0001a0 73 a5 50 3d 01 b4 07 bd ef ea b3 3c 65 1c 13 3d
       0.050939035 -0.03313065 0.021962611 0.03591575
0001b0 52 38 73 bc 76 43 59 bb 4b 7e 34 bd 57 97 23 bc
       -0.014844971 -0.0033151782 -0.044065755 -0.009984813
0001c0 60 6c 80 3d 5e 87 36 bc 9c 70 48 3c 1c 96 85 bc
       0.06270671 -0.0111406725 0.012233879 -0.01630693
0001d0 78 fb 17 bc a1 e3 88 3c 2b a3 84 bd a9 bf 41 3d
       -0.009276263 0.016710104 -0.06476434 0.047301922
0001e0 9a 54 ab bc 31 93 89 bc aa 2e 53 bd 6f b1 89 3d
       -0.020914365 -0.01679382 -0.051558174 0.06723296
0001f0 5c 90 3a bd 8a 15 77 3c bf 09 27 3d 4b 3d 41 bd
       -0.045547828 0.015080819 0.04078078 -0.047177594
000200 9a b8 91 bd 11 ed f5 3b 90 35 a7 bc 7b 51 31 3d
       -0.07115288 0.007505067 -0.020411283 0.043290596
000210 86 01 9f bb 1f d5 0b 3b 02 c4 c2 bc 62 2f 1c bc
       -0.0048524765 0.0021336747 -0.023775104 -0.009532781
000220 67 37 3f 3c 9e 5b 4b 3c b4 67 12 bb 36 6e 85 bb
       0.011670924 0.01241198 -0.0022339644 -0.004071976
000230 c8 80 18 bb 0e d3 4e ba 53 11 21 3c 2e 7e 92 3d
       -0.002327012 -0.0007889726 0.009830791 0.07152973
000240 72 04 58 bd 3b 48 66 bd ac 44 3c bd f3 22 a1 bc
       -0.052738614 -0.056221228 -0.045963928 -0.019669985
000250 dc a6 94 bb 43 81 f7 bc 39 c4 ed 3c 3a d9 4d bc
       -0.0045364928 -0.030213004 0.02902423 -0.012563998
000260 52 ab c3 3b 19 50 ea 3c 17 95 09 3d c8 0b 0a 3d
       0.0059713507 0.028602647 0.03358945 0.03370264
000270 cb 3c 34 bd df e3 6c 3d b9 e7 23 bd f6 a3 7e bc
       -0.04400329 0.057834502 -0.04001591 -0.015542021
000280 5f ec 09 bc 6a 2b 33 3d e3 b8 c3 bc da 64 ae 3b
       -0.008418172 0.043742575 -0.023891872 0.005322081
000290 b3 02 a4 bb 02 9f d6 3c 53 fa 67 bd f9 d8 03 3d
       -0.0050052046 0.026198868 -0.056635212 0.032189343
0002a0 70 8c 24 3d 3d 9f 20 3d bc 93 0d bd fe 75 1a 3d
       0.040172994 0.03921436 -0.03456472 0.037710182
0002b0 56 3b d6 bc f4 4e b4 bc cf 17 29 3d 7a 65 69 bb
       -0.02615134 -0.022010304 0.04128247 -0.0035613463
0002c0 fd 51 56 bd 8a 5b b6 bc 3f f4 83 3d 80 88 45 bd
       -0.052324284 -0.022260446 0.064430706 -0.04822588
0002d0 e5 45 78 bd dc 43 8f bd 87 f6 25 bc ff 27 2f 3d
       -0.06061353 -0.06995365 -0.0101295775 0.042762753
0002e0 d6 23 62 bc 4f d1 85 bd e8 c9 0b 3c 1b a8 8c 3c
       -0.013802489 -0.06534063 0.008532025 0.017170003
0002f0 b8 fc ae bc 02 6b 42 3d 31 fa ad 3c ee af aa 3b
       -0.02136074 0.04746533 0.021237465 0.0052089607
000300 ce 5f 4b 3d f2 f1 40 3d ee f7 9b 3b 7f 81 69 3c
       0.049651913 0.047105737 0.00475978 0.014252066
000310 32 ea 7c bd ca 61 b3 3c 05 cf 39 bd 2a 7d b7 bc
       -0.061746784 0.021897215 -0.045363445 -0.02239855
000320 76 51 08 bc bb a6 da bc 4a bf da bb 34 be 22 3d
       -0.008320203 -0.026690831 -0.0066756355 0.039732173
000330 14 09 c4 3c e5 35 85 3d 82 ec 8c 3d f4 b1 94 3d
       0.02393011 0.0650442 0.06881048 0.07260504
000340 79 b7 00 bd 41 8a 05 3d f2 95 05 bd 32 89 ce bc
       -0.031424973 0.032602552 -0.032613702 -0.025211904
000350 dc 8d 49 bc ac fd 6d bd a2 60 6c 3d b2 7d a1 bc
       -0.012301888 -0.05810325 0.057709344 -0.019713257
000360 44 84 90 3c 8b d8 8a bc c6 14 80 3c e0 d5 45 bd
       0.017641194 -0.016948959 0.015634906 -0.04829967
000370 f3 41 2e 3d d3 22 55 bc 87 30 30 3d 8f fb 83 3c
       0.042543363 -0.013008791 0.04301503 0.016111163
000380 5a f5 64 bd 91 ac 58 bd e3 bd 87 3d e6 6f 79 bc
       -0.055898048 -0.052898947 0.06628015 -0.015224433
000390 aa 9b 4e 3d 6e 84 99 3c 92 bc 3c bd 4a 10 26 bd
       0.05044142 0.018739905 -0.046078272 -0.04054288
0003a0 33 d8 8b 3d 9c 6a ca ba de 80 a4 bc c9 c6 52 3d
       0.06828346 -0.0015443149 -0.02008098 0.051459108
0003b0 12 12 3d bd 6c 45 81 bd 3a 08 f7 bb 34 c1 47 3d
       -0.04615981 -0.06312069 -0.0075388225 0.048768237
0003c0 19 25 12 bd 30 b5 14 3d 4d f0 20 bd 2a b5 58 3a
       -0.03567991 0.036305606 -0.03929167 0.00082667416
0003d0 1d f7 75 3d a7 57 0b bd 85 fa 82 bd 13 cf 41 bd
       0.06005012 -0.03401914 -0.06395439 -0.047316622
0003e0 16 a6 25 3d 24 36 3c bd 4b 49 e1 3c c2 b4 4f bd
       0.040441595 -0.04595007 0.02750077 -0.050709493
0003f0 42 bb 4e bd 7b eb 1a bd e4 38 1f bd 8e 6c 4a bc
       -0.05047155 -0.037822228 -0.038872615 -0.012354983

weight f4 [128, 256]
000000 42 79 be bc 0e 27 06 bc 79 1d 1f bc 24 76 92 bd
       -0.02325118 -0.008188022 -0.009711617 -0.0715144
000010 79 af 87 3d 7d ca 85 3c 8a 0f 30 bd dc e3 f3 bc
       0.06625266 0.016331905 -0.04298357 -0.029771738
000020 b3 9d 54 3d 6a 70 4d bd 2d e5 2a 3d 96 65 69 bc
       0.051908206 -0.050156035 0.041722465 -0.014245411
000030 b8 df 07 3d 3a 27 34 bd 88 4a 91 3d 98 03 bb 3c
       0.03317234 -0.043982722 0.07094294 0.022828862
000040 74 f4 fc bc 30 88 95 3d 17 15 66 3d 0a b0 0d 3d
       -0.030878283 0.07301366 0.056172457 0.034591712
000050 b8 89 9c 3b 09 d8 8a 3d 8e ef da bb e8 36 97 bd
       0.0047771595 0.06779487 -0.006681389 -0.073835194
000060 56 c8 d3 3c 8c a5 84 bb 03 f0 2b bd 6c fc 06 3b
       0.025852364 -0.004048055 -0.04197694 0.0020597233
000070 ce 2e 78 3c 8b 7e 46 bc 1c a8 3f bc 9d 26 33 bc
       0.015147878 -0.012115131 -0.011697795 -0.010934499
000080 18 53 12 bc c8 67 ae bc a4 39 2f bd 02 7a 0d 3b
       -0.008930944 -0.021289721 -0.04277958 0.0021587615
000090 20 7a 8c bc 77 0a 7e 3c 7a a9 8e 3d eb 59 8b bd
       -0.017148077 0.015505425 0.06965919 -0.0680426
0000a0 1f 3a 2f bd 5b 01 b2 3c 7e 71 93 3c 73 bf c4 ba
       -0.042780038 0.021729162 0.017998453 -0.001501067
0000b0 3b 79 52 3c 41 fd 70 bd be 71 54 bd a0 48 8f 3d
       0.012846286 -0.05883527 -0.051866286 0.06996274
0000c0 48 a6 0f 3d b0 cd 83 3d 0b b5 06 bd 7a 44 10 bd
       0.035070688 0.06435716 -0.0328875 -0.035221554
0000d0 9b 99 d0 bc c3 ae 53 bc b4 b2 85 3d b6 f0 25 bd
       -0.02546387 -0.012920084 0.065282255 -0.040512763
0000e0 e6 f5 97 bd 40 09 5c bd 52 a4 1d bc 32 61 27 bd
       -0.07419948 -0.05371976 -0.009621697 -0.040864177
0000f0 26 4d b4 bc 48 ee 25 bd 0f 41 4a 3c 67 e5 57 bc
       -0.022009443 -0.040510446 0.012344613 -0.013177252
000100 63 92 01 3c a3 ba 24 bd e4 bc 2a bd dd a0 76 bd
       0.0079084365 -0.040217053 -0.041684046 -0.060212005
000110 fa 5b df bc 25 29 85 3c 07 3e 04 3c ff 07 8c 3c
       -0.027265538 0.01625497 0.008071429 0.017093657
000120 51 67 b8 ba 25 98 ba 3c b1 ab 1c 3d c0 eb 61 bd
       -0.0014068877 0.022777626 0.038249675 -0.05515647
000130 0b 47 06 3a b4 8f c7 bb 91 cf 8f bd 06 2d 84 bd
       0.00051222806 -0.006090129 -0.07022012 -0.064539
000140 1f 5f 1d 3c a3 13 51 3d c4 79 92 3d 09 a5 79 3d
       0.009605198 0.051044118 0.07152131 0.060948405
000150 06 b9 8d bd 43 21 53 3c 1a e9 94 3b 79 ea 96 3c
       -0.06920056 0.012886348 0.0045443894 0.018422352
000160 58 23 2a bd b5 3d 77 3d 7a 6a 8e 3d b9 24 88 3c
       -0.041537613 0.060361583 0.069539025 0.016619073
000170 75 5b ad 3d 09 85 d4 bc 71 d2 60 bd f8 05 5e bd
       0.0846471 -0.025942342 -0.054888193 -0.05420491
000180 c7 31 93 bc c6 fc 69 39 20 ff f0 3c d7 97 a2 3b
       -0.017968072 0.00022314777 0.029418528 0.0049619484
000190 df df 80 bd 21 f5 8b bd 5f 42 8d 3d a0 c4 22 bd
       -0.062927 -0.06833864 0.06897425 -0.039738297
0001a0 ff f1 a2 bd f7 4a 42 3d bf 83 8d bc 94 36 8d bd
       -0.07956313 0.047434773 -0.017274735 -0.068951756
0001b0 2d 03 75 3b 05 cd 9f 3d 39 b4 1f 3d 0d ff 07 3d
       0.0037385926 0.07802776 0.038990233 0.03320222
0001c0 ad ef 35 bd 82 15 8b bd 6d 8d 9f bc da fe 3c 3b
       -0.044418026 -0.06791212 -0.019476617 0.0028838427
0001d0 dc 13 83 3c b6 a8 12 bd a2 61 33 bc 82 b6 9f bd
       0.01600068 -0.035805427 -0.01094857 -0.077984825
0001e0 b4 af 30 bd ab 4e 6b bd 6a d1 00 3d a9 91 f7 3c
       -0.043136314 -0.05744807 0.031449713 0.030220823
0001f0 b3 78 9e bc a2 f5 f1 3c e8 0a da 3c 13 19 5a bd
       -0.019344663 0.029536072 0.026616529 -0.05324657
000200 43 10 26 3d 0d f0 13 bc 44 c0 9a 3d 49 b1 b4 3c
       0.040542852 -0.009029401 0.07556203 0.022057192
000210 ab 57 f5 3c dc de 1d 3d ab 8d 44 bb c4 47 c0 bb
       0.02994903 0.038542613 -0.0029991667 -0.00586793
000220 85 e7 f6 bc fa db bc 3b cd 3b f9 bc 96 59 22 3d
       -0.030139694 0.005763528 -0.030424023 0.039636217
000230 2e 5d f6 bc d8 7d 92 3d 5d 4d d8 bc 22 9f 6b bd
       -0.030073728 0.07152909 -0.026404077 -0.057524808
000240 d8 80 97 bc 1c b6 be 3c c7 f7 75 3d be 2c 5a 3d
       -0.018494055 0.023280196 0.060050752 0.053265326
000250 d6 7c 8e bc d6 66 0d bd e3 12 27 3d 69 94 ee bc
       -0.01739351 -0.0345219 0.040789496 -0.029123502
000260 2d 53 93 3d 62 54 10 bd 80 bf bc 3c 81 55 12 bd
       0.07193599 -0.035236724 0.023040533 -0.035726074
000270 36 2c 2e bd 46 d3 c6 3b 97 a8 11 3d 57 1f 04 3d
       -0.04252263 0.006067666 0.03556117 0.03225645
000280 1d 9a f5 3c d8 0b 69 bd 8a 28 37 3d c7 31 ae 3c
       0.029980714 -0.05689606 0.044716395 0.02126397
000290 10 38 f1 36 66 79 2a bd fd 15 72 3d 58 28 16 3d
       7.1888862e-06 -0.04161968 0.059103 0.03665957
0002a0 f0 2b 89 bb 8e 33 ba 3c 88 43 b0 3d 0e 81 1d bd
       -0.004186146 0.022729661 0.086066306 -0.038453154
0002b0 e5 3e 42 bd 09 a1 e2 3c b6 dd 59 3c 80 1c 47 3d
       -0.047423262 0.027664678 0.013297489 0.048611164
0002c0 46 32 6c 3d f9 1e 18 3d b8 36 90 3b 53 d5 2c 3b
       0.057665132 0.037138913 0.0044010542 0.0026372268
0002d0 2b e7 97 3d e7 4b 81 3d 61 99 81 3d 4c d0 b4 3c
       0.07417139 0.06313305 0.06328083 0.02207198
0002e0 95 ad e3 3c cb fb f1 bc 73 78 39 3d 33 32 fb ba
       0.027792731 -0.02953901 0.045280885 -0.0019164741
0002f0 51 fd 90 3c 89 01 c8 3c 44 73 90 3c 98 a5 80 3d
       0.017698916 0.024414795 0.017633088 0.062815845
000300 82 a1 99 3d b5 96 b5 3c 2a 69 ad bb c2 48 b7 bb
       0.07501508 0.02216659 -0.0052920775 -0.00559339
000310 ef 84 26 3c b3 48 6f 3d 51 89 b9 bc e8 d9 f6 bb
       0.01016353 0.05841894 -0.022648485 -0.0075333007
000320 ee 2f 53 3d c4 f4 af 3c cd f2 85 3d d7 f2 dc 3c
       0.05155938 0.021479018 0.06540451 0.026971264
000330 72 fb 15 bd 70 08 f3 3c 87 ac 8a bd d3 42 95 bc
       -0.03661675 0.02966711 -0.06771188 -0.01822034
000340 90 bc a2 3c 57 c6 cc bc 11 da 97 bc 6c b7 31 bd
       0.019865304 -0.02499692 -0.0185366 -0.043387815
000350 5b cd 97 bb 71 fe 20 bd 55 d6 75 bc 7c a5 07 bb
       -0.0046326346 -0.039305154 -0.015004714 -0.0020698002
000360 87 60 9a bd 77 dd d6 3c ab 48 5c bc 96 e1 8e bc
       -0.075379424 0.02622865 -0.01344506 -0.017441552
000370 75 9a 4b 3d bc 08 e8 bc 68 3a 73 bd 38 9b 40 bd
       0.04970785 -0.028324477 -0.059381872 -0.047023028
000380 36 bd 36 3d 8e a7 45 3d d2 6c 9d bd 58 0a 89 3d
       0.04461404 0.048255496 -0.076867715 0.06691426
000390 05 b3 06 3c cc 90 cd 3c 06 9e 1d 3c 4f 43 8e 3c
       0.0082213925 0.025093459 0.009620195 0.01736608
0003a0 07 a2 41 bd 25 9c c3 3c 24 b2 ad bc 06 f4 6c 3b
       -0.047273662 0.023878166 -0.021203108 0.0036156191
0003b0 93 0a 80 3c 05 9e 01 3d d8 f0 99 3c 33 0c f0 bc
       0.015630042 0.03164484 0.018791601 -0.029302692
0003c0 82 84 59 3d 0e 39 2a 3d 1f 99 0a 3d e4 1a 47 3d
       0.053104885 0.041558318 0.033837434 0.04860963
0003d0 7c 00 50 bd c5 98 ab bc 00 a7 00 3d 84 37 10 3c
       -0.050781712 -0.02094687 0.031409264 0.008802298
0003e0 d5 b5 4a 3d f0 cf 0c 3d c4 70 a9 bd f9 5c fa 3c
       0.049489815 0.034377992 -0.082734615 0.030561911
0003f0 5b d5 9c 3d bb ad b1 3d 0d b6 1a bd a3 ee 81 3d
       0.07657882 0.086757146 -0.037771273 0.063443445
