models/model_objs/demo live text 2nd.pth (torch, 836955 bytes, 11 tensors)

weight f4 [256, 135]
00000000: 48a9 173d 4f39 10bb a4d2 5ebd ce56 6c3d
00000010: 708d 38bc 6b09 783d ad04 263b bb3a fbbc
00000020: 9625 f43b 31f6 58bd 4dfc 923c 692a 893d
00000030: a904 ea3c 77b6 3bbd 9edf 133d 6099 39bc
00000040: 8999 b23c a81f 6abd c07a afbd 1db5 84bc
00000050: 01e7 82bd aadf c13d 475c 763b dbab 383d
00000060: 42e9 133d 4adb 60bb e367 663d af49 acbd
00000070: 7078 be3b b429 90bd 97f5 d43c c9f0 02bd
00000080: c4ff ce3c a74e 30bb 5e03 b23d 60ca 0dbd
00000090: 074c d6bc b846 e7bd e29f 373c 916f 25bb
000000a0: 9de0 a23d fc74 17be 9a8b 2bbe dcd1 56bd
000000b0: 8339 a6bd 3c2d 7c3d e82c f93c e2e6 e83d
000000c0: 5531 eabc 3ce4 6ebd 92a8 5f3d ce08 1cbd
000000d0: 61b9 c93d 123c a7bd af9b ab3d 52b5 69bd
000000e0: 1735 91bd 8358 383d 5e6c 463c 26e7 873c
000000f0: ac2b a13d dcfc 963d f90e 6ebd 1f5d 56bd
00000100: 215d 0a3d b555 03bd abe3 72bb 355c 3fbd
00000110: c1ee 83bd ccb9 853d 555c 3b3b 32fe c4bd
00000120: b3e6 50ba 6a09 9fbd aced 70bd 9b23 06be
00000130: 6e96 c6bd 122c e9bc 8c8c 073e dc46 7abd
00000140: 1465 d03b bfa4 a3bd 8c3f 6fbd 256a d1bc
00000150: dd76 263d 4cd0 94bd d668 d5bc c2a5 4dbd
00000160: bba6 c6bc 51c2 50bd 7011 0f3c bf6d 77bd
00000170: a4cb f1bb 5e31 5fbd e635 ecbc 05da fabc
00000180: d248 2d3d 92ed 26bd ac1a ae3d cb70 883d
00000190: 97bc 98bd fc0a 973d a061 5abd 368a a1bd
000001a0: 5b13 16be f2c2 c5bd d6b0 4f3c 3819 003b
000001b0: 10ae 86bc 18f7 8fbd d137 e33d 256b c7bd
000001c0: 4b67 ae3b fbf1 85bc 0540 823d 8400 cf3d
000001d0: 2a5d bd3d bec2 a0bd 841c 2b3d ea76 16bd
000001e0: bbec 23bb bac5 8ebc 2dca ba3d 2f1a 47bc
000001f0: 8d92 b93d 8264 423d 412e 0f3d fe44 80bd
00000200: 108f 553d ab29 453d 6542 213d 6984 bdbd
00000210: f276 843d d8b9 10bd 9cad 69bb 6127 963d
00000220: 3940 e23c f6fd 4bbd 38dd 2dbd 397c 8e3a
00000230: 3c5c 863d ad5f 59bc 9344 38bd d300 bfbc
00000240: 4262 86bd 1b42 2d3d b06a 993d 6306 a3bd
00000250: 9292 a53c 3be0 593d 496f 883c 5b76 a1bc
00000260: 66ff 363d 38b1 bd3c da28 2c3d 4f79 dfbc
00000270: abe1 14bd e2b8 613b e040 03bd 4131 0fbd
00000280: f01f 3e3d 6913 8e3d 6498 30bc af81 bfbc
00000290: 2036 d5bb 2ecd 93bc 86a3 bf3c c936 db3c
000002a0: 09b9 83bd 3e2f 8cbc bc56 b33d bd9a d33c
000002b0: 7b73 2cbc 9be5 d1bc 9ffa 72bd 84c4 78bd
000002c0: 6c22 55bc 3bda 213d 32e7 b33d e71b 483d
000002d0: f6e7 8cbd dd21 22bd 2e90 32bb fe09 903d
000002e0: eb0a 9c3d 7655 e3bb 35d2 d33d 5a94 4b3d
000002f0: f112 9cbd 0997 2a3b e669 41bd 498c edbb
00000300: af75 75bd e451 743d 5435 ed3c f46d 433d
00000310: 2892 a1bd fdc1 4ebd 0314 a6bd dcb9 363d
00000320: b224 973d 95b0 a03d 9d79 713d 32a5 d93c
00000330: 66e1 2abb b582 13be 551a c4bd 580f 52bd
00000340: fdda f93c f87c 48bc 610b 54bc 4593 80bd
00000350: f58e a63c 4bb6 b2bd 9fc7 cfbc 5d41 0e3d
00000360: d330 19bd de11 db3d 656d aebc 44ec 77bd
00000370: 7d26 c6bb aba9 cebd 4233 edbc 51ae 8cbd
00000380: d367 9e3d 6772 10bd f48c 893d c769 90bb
00000390: cd38 8a3d 8e60 71bd a987 9c3d bb60 e7bc
000003a0: 739c 253d dc78 b63d ff62 81bb 762b 7fbc
000003b0: 6119 35bd 5cfa 6abd 2327 0e3d fc7d e3bd
000003c0: f4d6 573d 0277 2c3d bee9 af3d 0ffe 383b
000003d0: 9fe6 67bd 275a 8d3d 6cdc 1fbc 0f86 c3bd
000003e0: 92d0 7d3b f518 83bd 9fe4 14bc 90d9 68bd
000003f0: 7b0e 28bd 1615 86bc 67cc bcbd 041d b83d
0.037026674 -0.0022006815 -0.0544001 0.05769997 -0.01126419 0.060555857 0.0025332377 -0.030667653
0.0074507697 -0.05296916 0.017942572 0.06697542 0.028566675 -0.04582831 0.03610193 -0.011328071
0.021801727 -0.057159096 -0.085683346 -0.016199643 -0.06391717 0.09466489 0.0037591623 0.04508577
0.036111124 -0.0034310394 0.056251418 -0.084124915 0.005812697 -0.07039204 0.025996013 -0.031967912
0.025268443 -0.002690235 0.086920485 -0.034616828 -0.0261593 -0.112927854 0.011207553 -0.00252435
0.07952998 -0.1479072 -0.16752473 -0.05244623 -0.08116438 0.061566576 0.03041692 0.113721624
-0.028587976 -0.05832313 0.05460412 -0.038094334 0.09849811 -0.081657544 0.08379304 -0.057057686
-0.07090204 0.045006286 0.012110798 0.016589712 0.07869658 0.07372448 -0.058119748 -0.0523349
0.03378022 -0.03206416 -0.003706197 -0.046718795 -0.06442023 0.065295786 0.002858897 -0.096187964
-0.0007968947 -0.077654675 -0.05882041 -0.1309952 -0.09696661 -0.028463397 0.13237208 -0.061102733
0.0063597057 -0.07990407 -0.058410212 -0.025563309 0.0406407 -0.07266292 -0.026050966 -0.050206907
-0.024249425 -0.050966565 0.008732185 -0.060407396 -0.007379012 -0.05449044 -0.028834295 -0.030621538
0.042305775 -0.04075391 0.08501181 0.066621386 -0.07457846 0.07375142 -0.05331576 -0.0788769
-0.14655821 -0.096563235 0.012676438 0.0019546282 -0.016440421 -0.07029551 0.110946305 -0.09737233
0.005322372 -0.016350737 0.06359867 0.1010752 0.09246285 -0.07849644 0.04177524 -0.0367345
-0.0025012929 -0.017428268 0.09120593 -0.012152239 0.090611555 0.047459133 0.03495622 -0.06263159
0.05213839 0.04813544 0.03936996 -0.09253771 0.064679995 -0.035333484 -0.0035656458 0.0733173
0.027618514 -0.049802743 -0.0424473 0.0010870761 0.06560561 -0.01326744 -0.044987272 -0.023315823
-0.0656171 0.04229937 0.07491052 -0.079602025 0.020211492 0.05319236 0.016654627 -0.019709757
0.04467716 0.023155794 0.042031147 -0.027279524 -0.036348026 0.0034442474 -0.03204429 -0.03495908
0.046417177 0.06937296 -0.01077852 -0.023377268 -0.0065066963 -0.018042173 0.023393404 0.026759522
-0.06431777 -0.01711237 0.08756778 0.02583062 -0.01052558 -0.02562218 -0.059321042 -0.060734287
-0.013008695 0.03951476 0.087843314 0.048854735 -0.068801805 -0.039583076 -0.0027246582 0.07033156
0.0761927 -0.006937678 0.10342828 0.049702026 -0.076208 0.0026029965 -0.047220133 -0.0072493893
-0.059926685 0.05964841 0.028956093 0.04771228 -0.07889205 -0.05047797 -0.08109286 0.044610843
0.07380046 0.0784618 0.05895387 0.02656803 -0.002607429 -0.1440533 -0.09575335 -0.051284164
0.03049993 -0.012236826 -0.012942166 -0.062780894 0.02033184 -0.08726176 -0.025363741 0.034730304
-0.037400078 0.10696767 -0.021292398 -0.060528055 -0.0060470686 -0.10090955 -0.028955106 -0.06869186
0.07734647 -0.035265353 0.06716338 -0.004407141 0.06749115 -0.058929972 0.076430626 -0.028244367
0.040432405 0.08909771 -0.003948569 -0.015574327 -0.044213656 -0.057367668 0.034705292 -0.11108014
0.05269523 0.042105682 0.08589505 0.0028227603 -0.05661642 0.06901961 -0.0097571425 -0.09547054
0.0038729054 -0.064012446 -0.009087711 -0.05684811 -0.041029435 -0.016367476 -0.09218674 0.08989909

bias f4 [256]
00000000: fd9a a7bd 1353 babb 5039 42bd 4081 0b3d
00000010: 2298 ba3d 52cc 6a3d 4415 813d 0473 2fbd
00000020: 79df 943d 4049 8dbd 3af7 88bd 16f0 303d
00000030: 6d2f 603d 5c1a d03c b662 ccbd d17a 433d
00000040: 7a23 34bd 7d20 bc3c d6ac 60bd 472b 13bd
00000050: bd9e aabc 3b93 a53a 28f8 3e3d 3754 6fbd
00000060: bd2f 52bd d581 0b3d f362 4ebd f13d 7cbd
00000070: 9e17 a13a 72ec 323d 0e67 5c3b 5a54 ccbb
00000080: edb2 8c3d 3102 923c 24e4 513b 4dcf 353d
00000090: cdb7 2bbc a38b 08bd 24f9 033d 71b7 84bd
000000a0: 037e 873c 8959 443d 65e7 213d ade9 943c
000000b0: 2d80 593d 5394 303d abb0 613d 04c6 84bd
000000c0: 2e0d 0e3d 31dd 2c3d 492a 973d f732 9d3d
000000d0: 7617 bebd fa9b 6c3d d7a2 7f3c 616b 27bd
000000e0: e780 b6bd 10cd 9a3c ae67 943d 35d4 813d
000000f0: 3cb8 753d ff2d a7bd bd1d bcbd 81ce 15bd
00000100: 1ed7 5bbd 2cfd 83bd 74e8 99bd d560 173d
00000110: 4a01 f93c 2137 f83c 2667 0cbd df19 62bd
00000120: f2e4 323b b775 453d 8de0 263d 5302 043d
00000130: 0d4a 9ebc 86f3 d43c 5480 20bd 086a 733d
00000140: 6e14 793d b431 f83b 2f08 853b 55cb 813d
00000150: 4205 4fbd 3896 2dbc 351d aa3c ccc2 21bd
00000160: 4c17 ecbb 3034 6bbd db2b 37bc 0a8e 1c3d
00000170: cea8 823d efdd 903d 5697 bd3c 13aa b53d
00000180: eee1 d63c 6ed6 113d 7f22 f33c 8f51 cb3c
00000190: 931c 3f3c 3322 77bd 2a4c 463b bb6c 17bc
000001a0: e3da 13bd 95fc 67bd 6f33 b5bc 9e71 c4bc
000001b0: 164d a73d 7ab1 90bc aea0 393b 3ce0 75bc
000001c0: eb04 913d 6940 f5bc d2cc 273d 3961 a6bd
000001d0: 19cd 1e3b e6ec 95bd b2e8 6c3c 85ff ca3c
000001e0: 0379 ff3c 3e30 9eba 23db 34bd e124 8bbd
000001f0: c1a6 63bd 18c2 7cbc ae10 11bd 3675 a13d
00000200: 8b4d 003d e8a5 acbc dc17 7d3d e670 8bbc
00000210: 6cef abbd 4991 a1bc 642c b13d 071b 783d
00000220: 6960 5fbc a656 5fbd 1012 913b f02b 9ebc
00000230: 721d 9cbd 7e40 47bc e9be 52bd 66dd 443d
00000240: cb17 eb3c 29e2 a2bb 46d8 a73c fb6e 9d3c
00000250: 0059 45bd e88e e1bc 61e2 83bd ef2e fe3b
00000260: 578e 7b3d 2e17 0bbd 2d94 073c d113 a03d
00000270: d55f 5e3d 3163 3e3d f7fb 1d3d 175e 923c
00000280: 5b93 aa3d 9a05 53bd 5533 953d b073 1bbb
00000290: 89d6 59bd 2764 8f3d dd56 b93d 2d00 893d
000002a0: e14a 023d 5431 373c c45e c1bc 07f1 6c3c
000002b0: 5bf0 ad3c 0a37 2fbd 9f12 48bd 22ba 24bd
000002c0: 40d1 843c 32aa 3e3d ebf3 333c 7288 883d
000002d0: ea39 b9bc 3f16 f5bc 83f7 4c3d 60ea 373c
000002e0: a8cf 273c 25ab 433c ab99 4ebd 7af3 60bd
000002f0: 3571 a23d 3b78 ecbc f64d 2e3c 6e13 963d
00000300: cc06 9f3d 36ac 103d f18f 9a3c 71bc aebd
00000310: 6566 cdbb e4b7 8f3b d36d 27bd b8df 44bd
00000320: 79a7 90bd a8a0 8b3d 1396 17bc f34e 33bd
00000330: 51c8 69bd 8f50 e8bc 7b83 b53d 5909 c5bc
00000340: cd09 7bbd 52c5 bfbd 8be8 843d eba4 933d
00000350: 4f91 8f3d e433 9f3d e327 9ebc fd49 8dbd
00000360: 2394 99bc 32db df3a aded af3d 96ec c13c
00000370: 5ff0 373d 5721 a83d 1e3b e1bc 5772 9abd
00000380: aa28 55bd bfd3 9ebd 8330 3c3d 0e93 e0bc
00000390: 685b e8bb 9808 37bd 790b cbbb 6223 ae3d
000003a0: 676c 973c 9c53 efbc 2bd7 8a3d d6dd 99bd
000003b0: 0839 b73c ab91 94bd e703 473c 9a71 6fbd
000003c0: 453a 0d3d 0b84 c0bc d4d4 943c 5a8d 32bd
000003d0: dc4f a13d a3be 8b3d fc5f 773d d0d6 bfbd
000003e0: 93e6 a0bd 4847 92bd 40c0 513d 08e4 6e3d
000003f0: 20b6 c53c 986d 9cbd 49e5 113d 1fee acbd
-0.081838585 -0.0056861727 -0.04741794 0.03405881 0.09111048 0.05732376 0.06302884 -0.042834297
0.072691865 -0.06898737 -0.0668778 0.043197714 0.05473273 0.025403194 -0.09979765 0.04772455
-0.043979146 0.02296471 -0.05485233 -0.035929944 -0.020827645 0.0012632379 0.04662338 -0.058429923
-0.051315058 0.034059364 -0.050387334 -0.06158251 0.0012290364 0.043682523 0.0033630761 -0.0062356414
0.06870065 0.01782331 0.0032026852 0.04438715 -0.010480833 -0.033336293 0.03222002 -0.06480301
0.01653958 0.04793695 0.039527316 0.018177832 0.053100754 0.043110203 0.055100124 -0.06483081
0.034680538 0.042203132 0.07381112 0.076757364 -0.092818186 0.05776594 0.015602789 -0.04087389
-0.08911305 0.01889661 0.07246338 0.063393034 0.059990153 -0.0816307 -0.091853596 -0.03657389
-0.05367195 -0.06444773 -0.0751504 0.03695758 0.030396122 0.030299725 -0.034278058 -0.055200454
0.0027297107 0.048207965 0.040741492 0.03222878 -0.01932242 0.025995027 -0.039184883 0.05942729
0.0608105 0.0075742844 0.0040598135 0.06337611 -0.050542124 -0.010594897 0.02076588 -0.039492413
-0.0072049256 -0.057422817 -0.01117989 0.038221397 0.06379853 0.070735805 0.023143452 0.0887033
0.026230779 0.035604887 0.029679535 0.024819164 0.0116645275 -0.06033535 0.00302578 -0.009242232
-0.03609742 -0.056637365 -0.022119252 -0.023979958 0.08169 -0.017662752 0.0028324532 -0.015007075
0.07081016 -0.02993794 0.040966816 -0.081240125 0.0024231134 -0.073205754 0.014459776 0.024780044
0.031185633 -0.0012068821 -0.044154298 -0.067941435 -0.05557895 -0.015427135 -0.035416298 0.07883684
0.03132395 -0.021075204 0.061790332 -0.017021608 -0.083952755 -0.019722598 0.08651045 0.06057265
-0.013633826 -0.054525994 0.004427202 -0.01930806 -0.07622804 -0.012161372 -0.051451597 0.048062705
0.028697869 -0.004970808 0.02048887 0.019217959 -0.04818058 -0.027533963 -0.06439663 0.0077570598
0.061415043 -0.033957653 0.008275074 0.0781628 0.05429061 0.046481315 0.03857037 0.017867131
0.08328887 -0.051519014 0.072851814 -0.0023720078 -0.053183112 0.070015244 0.09049771 0.06689487
0.03180969 0.011181194 -0.023604758 0.014461762 0.021232774 -0.0427771 -0.048845883 -0.040216573
0.01621306 0.04654903 0.010983448 0.0666665 -0.022610623 -0.029917834 0.050040733 0.011225313
0.01024238 0.0119426595 -0.050439518 -0.054919697 0.07931749 -0.028865924 0.0106387045 0.07327925
0.07764968 0.035320483 0.018867465 -0.08532036 -0.00626831 0.004385935 -0.04087622 -0.048064917
-0.07063193 0.06817752 -0.009252089 -0.043776464 -0.057075802 -0.028358726 0.088629685 -0.024052309
-0.061288644 -0.09363808 0.064896666 0.0720919 0.07010137 0.07773569 -0.019306129 -0.06898878
-0.018747395 0.0017078875 0.08590255 0.023672383 0.04490697 0.08209484 -0.02749401 -0.0754134
-0.052040733 -0.07755231 0.045944702 -0.027413871 -0.0070909746 -0.04468593 -0.006196436 0.085028425
0.018484307 -0.029214673 0.06779321 -0.07513015 0.022366062 -0.072543465 0.0121469265 -0.05845795
0.0344794 -0.023500463 0.01816789 -0.043591835 0.0787656 0.068234704 0.060394272 -0.09367144
-0.078564785 -0.07142502 0.051208735 0.058322936 0.024134696 -0.07638091 0.035619054 -0.084438555

weight f4 [256, 256]
00000000: 4744 26bd 35c0 0a3d 6ae5 1e3d 97d4 98bd
00000010: 22ac a53d be97 fc3c 0c4c 3f3d cca5 0cbd
00000020: 0442 ef3c 0c9c 8bbd d3d6 63bc 371b 923c
00000030: 5e68 d1bc c887 483d caa3 353d a0d3 0c3d
00000040: 83d1 ea39 4f1a c83d 4c7b c83c 4960 85bc
00000050: d297 5b3d ec09 97bd 5586 223d d31a c6bc
00000060: 7deb 843d b7b6 503c d83e 75bc f8d3 d5bc
00000070: 269f 8ebd 4343 9bbd a240 2dbd 33f4 303c
00000080: 2dcd ac3d 78f0 9aba b85e 413d 1797 2d3d
00000090: 4d28 3a3c ab7b 463d 3e66 f43c 2ca9 5cbc
000000a0: dc23 a23c 6146 073c a75e 36bc 8488 3e3d
000000b0: e709 a83c 954a b43d f826 4fbd e4a7 833b
000000c0: 9ebf 42bd 8552 a4bc 97af 7a3c e55d ed3c
000000d0: 7453 f1b9 8b45 963c 89d4 183c 1520 2bbd
000000e0: a40b 7bbc 15c0 863d ab81 823b 1d78 203d
000000f0: a771 04bc 651b 5f3d bc95 f1bc 0c1b 8d3d
00000100: 3f50 453c 60be e2bc 419d 18bd e60c b7bc
00000110: 0f57 b9bc ddfa 34bd 094b a9bb 9ab9 983c
00000120: 700b 803b 91b0 78bd 7d30 803d 676b 9abd
00000130: 95bf 24bd e0e6 1c3c ff2d 81bd bb15 973c
00000140: 1e45 7a3d 6dd8 0dbd c44f 6439 ca3d 1f3b
00000150: c187 b03d 804e 2fbd dce4 443d 0805 c3bc
00000160: 094d 733c 0b40 683d 5b39 7b3d 5ff5 43bd
00000170: 40d9 09bc d1d8 30bd 4a75 0dbc 4ade c4bd
00000180: e72b ba3c b32e 8c3d 809c 09bd 1824 a63c
00000190: 0db2 063d de72 9c3d 30db 08bc 2c98 433d
000001a0: 4c0d 22bd 111c b73d 6145 453d 7f70 1abc
000001b0: 0303 a33d 79b4 6ebd 1d44 063d f33d 863c
000001c0: e72d 0bbc 1a64 c33c 9057 803d 1125 643d
000001d0: 372b 8abd 626f 24bd 7764 18bd 1c4d 2b3d
000001e0: de1f bcbc 8c23 51bd 08f2 efbc 6ac0 36bd
000001f0: bb11 d6bc 71d3 953d 0c55 e93c 3fbd 0ebd
00000200: 0256 733d 3cc1 aa3c 0bd8 123c b450 523d
00000210: f399 0f3d 511d 143d de4f 78bd 4ef1 823c
00000220: 746b 7fbd ae40 f2bc 5841 d13d c7f1 67bc
00000230: da15 52bc 29ac d3bc bf01 ac3d 00f0 60bd
00000240: 1d6e b33d 4efc 33bc 9492 003d 5f0d 7b3d
00000250: 1b41 393d 5c11 653d 6a8c 09bd 3626 b33c
00000260: 49be d83c f212 09ba 1cd1 45bd 52cb ac3b
00000270: 495c 323d d416 89bc c32b 9b3c 9258 9c3d
00000280: d827 423a 254c 0ebd b687 a5ba a962 e8bd
00000290: 0d95 98bc 7b90 4abd 5a52 c13c d253 fabc
000002a0: 2479 80bd 4db6 bf3d 6c11 0fbd e0e3 8b3c
000002b0: ae4c df3d 1a3d 9b3d 922c b73c 542e c83a
000002c0: 5920 18bd c382 8dbc de93 94bc c09f 393c
000002d0: bbf7 f73c a598 c2bc c9ac 233d 6d34 9cbc
000002e0: 5131 f4ba fb8d 4d3d 6b93 0b3d 782c 79bc
000002f0: b004 4c3d d241 7b3c 3318 ed3c 61d4 563d
00000300: 436f 113d b410 82bd f50b 9d3c d66a b9bd
00000310: b174 323d 915f e53c 8e5d f83c 7a12 ca3d
00000320: e0e8 59bb 59f8 0d3d aeb9 54bd e40c bd3c
00000330: 6d56 973d 60db 42bd e358 a53c 775a 263c
00000340: 0cd4 06bd ce92 23bd bba0 2cbd 4882 67bd
00000350: 2e2b 0cbd 7500 dfbc 3ff3 753d 2550 6bba
00000360: ad68 433d 7da4 49bd 1c68 95bd 5bae e93c
00000370: e128 f7bc 093f 28bd 9dd8 a4bb 9d0c 1fbc
00000380: 0802 b9bb e5d5 d93c 71be 243d 48b1 623c
00000390: f898 9d3d e365 4b3d ade2 96bd f415 a3bd
000003a0: 8543 b03c 9216 473b f641 543d 9290 183b
000003b0: 45c1 6d3d d321 1ebd b0f7 d4bb 0496 843c
000003c0: 76f9 b13c c679 45bb 9e84 2b3d 1e64 b73c
000003d0: 837b f23c fa8f 883c b490 49ba cb06 c93d
000003e0: 34d0 49bb 0cb3 813d 4822 4d3d eb06 90bd
000003f0: f32a 16bc 48be 19bd cae2 a4bb 2128 7a3a
-0.040592458 0.03387471 0.038793005 -0.07462423 0.08089472 0.030834075 0.046703383 -0.034337804
0.029206283 -0.06816873 -0.013906199 0.017835243 -0.025562461 0.048957616 0.044345655 0.03438151
0.00044788056 0.09770643 0.024472855 -0.016281264 0.053611584 -0.07374939 0.03967889 -0.024182713
0.06490228 0.012738875 -0.014968596 -0.026102051 -0.06963949 -0.075811885 -0.042297967 0.010800409
0.08437572 -0.0011820933 0.04720947 0.04238042 0.0113621475 0.048457783 0.02983391 -0.013468068
0.01979249 0.008256526 -0.011130965 0.04651691 0.020512534 0.08803288 -0.050574273 0.004017817
-0.04754602 -0.02005888 0.015300653 0.028975436 -0.0004602928 0.018343708 0.009328016 -0.041778643
-0.0153226 0.065796055 0.003982743 0.03917705 -0.008083737 0.054469485 -0.029490344 0.068899244
0.012043058 -0.027678668 -0.037259344 -0.022345018 -0.02262452 -0.044184554 -0.0051664156 0.01864319
0.0039076135 -0.06071526 0.062592484 -0.075400166 -0.04022177 0.009576529 -0.06307601 0.01844298
0.06110107 -0.034630228 0.0002177349 0.0024298304 0.08619643 -0.042799473 0.04806982 -0.02380611
0.01484991 0.0567017 0.061333995 -0.047841426 -0.008413613 -0.043175522 -0.008633921 -0.09612711
0.022726012 0.06844845 -0.033596516 0.020280883 0.032884646 0.07639097 -0.00835304 0.047752544
-0.039563462 0.089409 0.048161868 -0.009426235 0.07959559 -0.05827758 0.0327798 0.016386962
-0.008494831 0.023851443 0.06266701 0.05569941 -0.06746524 -0.040145285 -0.037205186 0.041821584
-0.022964414 -0.05105929 -0.029290214 -0.044617094 -0.026131501 0.0731572 0.028482936 -0.034848448
0.059408195 0.020844094 0.0089626415 0.051346496 0.035058927 0.03616077 -0.060623042 0.015984204
-0.062358335 -0.029571857 0.102175415 -0.014156765 -0.012822593 -0.025838928 0.083987705 -0.05491638
0.08761237 -0.010985447 0.031389788 0.06129205 0.045228105 0.05592476 -0.033581175 0.021868806
0.026457923 -0.00052289583 -0.048295125 0.005273261 0.04354504 -0.016734518 0.018941766 0.07634081
0.000740645 -0.034740586 -0.0012628946 -0.11346943 -0.01862576 -0.049454194 0.023598839 -0.030557547
-0.06273106 0.09360943 -0.034928724 0.017076433 0.10903297 0.075800136 0.02236012 0.0015272596
-0.037140224 -0.017274266 -0.018136915 0.011329591 0.030269494 -0.023754427 0.039959703 -0.019067967
-0.001863042 0.05018423 0.034076136 -0.015208356 0.049809158 0.015335517 0.028942203 0.052448634
0.035506498 -0.06350842 0.01917074 -0.090535805 0.043568317 0.027999671 0.030318048 0.098668054
-0.0033250377 0.03466067 -0.05193489 0.023077436 0.07389531 -0.047572494 0.020183986 0.010153404
-0.032917067 -0.039934926 -0.042145472 -0.05652073 -0.034220867 -0.027221898 0.06004643 -0.0008976481
0.04770725 -0.049229134 -0.07295248 0.028525522 -0.03017086 -0.04107574 -0.005030705 -0.009707597
-0.005645994 0.02659125 0.04022068 0.013836212 0.07695192 0.049657714 -0.07367454 -0.079631716
0.02151657 0.0030378443 0.051820718 0.002327953 0.058045644 -0.038606476 -0.006499253 0.016184814
0.021725398 -0.0030132397 0.04187452 0.022386607 0.02959991 0.016670216 -0.0007689104 0.09815749
-0.0030794265 0.063329786 0.05008152 -0.070325695 -0.009165513 -0.037534982 -0.005031918 0.0009542723

bias f4 [256]
00000000: bc93 eb3b 648d 94bd 8db5 703d 1230 3e3d
00000010: 0f55 b73b cf6f ca3c d681 a03c 6c01 88bc
00000020: c3d6 813c 88e8 983a c390 1cbd 00c6 293d
00000030: 8e93 00bd 59ac 7c3b cea5 cd3c 24fe bdbc
00000040: f629 e0bc 8d31 1fbd 8e01 213d 98aa adbc
00000050: bf3b 81bd 95fc a53c d861 5dbd 0ce2 50bc
00000060: 7bb0 87bc 2d43 393d 85b9 343d dbee 9cbc
00000070: 5fbe 423d e5a8 28bc 367f f23b 86a1 df3c
00000080: c74e d3bc 9747 3b3c c5ae 00bd 3a21 323d
00000090: f7f5 233d fe16 133d 2635 cfbb 1572 c93c
000000a0: a4f5 703d 1ba0 7fbd 23de 79bc 7328 123b
000000b0: c3a6 9d3b 0248 ebbb ef91 33bd b0e5 413d
000000c0: 9605 683c a88c 12bd 3702 4fbd b417 56bd
000000d0: 89d6 913c da0b 643d a58e 93bd 123e 8eba
000000e0: 3143 41bd 472c acbc 7eed 843a 33e4 b2bb
000000f0: 157b 0dbd c0e7 4c3d 926c b93b 14b4 8dbd
00000100: 1d8f 3e3d a486 f83c 9bbe b2bc 0d94 73bc
00000110: b0d0 8ebd d607 193d b4f0 bbba 0b15 7abd
00000120: dc4b 573c 2c77 1cbd 2ab5 5ebc 273a 66bc
00000130: b3ed 823d 703d e73c 6a03 763d 8454 7ebc
00000140: 8824 093c c945 883d 0528 303d 95eb 8f3d
00000150: 8a29 49bd 3ae7 62bd 93d1 d2bc aa9b fc3c
00000160: bad9 cbbc d06e 7cb8 cb5a 663d 183c 25bd
00000170: 3e00 023d d953 98bd 1478 c7bc 3011 03bc
00000180: 0a8a 323d 1936 033c fae2 7b3d d3fc eb3c
00000190: cd15 8a3c a286 de3c 28ee f2bc e46e f23c
000001a0: 30aa 15bb cf3f 79bc b9c8 46bd 62ed 91bd
000001b0: 50c2 33ba a95a 3dbc badd 27bc 81da 773d
000001c0: 13e9 d3bb 6a28 9fbc 5908 6dbd e639 893d
000001d0: 6aaf c6bc cb8e 75bd b7b1 313d fc5c 243d
000001e0: d715 83bd 29a4 203d 9a20 af3b 7d72 b03c
000001f0: 1f79 f0bc 27c3 2cbc 9471 84bd b1f2 3c3d
00000200: 9a1b 3b3b 6639 fdb9 29d7 e43c f5dc 12bd
00000210: 21c3 e93c ca74 233d 7467 19bc 1024 8239
00000220: 28fb 883d cc0a d63c 06ac a4bc 60fc 4cbd
00000230: 955e 323d ad8d 6fbd c627 69bd 49a1 84bc
00000240: d0e3 38bb 68e6 fa3b 0dbf acbc b078 dabb
00000250: d562 59bd 67fd 07bc 7622 593d fd77 48bc
00000260: 0913 9abc e16a 863d 63a9 a4bc a5d6 4a3d
00000270: e99e 033d 7cb9 bf3c f19c b63c 95a7 b53b
00000280: da1f adba c331 8fbc bdc1 1bbc d69f cabc
00000290: 16ca 8b3b 548f 66bd 5a4d 8fbd 6e6a 243d
000002a0: cd2b d23c 2fa7 e9ba da23 813d 8142 32bc
000002b0: 4926 44bd 4951 a13c 5bb1 d53c 5c50 023d
000002c0: 6f50 853c de04 043d ae3c 58bd 9a55 3c3c
000002d0: eea4 4d3c 0d40 b3bc 4ff4 053c 8e48 623d
000002e0: f95d 6ebd 960d 2e3d 2fb2 543c 30af 64bc
000002f0: de44 76bb b4a8 d23c 62d1 333d 0233 0d3d
00000300: d6f5 ef3b 03a1 4a3d b4aa b43c 9350 4abd
00000310: ba31 163d 95c6 433d b9f1 74bd 7774 62bd
00000320: cb67 07bd 7f2e 23bd 3cef 61bd d563 d73c
00000330: 7d88 0bbd 160b e7bc 9f85 84bd 559e 08bd
00000340: 1b2a 813d 9627 843d 80cc a3bb 4146 083c
00000350: 5de2 c73a e617 833d 9562 0cbd ca9c b03c
00000360: f337 d7ba bebd 68bd a20b 0cbb 5698 eb3c
00000370: 50c0 9d3c f431 1ebd 9e4d a83c 65da c1bb
00000380: 2a67 533d 8360 8b3b 3187 6fbd f77f 22bd
00000390: ad76 89bd 6d6e 67bc 48c8 c83c 9957 a6bc
000003a0: f68b f93c dfaf e73c 1ab1 593b 0d18 26bd
000003b0: b644 5cbd a40c 203c e01e 5a3d 733c 383d
000003c0: 3fb0 f0bc 4bf6 423d 4621 363d fd23 f9bc
000003d0: 9644 cc3c da8c 4abd f957 70bd 3485 343d
000003e0: 3107 37ba 7fda 843d 9e37 98bc 37cc 063d
000003f0: abe4 883c 902d e5bb ef39 25bc 104b 413d
0.007189242 -0.072535306 0.05876689 0.046432562 0.0055948566 0.024711518 0.01959316 -0.01660224
0.015849477 0.0011665979 -0.038223993 0.041448593 -0.03139072 0.0038554876 0.025103476 -0.023192473
-0.027363759 -0.038865615 0.039308123 -0.02119951 -0.06310224 0.020262042 -0.05404839 -0.012749206
-0.016563645 0.04523008 0.044122238 -0.019156864 0.047544833 -0.010294174 0.0074004186 0.0272987
-0.0257944 0.011430643 -0.031416673 0.04348872 0.040029492 0.0359106 -0.0063234745 0.024590531
0.05882801 -0.062408548 -0.015250715 0.0022301942 0.0048111393 -0.007180215 -0.043840345 0.047338188
0.014161488 -0.03577867 -0.05053922 -0.0522687 0.017802494 0.055675365 -0.07204942 -0.0010852239
-0.04718322 -0.021017207 0.0010141579 -0.0054593324 -0.03454121 0.0500257 0.0056586945 -0.06919113
0.046523202 0.03033764 -0.021819403 -0.014866841 -0.06973398 0.03736099 -0.0014338703 -0.061055224
0.013140645 -0.03819959 -0.013592998 -0.014051951 0.06392994 0.028227538 0.06006185 -0.01552308
0.008370526 0.066539355 0.043006916 0.070273556 -0.04911188 -0.055396296 -0.025734698 0.030835945
-0.024884094 -6.0184684e-05 0.05623893 -0.040340513 0.031738512 -0.07437868 -0.02434925 -0.007999703
0.043588676 0.008008503 0.06149576 0.02880708 0.016856099 0.027163807 -0.029654577 0.029593892
-0.0022837035 -0.015212967 -0.048531268 -0.07125355 -0.0006857263 -0.01155726 -0.010245735 0.060511116
-0.0064669936 -0.01942845 -0.05786929 0.067004964 -0.024253566 -0.05995063 0.043382373 0.04012774
-0.0640065 0.039219055 0.0053444626 0.021538967 -0.02935463 -0.010544575 -0.06466976 0.046129886
0.0028550387 -0.00048298686 0.027934628 -0.035855252 0.028535428 0.0399063 -0.009363044 0.000248224
0.06688529 0.026128195 -0.020101558 -0.05004537 0.04354723 -0.058484722 -0.056922697 -0.016190188
-0.0028211959 0.007656861 -0.021087194 -0.006667219 -0.05307277 -0.008300162 0.05301138 -0.012235639
-0.018807905 0.06563354 -0.020100301 0.049521107 0.03213397 0.023403876 0.022291632 0.005543659
-0.0013208345 -0.017479783 -0.00950664 -0.024734419 0.004266034 -0.056289032 -0.069971755 0.04014056
0.025655651 -0.0017826314 0.06305666 -0.010880114 -0.047888074 0.01969208 0.026085546 0.031814918
0.016273705 0.032231204 -0.052792244 0.011495018 0.012551529 -0.021881128 0.0081759235 0.055244975
-0.058195088 0.042493425 0.012981935 -0.013957784 -0.003757767 0.02571521 0.043900855 0.034472473
0.007323007 0.04946996 0.022054054 -0.049393248 0.036668517 0.047796804 -0.059800837 -0.05528685
-0.03305797 -0.039839264 -0.055159792 0.02629272 -0.034065712 -0.028203528 -0.06470799 -0.033354122
0.06306859 0.06452863 -0.0049987435 0.008317531 0.0015249957 0.06401043 -0.034273703 0.021559138
-0.0016419872 -0.056821577 -0.0021369238 0.028759163 0.01925674 -0.038621858 0.020544823 -0.0059159272
0.051612057 0.0042534485 -0.058478538 -0.039672818 -0.06712089 -0.014125449 0.024509564 -0.020305442
0.030462246 0.028282104 0.0033217133 -0.04055028 -0.053776465 0.009768639 0.0532521 0.044979524
-0.029380916 0.047598165 0.044465326 -0.030412668 0.024935048 -0.049450733 -0.058677647 0.044072345
-0.00069819676 0.06486987 -0.018581208 0.0329096 0.0167106 -0.006993957 -0.010084613 0.047190726

weight f4 [256, 256]
00000000: c4d6 c03d 20b6 99bc 42fd 6e3c 288d a0b8
00000010: a646 a23d fe88 f8bb e7b4 3f3c 00e1 2d3d
00000020: 2eb5 2fbd 7b78 b9bc e06d 803b 7d65 a5bc
00000030: b8ec 7fbc a7ff 78bd a6b9 963d 7b74 083c
00000040: b7f4 2c3c 41ee 9c3d 4d6a 26bc 20a6 6abd
00000050: 9c56 65bd 16bb 16bd db9d 8bbd d5a6 9aba
00000060: f4e6 55bb e445 56bd f691 7f3d 6c2c 99bc
00000070: 29d0 323c 77ac 34bd d4a0 663d 44d2 62bd
00000080: b84d aebc 7f4f 6fbc df6b 78bd 8261 833b
00000090: 356f 203d c1b3 593c e944 a43d a29b deba
000000a0: 2c6e 9a3d 8e55 8a3c 818d 88bd d9f9 143d
000000b0: 01e1 12bd 78a1 933b b46f a9bb 94aa 723c
000000c0: dae6 ed3c cac9 69bd 1e31 8d3c 4976 8cbc
000000d0: 07df fabc 8686 683d 1c01 163d 830d 593d
000000e0: 11e9 2c3c ec00 593d 4a6c cd3c 4b26 483d
000000f0: 4861 ac3d 81f2 32bd c923 f9bc fc92 13b9
00000100: a017 9637 f65f 6dbd b3e1 723d 0699 82bc
00000110: 524b 88bd fbe5 363b 4783 61bd f369 213d
00000120: 75a7 953d e5d9 8cbc f351 dd3a bf85 0aba
00000130: d7d9 413d 59d8 043d adf4 353d f9fb 26bc
00000140: 99bc 39bd 5483 883d 1aa6 3c3d 6a15 953c
00000150: fec8 1a3d 0f9d 3abd a363 3d3d 5dc2 81bc
00000160: d0f1 4cbd cbf7 8c3c 4d64 983d 7dbb 353d
00000170: b047 3dbd 7d7b 5ebd 31f0 a8bb cdef 163d
00000180: 325b 993d 6a10 4dbd d7cb 08bc 7bf5 bbbc
00000190: 540c 6bbd bdc1 babc e9ff febc 64db 07bd
000001a0: 55ae 903b 4a6b 1abd f202 193d edd7 0c3d
000001b0: 58f1 3e3d fffe 663d a340 dfbc 63a9 a03d
000001c0: 1b44 703c 5d74 333d b006 6fbd 8cba fa3b
000001d0: 368a e03b b337 1a3c bfcb e13c a510 9e3c
000001e0: 4201 10bd 4bd5 6a3c 7993 adbc 4d40 8a3c
000001f0: aed4 f63a c750 113d bb1b 27bd 09e5 18bd
00000200: 24ee 18bd c760 7a3c dacb f2bb 880d 053b
00000210: 59db 173d 6019 873b 7a40 f3bc 4453 83bc
00000220: ecec bc3b 2e11 54bc 26ac 263d b7ff 443c
00000230: 7c19 343d 2b83 133d 403d 313b 9252 08bd
00000240: 04cc 2bbc ff72 83bd 8375 a03c d2a3 9ebd
00000250: c5d3 d2bc 54b6 16bd 934c a03c 0587 d43c
00000260: 5859 28bd 3d5d a83d 3b35 273c 5b46 3dbd
00000270: e855 09bc 79aa d63c e61a 3d3d fb7e 5f3d
00000280: 7dbd 93bc f1f0 853d 2e6a 58bd 2f30 253d
00000290: 6477 c63c fefa 023d 5d0f 443d db84 14bd
000002a0: 451e a4bc 17a2 463c 50f0 8d3d 9103 143d
000002b0: 34c3 d9bc 6a90 34bd 24c0 46bc 1d92 4a3d
000002c0: efb1 9d3a 9c47 ab3c 43e4 2ebd 5aa2 80bd
000002d0: 4bbf 423c 7848 8dbb 5e1e 1d3a e12f d1bb
000002e0: f5fc acbc 9859 d43c a164 863d 43ea 1bbc
000002f0: 1078 53bd 5809 0bbd 7039 813c 54ad 0cbd
00000300: 5044 20bc cac4 74bd e0e2 223c d346 443d
00000310: 7883 c23c 465f ae3d e864 463d fe2b 3b3d
00000320: 175c 34bc 71a4 87bb 25ca 5bbc 50ee 99bc
00000330: b6e2 65bd d0ab 8b3c 37b1 193c ce64 6abd
00000340: cce4 413d 4a88 7cbd d439 b5bc 6814 103d
00000350: 5e5a b7bc 103d c7bc 29c5 8a3d 6a18 693c
00000360: d0a4 b4b9 7cf9 2bbd 3c3f 06bd 5ebc 20bd
00000370: 3e45 863d d354 33bd 4001 83bc 44b7 983d
00000380: 6806 7b3b 0c62 dd3c e208 b93c 55c1 48bd
00000390: 8476 2a3d e271 7dbd f657 01bb 9e92 19bd
000003a0: e575 303c 8a1b 53bc e016 273d 6776 05bd
000003b0: b835 fe3c f9af 223d bec7 293d a4d5 6abc
000003c0: 6f2f 863d aec1 453c d82c 083d d5dc 583d
000003d0: b2a4 b13d 2293 1f3c 2a6c d8bc b49f fdbc
000003e0: 6d26 ee3c 3e1d 5bba e5bd 1a3d d897 8e3c
000003f0: 2537 92bc 8663 8bbd 00ef 4cbd 4071 543d
0.09415963 -0.018763602 0.014586749 -7.655687e-05 0.07923631 -0.00758469 0.011700845 0.042450905
-0.042897396 -0.022640457 0.003919348 -0.020189995 -0.015620403 -0.060790684 0.073596284 0.008328552
0.010556391 0.07662631 -0.01015718 -0.057287335 -0.0559908 -0.036799513 -0.06817218 -0.0011798987
-0.003263888 -0.052312747 0.06239506 -0.01869794 0.010913887 -0.044109788 0.05630572 -0.055376306
-0.021277294 -0.014606356 -0.06064975 0.0040094266 0.039168555 0.013287486 0.08020956 -0.0016983638
0.07540545 0.016886499 -0.06667615 0.036371086 -0.03585911 0.0045053326 -0.0051707868 0.014811177
0.029040743 -0.057077207 0.017235335 -0.017146247 -0.030623926 0.056768917 0.03662215 0.0529914
0.010553614 0.052979395 0.02507605 0.048864644 0.084169924 -0.0436883 -0.030412572 -0.00014073768
1.7892395e-05 -0.057952844 0.059297275 -0.015942108 -0.06654991 0.0027908075 -0.055056836 0.03940768
0.073073305 -0.017193744 0.0016885385 -0.0005284212 0.04732689 0.032432888 0.044422794 -0.010191911
-0.045345876 0.06665674 0.046056844 0.018198688 0.037789337 -0.04555994 0.0462376 -0.01583975
-0.050035298 0.017208 0.07441006 0.044368256 -0.046210945 -0.054316986 -0.005155586 0.036849786
0.07488097 -0.05006448 -0.00834938 -0.022944203 -0.057384804 -0.02279746 -0.031127887 -0.03316821
0.0044153132 -0.037699975 0.037356324 0.03438561 0.046616882 0.056395527 -0.0272525 0.07844808
0.014664675 0.043812145 -0.058355987 0.0076516327 0.0068524135 0.009412694 0.027562974 0.019295046
-0.03515745 0.01433308 -0.021188485 0.016876364 0.0018831694 0.035477426 -0.04079793 -0.0373278
-0.037336484 0.015281863 -0.007409555 0.0020302255 0.03707442 0.004122898 -0.02969383 -0.016030915
0.005765548 -0.012943549 0.040691517 0.012023858 0.043969616 0.036013763 0.0027044564 -0.03328187
-0.010485653 -0.06418418 0.019587284 -0.0774609 -0.025735745 -0.036794975 0.019567763 0.025943289
-0.04110083 0.08220909 0.010205562 -0.046209674 -0.008382298 0.026204335 0.04616823 0.054564457
-0.018034691 0.065400966 -0.052835636 0.040329155 0.024226852 0.031977646 0.047866214 -0.036259513
-0.020033965 0.012123606 0.069306016 0.036136214 -0.026582338 -0.044083036 -0.012130771 0.04945575
0.0012031178 0.02090817 -0.042698156 -0.06280966 0.011886428 -0.0043116175 0.00059936 -0.0063838814
-0.021116713 0.025921628 0.06562162 -0.009516302 -0.051628172 -0.033944458 0.015774459 -0.034344986
-0.009781912 -0.059757985 0.0099417865 0.047919106 0.02374433 0.08514266 0.048436075 0.04569625
-0.011008284 -0.004139476 -0.013414894 -0.018790394 -0.05612441 0.0170497 0.00938063 -0.05722504
0.04733734 -0.061653413 -0.022122301 0.03517571 -0.022381958 -0.024321109 0.067758866 0.014227012
-0.0003445507 -0.041985974 -0.03277515 -0.03924214 0.06556176 -0.043782067 -0.015991807 0.0745683
0.003830338 0.027024291 0.022587243 -0.0490125 0.04161693 -0.061876185 -0.0019736267 -0.03749334
0.010770296 -0.012884984 0.0407933 -0.03258362 0.031031474 0.0397186 0.041450255 -0.014333162
0.06552016 0.012070103 0.03324589 0.052944977 0.08673991 0.009739669 -0.026418764 -0.030959941
0.029071057 -0.00083585444 0.037778754 0.01740639 -0.01784856 -0.06806092 -0.050032616 0.051865816

bias f4 [256]
00000000: 38dc fb3c d538 01bd 63a4 293d d3f1 8bbd
00000010: 1197 87bd ccb9 8bbd b5ff 143d e091 763d
00000020: 7990 793d 3eb3 6fbd 6e48 283d b70b 32bd
00000030: 64c9 67bd ea9f 55bd c171 56bd a882 6a3c
00000040: 2714 263d 7f9e 9c3c 46a1 88bb 2063 adbb
00000050: 2699 13bd d893 293d ba38 1ebd fca7 4a3d
00000060: 8bce 33bd e945 cd3c 3211 08bd 4a31 0fbd
00000070: f365 34bd fe57 62bd b119 32bd 937c b23c
00000080: 0889 b23c fc95 99bc 09cb 77bd 8101 463d
00000090: 935e eabc cf71 b73c 2039 0bbd 8cd6 40bd
000000a0: 773d 80bd 84fb 623d d8a0 363d 011d edbc
000000b0: 42b9 3bbd 3eca f6bc d9aa cb3c 5591 473d
000000c0: b4ea 683c dbfa 0abd f51a 653c 1c3f 703d
000000d0: c05c 4bbd c294 07bd 247d cd3c 7431 563c
000000e0: 5a5a 68bd 559d 873c 7a38 123d eb2e 00bd
000000f0: cb8d 14bd dcce 98bc 6cdd 70bd 0944 e4bc
00000100: 4c0f 963c 7b02 50bd 19fb 31bd e65d 77bd
00000110: 00b5 d5bb 798b 413c c8a4 873d 40ea e3bc
00000120: fd77 6b3d e3ea 663d da92 123d e97a 963c
00000130: 60dd 2f3d b09c 973d 13bf 933d 5ea6 c43c
00000140: 1030 7dbc cefd ea3b 7989 c8bb 9f60 2a3d
00000150: 31bc 7fbd 73a1 dbbc 82cb ab3c d183 213c
00000160: e5f9 4c3d 94ba 1ebd a47c 873d 7347 39bd
00000170: 197e 11bd adf7 7b3d a9fe d2bb 450c cebc
00000180: 2ae4 23bd 5618 803c 2470 413b fb7b 2c3d
00000190: 3bf9 d33c 3ed7 ee3c f137 92bd c5c1 9d3c
000001a0: 20fe d3bc 636e 41bd 7f4d 01bc 7d33 4f3d
000001b0: 3ddb 963c 09d5 05bc 1de6 11bc 565d 54bd
000001c0: 7422 80bd 7f9b 7ebd b74d b53c 9ef0 0fbc
000001d0: 13cb 5fbd b449 bf3c c1f8 3e3c 0441 31bd
000001e0: dc31 46bd 693b e33c b144 1e3d ab29 8f3d
000001f0: 98a7 413d 578a 853c 1fc9 90bd 34c1 6fbd
00000200: e91a 013d 1349 283b cdb6 bfbc 59d4 263c
00000210: a73d 9dbc 8a1f 743d 9c41 5f3d fdea 28bd
00000220: 5c0c 3dbc 95fe fbbc 278f f03c d677 753d
00000230: 9dce 1abd 6fb7 7a3d 6a43 473d 1b1d afbc
00000240: 30cc 0d3c 392f 5d3c f789 83bc 4a96 b93b
00000250: 2c8d 23bd 3476 503c afff 703d db7d 01bd
00000260: aa15 39ba c093 3cbc b394 cdbb b3d2 bbbb
00000270: 0ab3 87bd ca2d 2a3d 4a54 71bc 9357 febc
00000280: 300a 5dbd 6aa3 8c3d b1bb 44bd 76bf 8d3c
00000290: eb82 1d3d e3a6 8fbd 4870 47bd daf9 0e3c
000002a0: 40fc bcbc a63b bb3c 655e 12bc ce0a 9c3c
000002b0: db44 0cbc 5305 ca3b 49ac 013d e7f1 383c
000002c0: 4518 79bc 900b b1bb d71d 32bc 5f31 7e3c
000002d0: 2df1 3a3c 9dc0 933d 446d 52bd 4a50 69bd
000002e0: 6ae5 ccbc 1229 b4bc 0f41 783b 013f 51bd
000002f0: ea27 f83c 540e 71bc 6c2a 113d 79cb 263d
00000300: 69a0 123d ff93 da3c 5cc0 50bd 01ec 673d
00000310: 87f5 24bd 3fcd 18bd 1a77 71bc 818c b83c
00000320: 08fd a2bc e926 053c fe46 60bb 368a 093d
00000330: d2ae 79bd 9f0e 043c ec5b 853c 980a 473d
00000340: 1170 35bc 5e96 7d3d 78c6 d5bc ca50 2fbc
00000350: 3a4a 3f3d efbc 473c 1796 53bd 09d3 08bc
00000360: ed18 373d dfd1 4cbd 0d9e 86bd 8b1c 95bd
00000370: 1070 043c 328b 5b3d c280 1ebd 985a 56bd
00000380: 6916 513c c824 4d3c b1ed aebc df29 3d3d
00000390: f126 da3c 126c 483b 58db 8e3d ebcd 723d
000003a0: 26b5 a8bb 0941 613c 3ec7 25bd 2f24 923c
000003b0: f93b 57bd 10a9 b4bc d886 2e3c 78d3 8ebc
000003c0: a98e 4f3c 9aad 1f3d 96be 0c3d b276 7e3d
000003d0: 6b3a 893d c658 643d c83b ffbc c111 e63c
000003e0: fff8 11bd 10f4 f4bc e4ea 043c 6a76 6dbd
000003f0: 3564 6f3d 348a 02bd 1613 12bc 6f2d 85bc
0.030744657 -0.03154834 0.041416537 -0.06833234 -0.066206105 -0.06822547 0.036376674 0.06019771
0.060928795 -0.058520548 0.0410847 -0.043468203 -0.056588545 -0.05215446 -0.052354578 0.014313377
0.040546563 0.019118546 -0.004169616 -0.0052913576 -0.036034726 0.04140076 -0.038628317 0.04947661
-0.043898147 0.02505775 -0.033219524 -0.034959115 -0.04404254 -0.055259697 -0.043481532 0.021787917
0.021793857 -0.018748276 -0.060496364 0.048341278 -0.02860955 0.022393135 -0.033990026 -0.047079608
-0.062617235 0.055415645 0.044586986 -0.028944494 -0.045830972 -0.030125733 0.02486174 0.048722584
0.014216114 -0.03393064 0.013983478 0.058653936 -0.049649 -0.03310085 0.025084086 0.013073314
-0.05672679 0.016554514 0.03569839 -0.031294744 -0.036268037 -0.018653326 -0.058804914 -0.027864473
0.018317841 -0.050783616 -0.043452356 -0.060392283 -0.006521821 0.011813038 0.066232264 -0.02782166
0.057487477 0.05637635 0.03578458 0.018369155 0.04293573 0.07402933 0.07214179 0.024005111
-0.0154533535 0.007171369 -0.0061199036 0.04159605 -0.062435333 -0.026810383 0.020971064 0.009858088
0.050043005 -0.038752154 0.0661557 -0.045234155 -0.035520647 0.0615155 -0.0064390493 -0.025152335
-0.040012516 0.015636604 0.0029516304 0.042110424 0.025875678 0.02915537 -0.07139576 0.019257436
-0.025878012 -0.047224414 -0.007892012 0.050586212 0.018415088 -0.008168467 -0.008904961 -0.051846825
-0.062565714 -0.06216001 0.022131784 -0.008785395 -0.054637026 0.023350574 0.011655987 -0.043274894
-0.048387393 0.02773829 0.038639728 0.069903694 0.04727897 0.016301317 -0.07069611 -0.058533862
0.031519804 0.0025678321 -0.023402596 0.010182464 -0.019194437 0.05960039 0.05450593 -0.041239727
-0.011538591 -0.030761043 0.029365135 0.059928738 -0.037794698 0.061210092 0.048648275 -0.021376183
0.008654639 0.013500028 -0.016056998 0.005663668 -0.039929554 0.012723494 0.05883759 -0.031614166
-0.0007060418 -0.011509836 -0.00627383 -0.0057319044 -0.06625946 0.041547574 -0.014729569 -0.031047618
-0.053964794 0.06867106 -0.04803056 0.01730321 0.03845493 -0.07014253 -0.048691064 0.008726561
-0.0230695 0.022855591 -0.008933638 0.01904812 -0.008561338 0.0061651855 0.031658445 0.011288143
-0.01520354 -0.0054029897 -0.010871372 0.015514701 0.01141004 0.072144724 -0.051373735 -0.056961335
-0.025011737 -0.02199224 0.0037880575 -0.051085476 0.03029247 -0.014712889 0.035440847 0.04072139
0.03579751 0.026681898 -0.0509647 0.056621555 -0.040273216 -0.037305113 -0.014737869 0.022527935
-0.019896045 0.008126953 -0.0034222002 0.033579074 -0.060957737 0.008060127 0.016279183 0.048594087
-0.011074082 0.06191098 -0.026095614 -0.010700414 0.046701647 0.012191041 -0.05165681 -0.008351096
0.044701505 -0.050004836 -0.065731145 -0.07280835 0.008083358 0.053599544 -0.03869701 -0.05233249
0.012761691 0.012520976 -0.021353574 0.04618251 0.026629897 0.0030581993 0.0697543 0.05927841
-0.0051485477 0.013748416 -0.040473215 0.01783952 -0.05254743 -0.022053272 0.010652266 -0.01743482
0.01266829 0.03898392 0.034361444 0.062124915 0.067005955 0.055748723 -0.031156436 0.028084638
-0.03563785 -0.029901534 0.008112643 -0.057974257 0.058445174 -0.031870082 -0.008915683 -0.016257016

weight f4 [128, 256]
00000000: 564c b73c 4a0a 5dbd 9b14 8d3d 54b6 99bc
00000010: 34c0 483c 59ab bebb 4ee2 9dbd 8cbe d3bc
00000020: 3fd7 9c3d 351e c5bc 293d 013d 0a4d bdba
00000030: a35b 86bd 0ad8 32bd d672 203d ac07 69bc
00000040: 8b96 82b9 9dd0 993d f40c 57bd 41ec 28bd
00000050: 957c 113b a18f 0d3d 14a6 18bd 9526 733d
00000060: 7f12 6dbd 1fd6 98bb 5fab f33c fb28 2dbd
00000070: 88a0 96bd 97a9 8cbd c253 193d d77d 22bd
00000080: cf0e 023d ddf8 91bd 3b9f 60bd 7da0 17bb
00000090: f223 66bd 74e3 1b3c 5dc8 1cbc 2daa 37bd
000000a0: c784 47bd 4316 b1bc 8937 703d ec2b 85ba
000000b0: d2e5 4dbd a839 95bd 3dca 1b3d 8f55 18bd
000000c0: 944b 4c3d 06bd c4bd f861 a93c 26c1 2abd
000000d0: 97f8 433d a431 2cbb 7c30 73bb ebba 4f3d
000000e0: d669 ca38 c901 063d 61ab 97ba 935c ea3c
000000f0: 9c6a d1bc d4af 8dbd 91f2 11bc e5a9 24bd
00000100: 79b1 5dbc a4ef 31bd 89ea a4bc d73c 56bd
00000110: 612d 9c3b 147f e8bc 7382 ef3c 9844 43bc
00000120: a63b 24bd d691 963b c249 8cbc beb4 983c
00000130: de41 7e3d 7870 d8bc 19e0 5bbc a85b 423c
00000140: dacf 76bc 735c f8bb c20b 743c 2206 f9bc
00000150: b0b7 83bd 9c8f 043d c4fe 8a3d 80ac 6b3c
00000160: e099 c139 f274 31bd e5b2 623c ea8b d8bc
00000170: 1131 9f3c 4c47 3abb 4836 77bd df91 42bd
00000180: 9d3e 3cbd c399 1abc 3f14 e8bd 1831 71bd
00000190: 08cb f63c 5f4c 99bc 2fa5 0ebd adf7 27bd
000001a0: 39c2 08bd 668c 46bd d77b 8dbd 7ece 523d
000001b0: 564a b13c 13f0 123d 6a9a 05bd be51 9b3c
000001c0: 4f7a ed3c 1e7d 4fbd 6a1d 0bbc e30d 1ebd
000001d0: b60e 99bd 8a7d 07bd 6534 acbc 461f 213d
000001e0: 180f c53c d56b 4e3d 9885 61bd 64a0 1e3d
000001f0: 2687 093c c944 073c d114 49bd adbe a43c
00000200: d583 763d 6c43 3a3d 05c1 4f3d f3b1 22bb
00000210: 4dff c339 4006 d2bc d27d 6a3c 0edc 0cbc
00000220: a26e 063d 5f9d ffbc 4060 f3bc b796 28bd
00000230: 811c 063d cfd3 c9bb ac1b 10bd ae4c b93c
00000240: 0ced 01bd d32e 8dbd a40a 333c 24df 873d
00000250: f247 613c 3449 fc3c 17eb f4bb 4586 84bd
00000260: 1bcd a3bb af70 27bd 0607 b8bc 9dc4 f2bc
00000270: c2b9 42bd 3303 42bd e486 cdbd 52cb 7bbd
00000280: b174 7bbb 6413 913d 7fdf 7bbd f1ca 633d
00000290: cd74 2c3d 7582 77bd 610e e73c 6e6f 2b3c
000002a0: 53eb 183d 28ef e63c 8f61 a33b dd17 f83c
000002b0: 2a2f 77bd ad99 82bc 673a 2ebd a40d 173d
000002c0: 5b0e a5bc a8d6 323c 8d1c 85bc c3c5 843d
000002d0: 5e4b 1c3c d8e5 b6bc 503a 68bd 4330 87bc
000002e0: 7770 323d 5890 843c 7446 0fbd 6d85 d2bc
000002f0: 05c3 863d deeb 8cbd 35d4 12bd 32d5 95bd
00000300: 30df 693d 892e d1ba 0a74 41bd 0a9c 343d
00000310: bb24 013c 1941 f33c bdfb a33c 3f61 57bd
00000320: e2a5 853c d323 4ebc 1410 033d 43e2 44bd
00000330: 6ee2 a03c 1fdb 453d 20e5 8b3b a093 263d
00000340: 4733 463d b30f 08bd 57c2 b4bc 8818 0f3c
00000350: e43b 513d a2bf 213d 76fc c33c 0928 863c
00000360: fb12 aa3c 9a9b 2dbd a201 1d3d 9d17 ae3c
00000370: f365 633d 419a 763d aa86 003d d391 61bd
00000380: 1f71 8b3d 087a 46bc 235b 9bbc 8004 513d
00000390: 73ea 633d 74cc 213d 484b 943d ace0 473c
000003a0: 332d 13bb 6517 18bd aa69 f4bb 8e36 153d
000003b0: 3e59 7fbd 9a1e 4cbd 9919 333d 720f b7b7
000003c0: 1518 613d 851f 653d d332 29bd acf4 813d
000003d0: 8d64 04bd e18a 28bc 143f 553d 8efe 56bd
000003e0: 3321 2fbd 2bf1 b3bc 0685 9ebc 2880 9ebd
000003f0: 6973 a03c c670 b03c 9ef6 8ebd a42c 2b3d
0.022375267 -0.05396489 0.06888696 -0.018763699 0.012252856 -0.005818766 -0.0770918 -0.025847696
0.076582424 -0.024062255 0.031552467 -0.0014442515 -0.06560447 -0.043663062 0.039172016 -0.0142230205
-0.00024907695 0.07510493 -0.052502587 -0.041240934 0.00221995 0.034560803 -0.03726776 0.059362967
-0.057878967 -0.004664197 0.029744802 -0.04227541 -0.07354838 -0.06868284 0.037433393 -0.03967079
0.031752404 -0.07127545 -0.054839354 -0.002313643 -0.056186624 0.009514678 -0.009569255 -0.044840027
-0.04871061 -0.02161706 0.058646712 -0.0010160184 -0.050268 -0.07286388 0.038034666 -0.03719097
0.049876764 -0.09606366 0.020676598 -0.041688107 0.047844496 -0.0026274705 -0.0037107756 0.05071537
9.651824e-05 0.032716546 -0.0011571461 0.028608596 -0.02556353 -0.06918302 -0.00890793 -0.040201087
-0.013531082 -0.04344143 -0.020131366 -0.052304115 0.004766152 -0.028380908 0.029237008 -0.0119182095
-0.040095948 0.0045950217 -0.017125014 0.018640872 0.062074535 -0.026420817 -0.013420128 0.011862673
-0.015064204 -0.00757938 0.014895381 -0.030398432 -0.0643152 0.03236352 0.06786874 0.014384389
0.00036926474 -0.04332442 0.013836597 -0.026433904 0.019432576 -0.0028423844 -0.0603545 -0.047502395
-0.04595815 -0.009436074 -0.11331987 -0.05888471 0.03012611 -0.018713174 -0.0348255 -0.041007686
-0.03338835 -0.048473738 -0.06908386 0.051466458 0.021641891 0.035873484 -0.032617964 0.018959876
0.028988985 -0.05065643 -0.0084909 -0.038587462 -0.07473509 -0.033078708 -0.021021077 0.039336465
0.024055049 0.050395805 -0.055059046 0.03872718 0.008394038 0.008256146 -0.049092118 0.020110453
0.06018432 0.045474455 0.050721187 -0.0024825304 0.00037383512 -0.025637746 0.014312224 -0.008597387
0.03282035 -0.03120297 -0.029708982 -0.041159358 0.032742027 -0.0061592828 -0.03518264 0.022619572
-0.031720206 -0.06893697 0.01092783 0.066343576 0.013750063 0.030796625 -0.007474314 -0.064709224
-0.0049988157 -0.040878948 -0.022464287 -0.029634768 -0.047540434 -0.047366332 -0.10035494 -0.0614732
-0.0038369114 0.070837766 -0.06149244 0.055613462 0.042103577 -0.060427148 0.028205099 0.010463579
0.037333798 0.02819021 0.004985995 0.030284816 -0.060347714 -0.015942419 -0.042536166 0.036878243
-0.020148447 0.010915436 -0.016248966 0.064830326 0.009539453 -0.022326395 -0.056696236 -0.016502505
0.043564286 0.01618211 -0.0349793 -0.025698388 0.06580166 -0.068809256 -0.035846908 -0.073160544
0.057097614 -0.0015959303 -0.047229804 0.044094123 0.007882292 0.029694127 0.0200175 -0.052582975
0.01631445 -0.012581783 0.031997755 -0.048067342 0.01963922 0.048304673 0.004269257 0.04066813
0.048388746 -0.033218097 -0.022065325 0.008733876 0.051082507 0.039489396 0.023924094 0.016376512
0.020761004 -0.04238472 0.038331635 0.021251494 0.05551715 0.0602057 0.031378426 -0.05507071
0.068086855 -0.012114055 -0.018964356 0.051029682 0.05564351 0.039501622 0.07240921 0.012199562
-0.002245736 -0.037131686 -0.007458885 0.03642898 -0.062340967 -0.04983387 0.043725584 -2.1822492e-05
0.054954607 0.055938262 -0.041308235 0.063454956 -0.032322455 -0.010287018 0.05206211 -0.052488856
-0.04275627 -0.021965584 -0.01935054 -0.077392876 0.019586282 0.02153815 -0.06980632 0.04179062

bias f4 [128]
00000000: 68c9 903c 73e2 6dbc 878a 85bd b87d 103d
00000010: 34c1 693d ca6f 333d de7b 19bd 9a23 803c
00000020: c780 a9bc 448a b83b 2cc7 a3bc 1883 12bd
00000030: 2a7b 9c3d 407a 48bc fd23 dcbb 933f 183d
00000040: 4eca fd3c d5b8 06bd e179 073d cc10 353d
00000050: 2521 403d 0b5a 98bd 4606 f5bc 23d7 833c
00000060: a55f 6e3c 302d 0c3d f7e3 973d 9962 6fbc
00000070: e7f8 bebc 0cd6 a73c cf85 873b 8b58 063d
00000080: cbe3 cbbc 8f8b 0b3d 3dbe 19bc 471f 193d
00000090: f80d a43c ae60 853d f3e7 79ba b1df efbc
000000a0: c3b5 67bd 6aed 353d 2d30 9e3b 665b d43c
000000b0: 8b87 b53c a97c 3cbd 856f 443d 35bc 2c3d
000000c0: befe 663b 1660 6bbd 4972 d23c eb8c 083d
000000d0: 7a29 9d3b db3c b1bc d196 0bbd f40a 20bd
000000e0: 6754 d3bc fed7 5fbb a495 3d3d 84a6 92bd
000000f0: eb1b 1c3c 9a6e 033d 5b7e 36bd 9b51 7cbd
00000100: 107d 013d 91ee dc3c c490 543d 4a9a 00bd
00000110: 4ec2 413d bbcf bdbc a3cf 16bc 1799 85bb
00000120: 85c7 533d 8ff8 10bd bab9 163d 81fd 253d
00000130: af33 08bc a898 523d 0860 60bc e078 d6bc
00000140: 43a3 0ebb 4366 4c3d bf1e 32bd 2963 17bd
00000150: 3b13 273d 0a6e 33bd 0be1 3c3d b6a9 813d
00000160: 704e 2fbc f759 0b3d f156 943d 453c ec3c
00000170: 1351 15bd 3eb9 503c 5d57 773c 98e3 8838
00000180: 71b3 523c 991c 283c 8f93 80bc e823 763a
00000190: 3cd8 16bc 5f01 c33c 0a9e abbb 2d4b 4a3d
000001a0: 7e1c bebc cab6 323c b0d3 3bbd d025 173d
000001b0: e661 1dbb df56 6e3d 4c64 213d bdd3 233d
000001c0: 6767 c63c 4e7a ec3c 6605 3dbd 8192 84bd
000001d0: db5c 66bd 5e39 7fbc d5c6 24bd 1a6f 44bd
000001e0: f974 4b3d ee93 7bbc b45e 863d 3d4e 1b3c
000001f0: 94ef 3dbb 39f5 8a3d 7c29 073a 24dc a53c
0.017674163 -0.014519322 -0.065205626 0.035276145 0.05706902 0.043807782 -0.037471645 0.015641976
-0.020691289 0.005631717 -0.019992433 -0.035769552 0.07640679 -0.012236178 -0.0067181573 0.037170004
0.030980255 -0.032891113 0.033075217 0.044205472 0.04690661 -0.07439049 -0.029910218 0.016093796
0.014549171 0.03422278 0.07416528 -0.01461091 -0.023312045 0.020487808 0.0041358243 0.032799285
-0.024888894 0.03406864 -0.009383735 0.037383344 0.020026192 0.06512581 -0.00095331593 -0.029281469
-0.056569826 0.04441587 0.0048275203 0.025922488 0.022159358 -0.046017323 0.047957916 0.042171676
0.0035247053 -0.05746468 0.025689261 0.033337515 0.004796204 -0.021635463 -0.034079377 -0.039072946
-0.025797082 -0.003415584 0.046285287 -0.071606666 0.009528141 0.0320879 -0.044554096 -0.061601263
0.03161341 0.026969226 0.05189587 -0.03139714 0.047304444 -0.023170343 -0.009204778 -0.0040770876
0.05170395 -0.035393294 0.036798216 0.040524963 -0.008313104 0.051415116 -0.013694771 -0.026180685
-0.0021764792 0.049902212 -0.043486353 -0.0369598 0.040789824 -0.043806113 0.046113055 0.06331198
-0.010699853 0.034021344 0.07243145 0.028837333 -0.03645427 0.012739478 0.015096513 6.527378e-05
0.012860165 0.010260724 -0.015695361 0.0009389506 -0.009206828 0.023804365 -0.0052373456 0.0493881
-0.023206946 0.010907838 -0.045856178 0.036901295 -0.002401465 0.058188315 0.03940229 0.03999685
0.024219228 0.028866913 -0.046147726 -0.06473256 -0.056240898 -0.015577642 -0.040228684 -0.047957517
0.0496721 -0.015355093 0.06561032 0.009479103 -0.002898191 0.06785054 0.0005156023 0.020246573
