models/model_objs/demo model.pth (torch, 836843 bytes, 11 tensors)

weight f4 [256, 135]
000000 a4 50 81 3d 64 b9 e6 bc 77 d7 57 3d 1e 67 87 bd
       0.06314209 -0.028164573 0.052695718 -0.06611465
000010 27 97 e5 bc 7a a9 15 3c 21 56 aa bd e4 f4 08 bd
       -0.028026177 0.009134645 -0.08317209 -0.03343667
000020 95 af 03 bd a7 6e be bb fc 6f bb 3c 2e 49 10 bd
       -0.03214987 -0.0058115306 0.022880547 -0.03522604
000030 3e 2d 11 3d 2f 02 89 bd d7 fa 93 3d 14 0d 9a 3d
       0.035443537 -0.066898696 0.07225578 0.07522026
000040 be b5 10 3d e7 b6 c2 3b 63 42 89 3d 12 f3 60 bd
       0.035329573 0.005942214 0.067021154 -0.05491931
000050 14 0b 75 3d 20 30 f0 bc 85 ba a2 3d 2f 9f fc bb
       0.059825018 -0.029319823 0.07945732 -0.007709406
000060 ad 9f 71 3d 78 0f 94 bd 75 22 20 3d d9 aa 5f bd
       0.05899017 -0.07229513 0.03909536 -0.054606292
000070 1e 4a 02 3d 3f 86 01 3d 35 80 94 3d 5c d9 d5 3c
       0.031808965 0.031622168 0.07251016 0.026104622
000080 ab 5a d5 3d ab 83 30 bd 4e 80 a9 bd e1 8c a4 bc
       0.10417684 -0.04309432 -0.08276425 -0.020086708
000090 83 70 86 3d cb 52 1a 3b 8a 99 40 bd d0 4e b4 bc
       0.06564429 0.0023547884 -0.047021426 -0.022010237
0000a0 6f ab b4 bd 15 c2 0f bd ca ba 0f bd d5 0f 00 3d
       -0.08821761 -0.0350972 -0.035090245 0.0312651
0000b0 d3 04 81 bd f9 d6 86 3d cd 7c e5 bd 57 98 5d bd
       -0.06299748 0.065839715 -0.112054445 -0.05410036
0000c0 3d 76 fa bc a0 1a f0 3b 85 b5 68 3b c1 71 21 3d
       -0.030573959 0.0073273927 0.0035508585 0.039415125
0000d0 c9 d3 4c 3d cf bf 56 bd 9d a2 08 bd 7e d0 b6 ba
       0.05000666 -0.052429017 -0.033358205 -0.0013947634
0000e0 d1 d4 6e bc 40 06 41 bc 17 51 41 3d 34 21 31 bd
       -0.014577107 -0.011781275 0.047196474 -0.043244556
0000f0 f7 0f 91 3d 08 d0 cb bc be e2 01 3d b3 5c 4e bd
       0.07083123 -0.02487947 0.03171038 -0.050381374
000100 76 2b a2 bd 2a be a4 3d 48 7c 88 3d 7d e6 1b bd
       -0.07918446 0.080440834 0.0666433 -0.038061608
000110 cb de c2 bc ad b3 e8 bd 98 ec 27 3d 9e 74 32 3d
       -0.023787877 -0.113623954 0.040997118 0.043568246
000120 f4 85 39 3d 55 f9 12 3c 90 53 20 3d 74 de e1 3b
       0.045293763 0.008970578 0.03914219 0.0068929736
000130 8f 46 3c 3d 07 f8 f1 3c ef 0e f1 bb 0c ff 25 ba
       0.045965727 0.029537214 -0.0073565166 -0.00063322554
000140 19 10 46 3d 41 25 0b 3e 93 e6 c2 bc 09 f5 9c 3d
       0.048355196 0.1358843 -0.023791587 0.07663924
000150 c3 59 30 3d 30 8b f9 bc c5 6f ec bc 9d 1f 27 3b
       0.043054353 -0.030461878 -0.02886189 0.002550102
000160 f6 a5 4a bb b9 b1 9c bd df 07 82 3d 70 a5 ba bd
       -0.0030921674 -0.076510854 0.063491575 -0.09113586
000170 15 a2 61 bc 9a c6 47 bd 3e 76 b1 3d be 9a b3 3a
       -0.0137715535 -0.048773386 0.08665131 0.0013702733
000180 da 1d fc bc fe 55 47 bd 90 b9 92 3d 62 b0 9f 3d
       -0.030775953 -0.048665993 0.071642995 0.07797314
000190 a3 45 30 3d 54 8f 26 3d 47 e6 81 bd 1d aa af bc
       0.04303516 0.040664032 -0.0634275 -0.021443421
0001a0 aa 5f 25 3e d0 61 f8 3a 8e e5 e0 bc 4d 54 ef ba
       0.16149774 0.0018950049 -0.02745321 -0.0018259377
0001b0 d8 d7 a1 3d cf a4 ee bc 15 68 f1 3d 8d 61 51 bc
       0.07902497 -0.029131321 0.1178743 -0.012779606
0001c0 ce 03 bd bc 70 d3 59 bd dc de 9d bc 1a 93 3c 3d
       -0.023073103 -0.05318016 -0.019271307 0.046038724
0001d0 6a 2c cc 3c 95 ec 67 3d 26 f8 56 bd 3b 27 fc 3b
       0.024923522 0.056622107 -0.052482747 0.0076951063
0001e0 10 20 90 3d b2 d1 d6 3c 2d cf 26 3b 74 7f 90 bb
       0.070373654 0.026223037 0.0025453076 -0.004409725
0001f0 23 df 9e bc 8c 27 1f bd 0a 9c 27 3d 10 99 ea bc
       -0.01939351 -0.038856074 0.040920295 -0.028637439
000200 83 14 ab bd f9 8b be 3d af d1 c9 3d 2f 48 8f bd
       -0.08353522 0.093040414 0.09854447 -0.0699619
000210 20 c9 92 bd 20 a3 4e 3c 07 4a 90 bd 10 c2 4b bc
       -0.07167268 0.012612134 -0.070453696 -0.012436405
000220 cc 59 f8 3b 3c f3 51 3d 3c e8 1d 3d de 7c 38 3c
       0.007579064 0.051257357 0.038551554 0.011260239
000230 57 66 9f bc 4c 58 25 bd 83 4c 6d 3d 46 ee 98 bd
       -0.01945798 -0.04036741 0.057934295 -0.07467322
000240 f0 89 78 bd 14 b4 24 3c 27 a7 d9 bc 7b 26 81 3c
       -0.060678422 0.0100527 -0.026568962 0.01576542
000250 91 4e 4c bc d3 88 85 bd be 78 24 3d d6 d3 88 3d
       -0.012469904 -0.06520238 0.04015421 0.066810295
000260 21 37 89 3c 42 aa 89 bd 2d 1f 0f bd 8d 15 44 bd
       0.01674992 -0.06721927 -0.03494184 -0.047872115
000270 2e 02 a0 bd 5e f7 09 bd dc 40 68 bd 81 06 81 b9
       -0.07812916 -0.033683173 -0.05670248 -0.00024609643
000280 b8 7b ef 3c 18 9d 44 3d 5d 7a 9b 3d d9 06 95 bd
       0.029233798 0.04800138 0.07591698 -0.07276697
000290 63 3a 56 bd a1 3e 7e 3d 4d 3c 9e bd 19 1d a7 3c
       -0.052301776 0.062071446 -0.07726345 0.020399617
0002a0 d0 cb 20 3d d6 ac aa bd 78 53 a9 bd aa af 9a 3c
       0.03925687 -0.08333747 -0.082678735 0.018882591
0002b0 45 48 2f 3c 77 e2 a4 bc 45 50 78 bd 6e 73 0f bd
       0.010698383 -0.020127518 -0.060623426 -0.03502219
0002c0 1c 31 8b 3c 01 58 89 bd 03 08 18 3d 94 63 49 3d
       0.01699119 -0.067062385 0.037117016 0.04916723
0002d0 8a 98 72 3d 45 bb d0 3d 5f 66 cb bd 61 fc 7e bc
       0.059227504 0.10191969 -0.09931635 -0.0155631015
0002e0 69 a7 99 bd cc a4 94 3d ce d0 41 3c 0f 1e ba 3d
       -0.07502634 0.07257995 0.011829568 0.090877645
0002f0 91 d8 b7 bd aa 4f 78 3d 54 39 80 bc 8b c5 73 3d
       -0.08976854 0.06062285 -0.015652336 0.059514564
000300 ca b2 28 bc 68 96 8a bc 3f 31 50 3d aa e7 81 bd
       -0.010296533 -0.016917422 0.050828215 -0.063430145
000310 32 4c 24 bd 58 6a 83 bc 3a c9 45 3c 41 68 e3 bc
       -0.040111728 -0.01604192 0.012071902 -0.027759673
000320 a8 da 5e bd 01 ee 48 3d 98 66 3d 3d 27 44 f9 3c
       -0.054407746 0.049055103 0.04624042 0.030428005
000330 b1 1d 71 bd 2e 92 c5 bd 22 4a b7 3c d8 0e 8c 3d
       -0.058866207 -0.09647022 0.022374216 0.06838769
000340 f4 07 c4 3d d5 19 45 bc a0 2c fd bc b0 e9 33 3d
       0.095718294 -0.012030085 -0.030905068 0.043924034
000350 2c de f4 bc 21 4d 56 bd f8 04 a0 bd 60 9e fe bc
       -0.029891096 -0.05231965 -0.07813448 -0.031081378
000360 15 7d 03 bd b1 63 b6 3d 73 35 f6 bc 95 c7 f5 bc
       -0.03210171 0.089057334 -0.030054783 -0.030002395
000370 ef 2e 5a 3d d6 cc 43 bc 31 07 63 bd 2b 39 73 3d
       0.053267416 -0.011950692 -0.05542678 0.05938069
000380 0e ed b8 bc 45 6f 91 3c 08 58 4e 3d 01 91 a1 3c
       -0.022573974 0.017753253 0.050376922 0.019722464
000390 14 36 b5 3d d1 85 c5 3c 22 79 d8 3d 25 8a 50 bd
       0.08848205 0.02411166 0.10569979 -0.050912995
0003a0 bb 51 80 bc ce 9c 77 3d bb dd 45 bd c5 3a ef bc
       -0.015663972 0.060452275 -0.04830716 -0.029202828
0003b0 02 42 4e bd b9 67 be 3c 6c 0e 20 3d 02 c0 29 3d
       -0.05035592 0.023242818 0.039076254 0.04144288
0003c0 65 ae 93 3d a4 32 76 3d 46 d0 87 3d c0 31 42 bd
       0.072109975 0.06010689 0.06631522 -0.047410727
0003d0 43 dd 3e 3d 6b 3f 92 bd d5 c3 15 3d 19 fa 65 3d
       0.04659773 -0.07141002 0.036563713 0.056146715
0003e0 80 2d d6 3d 60 02 d0 3c be 26 70 bd 57 21 17 3d
       0.10457897 0.025391757 -0.058630697 0.03689703
0003f0 fb 52 7e bd cf 57 3c 3d 7a 7d 9d 3d f0 63 4c 3d
       -0.062090855 0.04598218 0.076899484 0.049899995

bias f4 [256]
000000 63 6e 5a 3d fc ba 10 bc 3f e1 44 3d 10 9f 57 bd
       0.05332793 -0.008833643 0.048066374 -0.05264193
000010 42 1a 6e bd be 60 ac 3b 47 09 84 3d 7a 92 66 3d
       -0.05813051 0.005260556 0.06447082 0.056292035
000020 ec 48 ad bd 56 d3 90 39 6f c0 9d bc cb 31 7a 3d
       -0.08461174 0.00027623278 -0.019256799 0.061082643
000030 00 1d 0e bc 60 d1 80 bd 61 77 c0 3c 67 f6 0e bd
       -0.008673906 -0.06289935 0.023494424 -0.034902956
000040 ae 39 1e 3c 94 bf 98 bc 8f 67 18 3d a3 37 2d 3d
       0.009657307 -0.01864604 0.037208136 0.042289387
000050 7f 31 03 3c 28 0c 0f 3d 35 09 34 3d e4 dd 89 3d
       0.008007406 0.034923702 0.043954093 0.067317754
000060 d6 fd 95 3d 45 73 b4 bc 64 9b ac bd 75 89 9e 3d
       0.07323806 -0.022027621 -0.08428076 0.077410616
000070 de 65 a7 bc e7 92 f0 bc 57 4e 6c 3d 08 49 a6 bd
       -0.020434316 -0.029366923 0.0576919 -0.08119398
000080 6c 69 9e bd 8b 79 37 bd 9b 16 80 bd 53 d6 dc bc
       -0.077349514 -0.044793647 -0.06254312 -0.026957667
000090 97 79 8b 3d c1 3d b7 bc ce 70 9e 3c 73 f3 9b bd
       0.06810301 -0.022368314 0.019340899 -0.07614794
0000a0 3f 09 85 bd 42 38 a7 3d 8f 89 22 3c db 09 98 bd
       -0.06495904 0.08165027 0.009920492 -0.07423755
0000b0 62 23 48 3d d5 21 f4 bc ed 25 a4 bc 5e b3 e7 3c
       0.04886187 -0.029801289 -0.020037616 0.028283771
0000c0 44 cc 41 bb 64 ad a7 bd 41 9d 8b 3b 4c 2d 56 3d
       -0.0029571215 -0.081873685 0.0042606895 0.052289292
0000d0 9a e8 4c 3a 93 8e 3a bc 73 5a 54 3d 1b d0 b5 3d
       0.0007816643 -0.011386531 0.05184407 0.088775836
0000e0 84 02 97 3b 44 1e 68 3d 48 b1 3f bc 43 8f 04 3d
       0.004608454 0.05666949 -0.011699982 0.032363188
0000f0 c8 85 57 bc f1 af 5f 3d b4 ce 41 bd bc 85 b3 bd
       -0.0131544545 0.05461115 -0.047316268 -0.08765742
000100 df c8 ae bd fc 25 84 3c cb fe 84 3c 9a 8e 28 ba
       -0.08534407 0.016131394 0.016234776 -0.00064299407
000110 2f 8b 24 3d cd c5 86 3d 98 33 86 3d 08 37 6b bd
       0.0401718 0.06580696 0.065528095 -0.05742553
000120 80 bf 35 bd d3 b7 77 3c 97 64 40 bd 0a 7f a5 3d
       -0.04437208 0.015119511 -0.04697093 0.080808714
000130 2b a2 b4 3c 49 3e 96 3c fd 07 02 bd 61 a2 a2 3d
       0.022049984 0.018340247 -0.0317459 0.079411276
000140 1c ec 06 3d 57 02 f0 bc 45 2c a3 3c 8e 82 1d bd
       0.032940015 -0.02929799 0.01991857 -0.038454585
000150 93 02 aa bd 82 56 e9 bc bf 31 02 3d 05 25 86 bd
       -0.08301272 -0.028483633 0.031785723 -0.0655003
000160 77 e1 27 bd 18 70 ac bd 8a 5f e2 bc c7 94 7c 3c
       -0.040986504 -0.08419818 -0.027633447 0.015416331
000170 4b 6e 82 bd b6 d7 9a 3c b8 76 b0 3d 94 af 3d 3c
       -0.06368693 0.018901687 0.08616394 0.011577506
000180 ce 7c 2b bd c3 03 eb bb fc be b7 3d 19 03 83 bd
       -0.04186707 -0.0071720793 0.08971974 -0.06397075
000190 49 cc 19 bd c4 df 77 bd cb 72 14 bd a5 9e 05 3c
       -0.037548337 -0.060516134 -0.036242288 0.0081555
0001a0 f0 1f 69 bd a6 86 51 bd 9b fa 59 bb 4d 4f 4d 3d
       -0.056915224 -0.0511538 -0.0033260945 0.050124455
0001b0 f8 be 1e 3d 32 d1 10 3d 1d d6 15 bc 19 7b 64 3d
       0.03875634 0.035355754 -0.009145287 0.055781458
0001c0 4b a7 a7 bd a1 65 37 3d 3a 98 2f 3d 03 88 33 3d
       -0.081862055 0.044774655 0.042869784 0.043830883
0001d0 ca ab 8d bd fb 0d 5d 3d c1 59 96 3d 82 ef e2 3c
       -0.06917532 0.05396841 0.07341338 0.027702097
0001e0 07 95 52 bd 12 77 1b 3d 6d 59 83 bd d9 05 62 3d
       -0.051411655 0.03795535 -0.06413541 0.055181358
0001f0 01 02 f7 bc 91 e0 4e bc 70 ae ab bc 4b 91 5b bb
       -0.030152323 -0.012626783 -0.020957202 -0.003350335
000200 9d 6d 5f 3b af 5e 00 bd a7 9d 1d bd 43 57 bc bd
       0.0034092434 -0.031340297 -0.038480427 -0.09196331
000210 e3 0b 71 3d 74 a6 b3 bd b4 54 71 bd 22 1b 00 3d
       0.058849227 -0.08771983 -0.05891867 0.031275876
000220 63 56 33 bc d8 5d 98 3d 32 bc 9d 3c 64 44 c6 bc
       -0.010945889 0.07439774 0.019254778 -0.024202533
000230 6d f1 c8 3c 29 79 95 bd 66 8a 77 ba 83 06 e5 3c
       0.024529183 -0.072985 -0.0009442925 0.027957207
000240 92 3f 8d bd 49 b3 de bc b0 0e 3f bd 4b 0b 13 bd
       -0.06896891 -0.0271851 -0.046644866 -0.03589944
000250 7c ad 16 bd 50 3b a7 3d d6 d4 3f 3d 14 88 9b bd
       -0.03678654 0.0816561 0.046833836 -0.07594314
000260 f7 00 99 bd 7d 07 e8 3c 83 f4 bc 3c e2 20 d2 bc
       -0.07470887 0.028323883 0.023065811 -0.025650445
000270 61 10 79 3d ec ce 88 bc e6 d1 3f bd 1a 40 8d bc
       0.060806636 -0.01670023 -0.046831034 -0.01724248
000280 80 6e 29 3d bb 78 1f 3c 02 b4 d2 3c 02 de 05 bc
       0.041365147 0.009733374 0.0257206 -0.008170607
000290 d9 4a 49 3d a6 b9 59 3d 0f cf 00 bd 7c 32 60 bd
       0.049143646 0.053155564 -0.031447466 -0.054735646
0002a0 84 d1 a1 bb 4b 48 ca 3c 5b d6 e5 bc be e9 a2 3d
       -0.0049383063 0.024692675 -0.028056314 0.07954739
0002b0 7c 0a d3 3a 6d fa 0a bd 67 97 ba bc 7d fe 8e bd
       0.0016101147 -0.03393023 -0.022777272 -0.069821335
0002c0 74 18 56 bd 38 36 6d bd 42 58 e3 bc 75 9e c0 3d
       -0.052269414 -0.057913035 -0.027752046 0.09405223
0002d0 ef b9 ab bd 49 df 63 3d 34 d4 8f bb 97 6a f0 ba
       -0.083850734 0.055632863 -0.0043893103 -0.0018342313
0002e0 48 34 93 3d a8 7e 76 3d 8a c1 9d 3c 62 52 b6 bd
       0.07187706 0.060179383 0.019257326 -0.08902432
0002f0 77 ac a6 3a 62 ee 19 3c 91 22 b1 bd 38 55 20 bd
       0.0012716193 0.009395214 -0.08649171 -0.03914377
000300 1b ee 0d bd 99 5e 94 3c fb 81 3f bd 7b 9d 3d bd
       -0.034650903 0.018111514 -0.04675482 -0.046292763
000310 e4 a6 4d bd 96 96 4a bc af 18 45 bb c2 3b 71 3d
       -0.050207987 -0.012365004 -0.0030074527 0.05889488
000320 30 74 d6 3b ea 68 fa 3b 8f bf b7 3b 38 e7 2d bd
       0.0065446123 0.0076419013 0.0056075524 -0.042456836
000330 2d 19 a0 3c a3 1b a1 3d c4 12 88 bb 22 eb 84 3d
       0.019543255 0.078665994 -0.0041526277 0.064901605
000340 fc 70 ae bd b1 a8 23 bd 83 0d 08 3c 97 9f 9d 3d
       -0.08517644 -0.0399558 0.008304003 0.07696455
000350 4a ce 01 bd a6 cc 2b 3c 51 02 48 3b 8f fb 1a 3d
       -0.031690873 0.010485804 0.0030518959 0.03783756
000360 48 be 2c bd 01 ae 66 bd bd 4a fa 3c 30 b6 db 3c
       -0.042173654 -0.056318287 0.030553216 0.026820272
000370 7b ea 5a bc 13 3c 59 3c 54 b8 9f bd 0f 1f 24 bd
       -0.013361569 0.013258952 -0.0779883 -0.040068682
000380 5e e2 58 bd 26 7d 5c 3c a1 5c f2 bc b0 e0 35 bd
       -0.052950256 0.013457572 -0.029585185 -0.04440373
000390 f3 4c a1 3b 4a 9a 69 3c d1 43 2d 3d 09 58 2d 3d
       0.004922503 0.014257977 0.042301003 0.042320285
0003a0 29 8f 7f bc 1b eb 91 bc 25 44 90 3d 6d d2 f7 3c
       -0.015598097 -0.017812302 0.070442475 0.030251706
0003b0 61 2b b5 bc c0 08 32 bd 9e 05 13 bd e1 c8 e2 bb
       -0.022115411 -0.043465376 -0.03589403 -0.0069209193
0003c0 06 f7 97 3d 47 8b c7 3b 3e 87 f1 3b 30 3b 9b 3d
       0.07420163 0.006089601 0.0073708585 0.075796485
0003d0 22 76 d8 bc 0a 06 47 3b 20 8b 1e bd 9a 6b 08 3d
       -0.026423518 0.003036859 -0.0387069 0.03330574
0003e0 db f5 22 bd d2 33 6c bd e6 b0 8d bd 97 f9 8f 3d
       -0.039785247 -0.057666607 -0.06918506 0.07030027
0003f0 83 e6 b3 3d fe ec be bc 56 d8 3c 3d 13 e3 e6 bc
       0.08784201 -0.023306366 0.04610475 -0.02818445

weight f4 [256, 256]
000000 40 e8 24 3b a8 80 ae bc 15 02 99 3a 7a 19 3b bd
       0.0025162846 -0.021301582 0.0011673594 -0.045678593
000010 23 89 f4 3c c2 f1 d2 3c 4e fa 75 3d c1 62 4e bd
       0.029850548 0.025750045 0.060053162 -0.050387148
000020 e3 01 07 bc cd 0b 38 3d 67 89 00 bd 81 27 28 bd
       -0.008240196 0.04493313 -0.031381037 -0.0410533
000030 c6 11 ab 3d 31 29 55 bd c8 ea b2 39 49 e6 a0 3d
       0.083529994 -0.052041236 0.0003412573 0.078564234
000040 f9 f7 49 3c 05 af b8 3c 38 38 67 3c 78 bc f7 bc
       0.012327188 0.022544393 0.014112525 -0.030241236
000050 a5 94 ee 3c ae fd 1d bd 16 17 10 3d b0 b0 60 3c
       0.029123614 -0.038572006 0.035178266 0.013714001
000060 a3 92 32 3c ad e5 00 3c 68 7b 1c bc 8d b8 16 3d
       0.010899219 0.007867259 -0.009550907 0.036797095
000070 f7 92 3b bd c4 4f ff 3c 51 ac 19 3d e3 7c 71 3c
       -0.045794453 0.031165965 0.03751785 0.014739248
000080 5e f1 0b 3d 94 dc 20 bd e0 23 6f 3d 7f 61 44 3c
       0.034165733 -0.03927286 0.058383822 0.0119861355
000090 81 a7 8c 3d de db 94 b9 cb 73 a3 bc f9 56 27 bb
       0.06867886 -0.00028392574 -0.019952675 -0.0025534017
0000a0 5f 0d 51 bd a7 e0 1e 3d 8b 91 75 bc f4 0e c6 3c
       -0.051038142 0.038788464 -0.014988313 0.024177052
0000b0 85 1a 0d bd 9d 08 85 3d 6e 98 81 3c 1e 12 4d bd
       -0.03444912 0.064957835 0.015819754 -0.050066106
0000c0 40 bd f6 bc 8f 8e e7 3c 56 46 4a 3d 85 47 6e bd
       -0.030119538 0.02826622 0.049383484 -0.058173675
0000d0 bd be 39 bd 45 5d 85 bd 5b 5b c0 b9 04 57 c1 bc
       -0.045347918 -0.065119304 -0.0003668916 -0.023601063
0000e0 e0 dc 8e 3c 2f a4 10 3d bc f7 47 3c 3c 47 0a bd
       0.017439306 0.035312828 0.012205061 -0.03375934
0000f0 27 9d 66 bd 62 64 b1 bd 50 33 db 3c 7e 52 57 3d
       -0.056302216 -0.086617246 0.026757866 0.052568905
000100 c2 00 70 3d e2 d1 a1 3c e9 ec 12 3a 74 3d 99 3d
       0.058594473 0.0197534 0.00056047604 0.074824244
000110 a5 c8 63 bd 96 fa 5d bd 10 66 0b bd b0 54 40 3c
       -0.05561127 -0.054194055 -0.03403288 0.011738941
000120 c5 c9 62 bc 92 b6 6e bc 3a 8a 17 3d b9 f2 8c bd
       -0.013842051 -0.014569895 0.036997057 -0.06882233
000130 e8 a4 10 bd 94 62 95 bd 23 aa 7a bc 01 2f 52 bd
       -0.035313517 -0.07294193 -0.015299353 -0.051314358
000140 0f 6a 50 bb 14 e8 a2 bb b2 bb 90 bc c4 78 de 3b
       -0.0031801497 -0.0049715135 -0.017667625 0.0067892987
000150 1a 25 94 3c c9 e4 9f bb a8 a5 a5 3c e6 ca 85 bc
       0.018084098 -0.0048795682 0.020220593 -0.016332101
000160 e4 c1 a7 bd 0e 14 d6 bc ef 7a 63 bc 8b 18 39 3d
       -0.081912786 -0.02613261 -0.01388429 0.04518942
000170 01 7b 89 3d a0 e9 57 3d 3f 13 66 bc ee cd 28 bd
       0.06712914 0.052713037 -0.014042675 -0.041212015
000180 b5 df f8 bc db 98 e0 bb 4b 44 e9 bc 8b 6e b0 bc
       -0.03038011 -0.0068541593 -0.028474947 -0.021537086
000190 65 99 12 bd a9 9e 12 bb 62 b2 88 bc e3 c2 81 3d
       -0.03579082 -0.00223724 -0.016686622 0.06336
0001a0 30 fe ce bc 09 f2 25 bc 8a c2 34 bd b1 b9 19 bc
       -0.02526769 -0.010128506 -0.04413084 -0.009382651
0001b0 6f cf 12 bd 03 20 40 bd b3 77 37 bd c4 0f ed bc
       -0.035842355 -0.04690553 -0.04479189 -0.028938182
0001c0 c6 be f0 bc 1d c6 a9 bc 7b 3e f1 3c 98 de 52 bc
       -0.029387843 -0.02072435 0.029448738 -0.012870453
0001d0 a8 9c 33 bc 1f 29 9c bb d0 74 86 3c f8 2e a5 bd
       -0.010962643 -0.004765644 0.016413122 -0.08065599
0001e0 a0 ad fd 3c ca dd dd bc 20 d4 ab bb c0 41 e6 3c
       0.03096658 -0.027083296 -0.005243793 0.028107524
0001f0 9b bb 4c 3d a4 a9 0a bd 66 62 6d bd 15 c2 84 3d
       0.049983602 -0.03385319 -0.05795517 0.06482331
000200 fe 74 e6 bc bc 53 3e 3d a2 60 99 bd f4 05 95 3c
       -0.028131958 0.046466574 -0.07489134 0.018191315
000210 87 94 b8 bc f7 8e ca bc ba 24 40 3d 3a cd 0f bd
       -0.02253176 -0.024726374 0.046910025 -0.03510783
000220 11 46 a1 3c ef 70 04 3d 06 df bb bc ba 86 9e 3c
       0.01968673 0.032334264 -0.022933494 0.019351352
000230 ac 85 d1 3c 59 14 63 3d 36 7a 9a 3c f7 ee f6 bc
       0.025576435 0.055439327 0.018857103 -0.030143244
000240 5c 1d cf bc 82 cb 36 bc d2 36 49 3d d3 da b6 3b
       -0.025282554 -0.0111569185 0.049124546 0.005580285
000250 ea 6e 61 3b 68 f0 81 bd 26 37 e6 3b 97 b1 ad 3d
       0.0034398385 -0.06344682 0.007025617 0.08481138
000260 99 9c 8c bd b0 46 68 bd e4 d4 8d 3c 89 38 1e bd
       -0.06865806 -0.056708038 0.017313428 -0.038628135
000270 cb b4 8c bd d9 95 94 3d 15 fb d0 3c 6b 3b 3d 3d
       -0.06870421 0.07255144 0.02551035 0.046199244
000280 6d ec 02 bd ed 40 aa bc 13 37 9e bd 91 6b e2 bc
       -0.031963754 -0.020782912 -0.07725348 -0.027639182
000290 c9 79 93 3d d8 53 62 bd 78 9f 2b bc d8 bf 6f 3d
       0.07200963 -0.05525574 -0.010475032 0.058532566
0002a0 2f f6 9e 3c f8 ab 26 bd d4 11 0f bd 72 28 78 bc
       0.019404499 -0.040691346 -0.03492911 -0.015146362
0002b0 e3 4f 32 3d 0a 47 38 bc 7f 3a f5 3c 80 2b 10 3d
       0.043533217 -0.011247406 0.02993512 0.035197735
0002c0 33 19 4a 3d 00 3d e0 bc 02 b1 89 3d b5 19 be bc
       0.049340438 -0.027372837 0.06723215 -0.023205617
0002d0 6f 4d 74 3c 5c cb db 3c 75 f1 71 bd bf 04 8a 3c
       0.01491104 0.026830368 -0.059068162 0.016847966
0002e0 8e 23 16 bd 2b 73 48 3c ad 0a 4f 3d 4d 67 0e 3d
       -0.036655 0.012234489 0.05054729 0.034766484
0002f0 4b 0d 22 3d e2 b1 57 bd 76 c5 a2 bc 98 4a a7 bc
       0.03956346 -0.052659877 -0.019869547 -0.020421311
000300 b3 c9 72 bc 66 17 65 bd 26 b5 fa bc 13 4c 6c bc
       -0.014818597 -0.055930518 -0.030603956 -0.014422434
000310 db 7c 5a bd ba d0 17 bd d9 e8 45 3d e7 14 68 bd
       -0.053341728 -0.03706429 0.048317764 -0.05666056
000320 a7 fa 73 3c 8f 19 ef 3c e0 4b 6e 3d 05 dd 01 bd
       0.014891303 0.029186992 0.05817783 -0.03170492
000330 65 3a a8 3c 8e 99 5d bd 08 e3 29 bd bb d1 b0 bc
       0.020535657 -0.05410152 -0.04147628 -0.021584382
000340 dc 02 37 bc aa 91 1e bd b4 54 8a bd 78 e0 af 3c
       -0.011170115 -0.038713135 -0.06754437 0.02146934
000350 0e 24 32 bb 01 54 1b bd 9d 69 c8 b8 a1 e2 7d bd
       -0.0027182135 -0.03792191 -9.556415e-05 -0.06198371
000360 d7 dc e8 3c 89 e9 77 bd a9 b2 bd 3c bb c5 8a bc
       0.028425617 -0.06052545 0.02315648 -0.016939988
000370 7b 11 e0 3a 66 01 45 bd 1a 7c 22 bc 48 77 c9 3c
       0.0017095053 -0.048097037 -0.009917283 0.02459301
000380 10 7a 5a bc 07 2f db bc 01 82 b0 3c 72 79 b8 3b
       -0.013334766 -0.026755823 0.021546366 0.005629712
000390 fc 97 49 bb d9 c4 a7 3c 1a 61 e1 3c 9a 70 85 bd
       -0.0030760756 0.020479606 0.027512122 -0.06515618
0003a0 10 b2 c5 3b 00 05 2e bd e8 09 2c 3c ac c1 24 bd
       0.0060331896 -0.042485237 0.010500409 -0.040223762
0003b0 d5 60 de bb 62 80 a7 bb 26 d1 a4 b9 e9 aa 61 3d
       -0.0067864456 -0.00511174 -0.00031436345 0.055094633
0003c0 24 ba 8b bc d5 32 f8 bc 64 0a a6 bd 9f 51 59 bd
       -0.017056532 -0.030297676 -0.081074506 -0.053056356
0003d0 f1 91 4d 3d f1 46 a9 3d df 0e ba 3c df f4 b3 bc
       0.05018801 0.08265484 0.02271217 -0.02196735
0003e0 94 0c 37 3d 82 4f ab bc 7f 7d 6e 3c 31 c9 bd bb
       0.04468973 -0.020911936 0.014556288 -0.005791806
0003f0 d6 bb a6 bd 7c ff 9b bc 7b 59 30 3d b5 69 60 3d
       -0.081412956 -0.019042723 0.043054085 0.05478831

bias f4 [256]
000000 c8 af 28 3d 5e 9e a8 bc 95 d1 7d 3d 47 e5 06 3d
       0.041183263 -0.020583328 0.06196745 0.0329335
000010 c7 b2 39 3d a5 97 95 bc 2f 38 46 bd 4b 66 b2 bc
       0.04533651 -0.018260786 -0.048393425 -0.021777293
000020 b6 2e 2a bd bd 1b ad bc 75 eb 11 3c b0 15 8f bc
       -0.041548453 -0.02113139 0.008906235 -0.017466396
000030 b5 36 d2 bc ef 82 28 3d d7 91 cd 3b b7 2b 7a 3d
       -0.025660852 0.041140493 0.006273489 0.061076846
000040 89 b6 b4 bc f7 e5 24 bd 53 5b 00 bd c1 ee 70 3c
       -0.022059696 -0.040258374 -0.031337094 0.014705361
000050 23 05 87 3c 72 7c 64 bd 91 3d 79 bd a6 7b 3a 3d
       0.016481942 -0.055782743 -0.06084973 0.045528077
000060 a8 04 50 3d 58 fb b2 bb d8 6a 2b bc 50 df 89 bd
       0.05078569 -0.0054620914 -0.010462485 -0.067320466
000070 70 90 6a 3d b2 59 54 bd f7 b9 38 bd e6 66 2a 3d
       0.057266653 -0.051843353 -0.045099225 0.041602038
000080 c4 1d 49 bd d9 98 55 bc ff 3d fd bc d9 37 81 bd
       -0.049100652 -0.01303693 -0.030913351 -0.0630948
000090 6e 8e 4c bd 20 ed 94 b9 31 fa 12 bd 9d 4e 8c bc
       -0.04994052 -0.00028405432 -0.035883132 -0.01712733
0000a0 39 32 7d 3d d0 5e 30 bd 10 41 8d bd 8f 98 29 bb
       0.061815474 -0.04305917 -0.06897175 -0.0025878286
0000b0 1a 8f cf 3c 23 53 86 bd 94 50 57 3d 5b ad 61 bd
       0.02533679 -0.06558826 0.05256708 -0.055096965
0000c0 bb f8 24 3c ed 70 b3 3c 06 48 02 3d 1d 72 69 bd
       0.010069068 0.021904433 0.03180697 -0.056993593
0000d0 60 ce 02 3d ff 53 85 3d 3a 8c 53 3d e6 2c d2 bc
       0.031935096 0.065101616 0.051647402 -0.025656175
0000e0 85 bc a1 bb fa fe ec bc 67 f4 60 bc a6 16 d8 3c
       -0.0049358034 -0.028930176 -0.013730145 0.026377987
0000f0 c2 c3 e1 3b 77 93 61 3d 9d 48 df 3c ed ca 42 3d
       0.006889791 0.055072274 0.027256304 0.047556806
000100 e3 ae 40 bd 37 8d 00 bb 17 16 10 3d bb aa a9 3b
       -0.047041785 -0.001961542 0.035177317 0.0051778234
000110 76 42 a6 bb 2f 0e 30 bd 04 54 1a 3d 3f fa e4 bb
       -0.0050738407 -0.042982277 0.03767778 -0.0069878395
000120 94 95 05 bd fe c8 6f 3d ba f3 6a 3c 54 77 0a 3d
       -0.032613352 0.05854129 0.0143403355 0.033805206
000130 58 bd 53 bc ce d9 4b 3d 2b 3c 92 3a 05 29 0d 3d
       -0.012923561 0.04976826 0.0011156847 0.034462947
000140 d6 31 3f 3c a5 86 8d 3c 7f ab 56 bd a4 13 03 3d
       0.011669597 0.017276118 -0.052409645 0.032001153
000150 0b 69 2f 3d 26 90 fa 3c da 61 8f bd ab d5 28 bd
       0.042824786 0.030586313 -0.070010856 -0.041219395
000160 cb 09 9c bb 97 c8 82 bd 47 5f 39 bd 07 7b c4 3c
       -0.0047619096 -0.06385916 -0.04525688 0.023984445
000170 31 cc 19 bd 11 d4 3c bd 4b 35 03 3d d2 18 c5 3b
       -0.037548248 -0.04610068 0.032033246 0.0060149217
000180 66 91 50 bc ad e8 7d bc 80 e6 1f bd 9b d7 52 3b
       -0.012729978 -0.015497369 -0.03903818 0.0032171968
000190 65 9d 06 3d 39 00 28 3d c6 db fb 3b ae 55 0a bd
       0.032864947 0.041015837 0.007686111 -0.033773117
0001a0 ee 00 0d 3d d2 fd 13 bd 30 29 17 bd 65 30 41 3d
       0.034424715 -0.036130734 -0.036904514 0.047165293
0001b0 fc 01 66 3d 88 88 08 3d 96 b6 3d 3d c2 fa dc bc
       0.056154236 0.03333333 0.046316706 -0.02697504
0001c0 46 4d 4c 3d e0 fb b8 36 cb 13 29 3d 3b 39 81 bc
       0.04987838 5.5129494e-06 0.04127864 -0.01577436
0001d0 b3 37 af bc 58 14 53 3d 51 a1 3a 3d e0 5b 97 bb
       -0.021388864 0.051533073 0.045564 -0.0046191067
0001e0 09 a5 2e bc ca 91 6f bb ca 9a 83 bd 10 f3 1c bd
       -0.010659465 -0.0036555403 -0.06426008 -0.03831774
0001f0 6a 81 04 bd 23 ea f6 bc a4 11 fe bc 1e b5 6f 3d
       -0.03234998 -0.030140942 -0.031014271 0.058522336
000200 46 06 a3 3c 19 1d 0f 3c 20 1d 3b 3d 4c bb fa bc
       0.019900452 0.008734965 0.045682073 -0.030606888
000210 b6 74 e2 3c 0f 55 92 bc 82 62 83 3d a8 24 8b bd
       0.027643543 -0.017862825 0.06415273 -0.06794101
000220 d0 9e 55 bc 0c c5 ee bc c0 47 be bc cc 8f 08 3b
       -0.013038352 -0.029146694 -0.023227572 0.0020837663
000230 43 45 76 3d 86 e2 b3 3c 20 34 46 3b c8 cc 86 bd
       0.060124647 0.0219586 0.0030243471 -0.06582028
000240 3c 1a 50 3d c9 69 93 3c 47 1c 83 3d c7 f5 d2 bb
       0.05080627 0.017994778 0.06401878 -0.0064379903
000250 92 2b d3 bb 6f bd 48 bd 08 16 c8 3c ba 87 f1 bb
       -0.006444403 -0.049008783 0.024424568 -0.007370916
000260 05 26 2b bd 05 c2 52 bc cf dc da bc 35 68 8f bc
       -0.041784305 -0.012863641 -0.026716618 -0.017505744
000270 a6 d5 a4 bb cf 41 a2 bc d0 97 8a 3d d8 a0 56 bd
       -0.0050303517 -0.01980677 0.06767237 -0.052399486
000280 d0 2a 13 3d 45 80 48 bd aa 89 01 bd 8f 2d 10 bd
       0.0359295 -0.048950452 -0.031625427 -0.035199698
000290 d6 cc 4b bd 2e d1 72 bc 31 42 34 bd ef ae 95 bc
       -0.049755894 -0.01482038 -0.044008438 -0.018271891
0002a0 2b 65 07 bd 3a 3f 41 bc 24 5f fc 3c d1 5f 4c 3d
       -0.033055466 -0.01179486 0.030807085 0.049896065
0002b0 bb 9c 31 3c 5e 54 16 bd e8 81 5a 3d 6c 59 da b9
       0.01084059 -0.036701553 0.053346545 -0.00041646825
0002c0 df e3 30 3d 83 08 0e bd 5e de 23 3d 2f 30 20 bd
       0.043186065 -0.034676086 0.040006988 -0.03910845
0002d0 15 e0 2b 3d ab 58 2f 3c 3e 14 70 bd fc fe 0a bd
       0.04196175 0.010702292 -0.058613054 -0.03393458
0002e0 44 72 34 bd f5 98 5a 3d c0 d7 e0 b9 d0 39 f4 bb
       -0.044054285 0.053368527 -0.00042885356 -0.007453181
0002f0 03 ab e5 3c 5f 01 f5 bb fc 2d 6d bd d0 4c 1a bd
       0.028035646 -0.00747697 -0.057905182 -0.03767091
000300 47 15 f0 bc b8 74 5b bd e0 d8 8b 3c 32 a2 2e bc
       -0.02930702 -0.05357811 0.017071187 -0.010658788
000310 ec a0 52 3d 25 1a 62 3d 45 81 3b bd 9c 45 3d bd
       0.051423 0.055200715 -0.045777578 -0.046208963
000320 f6 80 00 3d fd 4f ba 3c cf 18 83 bd 04 34 0e 3d
       0.031372987 0.02274322 -0.06401216 0.034717575
000330 2f 29 66 bd d7 05 f0 3a 24 89 b7 bb ca 8e 97 3c
       -0.05619162 0.0018312287 -0.0056010652 0.018500704
000340 1d 63 4f bd 70 68 22 3d eb a0 55 3d 59 7b ed 3c
       -0.05063163 0.03965038 0.052155416 0.02898948
000350 f4 99 90 bd 72 0c 8d bd af b3 03 3d a4 4e 4d bd
       -0.07060614 -0.068871394 0.03215378 -0.050123826
000360 db 37 a2 bc ad f4 8c bd 01 49 ca bc 57 93 6a 3d
       -0.019802025 -0.06882606 -0.024693014 0.05726942
000370 6a 6c f0 3c 6f e1 e7 3b 50 41 a8 b8 e8 4e b1 3b
       0.02934857 0.0070764343 -8.02303e-05 0.0054110177
000380 17 ae 6a bd 9b 3d 8c 3d 76 c6 86 3d 39 1f 83 3d
       -0.05729493 0.06847688 0.06580822 0.064024396
000390 1b 30 7e 3c eb e4 59 bb b3 6c 9c bc f1 05 1e bd
       0.015514399 -0.0033248018 -0.0190948 -0.038579885
0003a0 c3 8a 14 bd ca 11 c3 3c 53 23 7a 3d 3a c0 38 bd
       -0.036265146 0.023812193 0.061068844 -0.045105197
0003b0 3c ff 57 bb 1c 9e 42 bd 15 a4 c8 bc 7b c3 63 3c
       -0.0032958528 -0.047514066 -0.024492303 0.013901587
0003c0 b5 dd ff bc 6f 95 57 bc e0 6e 72 3b ec 5e c7 bc
       -0.031233648 -0.013158186 0.0036992356 -0.024337254
0003d0 29 1b 79 3d 61 59 2e bc 99 a1 c9 3c ce 6e 4b bb
       0.060816918 -0.010641427 0.024613189 -0.0031041387
0003e0 22 2a 87 bc 40 39 bc 3c 56 66 3c bd d3 09 69 bc
       -0.016499583 0.022976518 -0.045996033 -0.014223534
0003f0 54 10 41 3d 59 fe 00 3d 91 6a 52 bd 98 dd 18 bd
       0.047134712 0.031492565 -0.05137116 -0.037320703

weight f4 [256, 256]
000000 ae e4 46 3d 5e 5c 92 bc b8 67 96 bc 1d fb 21 bd
       0.04855793 -0.01786631 -0.018360004 -0.03954612
000010 06 94 14 3d a1 c1 95 bc 3e c6 58 bc 74 a1 13 bc
       0.03627398 -0.018280806 -0.013230858 -0.009010661
000020 a1 16 60 bd 28 31 17 bd 69 e2 01 bd 2c ce 30 3d
       -0.05470908 -0.036912113 -0.031710062 0.04316537
000030 6e 51 9c bd 29 d7 f6 3c db 41 81 3d db 3f ec 3c
       -0.07632719 0.030131893 0.06311389 0.028839042
000040 58 33 1f 3d 3c 6f 96 3d b9 20 fa 3c 2f 93 63 3c
       0.038867325 0.07345435 0.030533182 0.013890072
000050 f4 9e e5 3c 11 78 96 bc 39 23 d1 bc 53 3d 78 3d
       0.028029896 -0.018367799 -0.02552949 0.06060536
000060 b5 83 55 3d 5d 5a 65 3d 74 de e7 bb cf 87 5f 3c
       0.05212756 0.05599438 -0.007076079 0.013643219
000070 db 2a f8 3c d9 ce 75 3d 35 4f 00 3d da 2e 89 bd
       0.030293873 0.06001172 0.031325538 -0.06698389
000080 0e 1e 1e 3c b9 9f 01 bd 26 50 11 3d 5e cc 98 3d
       0.00965072 -0.031646464 0.035476826 0.07460855
000090 e2 6f 17 bd 39 33 09 bd 33 d6 36 3c 74 b2 3b bc
       -0.036971934 -0.033496115 0.0111594675 -0.011456121
0000a0 d5 c1 c6 bb 8d 67 4f bd de 27 f5 bc 0e 1c 80 bd
       -0.006065587 -0.050635863 -0.029926237 -0.06255351
0000b0 31 90 9a bd fc d1 fb bc 30 b8 78 bd 5f 80 98 3c
       -0.075470336 -0.030739777 -0.06072253 0.0186159
0000c0 a3 19 4e bd d4 07 3d bd f0 32 ce bc ae 6c 90 3d
       -0.050317418 -0.046150044 -0.025170773 0.07051979
0000d0 9e 92 4c bd 5c b0 ed 3c a6 7b 5b bd c3 aa 02 3c
       -0.049944513 0.029014759 -0.053584717 0.007975283
0000e0 60 b2 82 bd fd 83 8a 3c 83 54 92 bd a7 8c 57 bd
       -0.063816786 0.01690864 -0.071450256 -0.05262437
0000f0 10 30 81 3d 20 51 e7 3b 65 de 95 3d a5 a2 95 bc
       0.06307995 0.0070592314 0.07317809 -0.018266032
000100 1e 9f fd bc 33 c7 39 bd 32 56 0f bd 55 68 b5 bc
       -0.030959662 -0.045355987 -0.03499431 -0.022144476
000110 c5 26 56 bd 41 73 ae bc eb 4c 89 bd ac 44 8b bc
       -0.052283067 -0.021295192 -0.06704124 -0.017000519
000120 72 dd 63 bd c0 80 f0 bc 3e 0d af 3b ca cf 34 3d
       -0.05563111 -0.029358268 0.0053421548 0.044143476
000130 b2 20 2f 3c a5 8b aa bc 5e 11 ce bc e1 10 10 3d
       0.0106889475 -0.02081854 -0.025154766 0.035172347
000140 4b ca f1 3c e7 4a 90 3d c0 ff 12 3d 1f 60 48 bd
       0.029515406 0.070455365 0.035888433 -0.048919793
000150 cb 84 5f bd 6d 54 75 3d 38 03 d5 3b 15 c5 97 bd
       -0.05457 0.059894968 0.006500628 -0.07410637
000160 4d 79 15 3d 89 e0 5e 3d f2 e7 d0 bc 79 ff 96 bd
       0.036492635 0.054413352 -0.025501225 -0.07372946
000170 11 1d 4f 3d fa c3 af 3d f5 23 b3 3c 75 c1 bc 3c
       0.05056483 0.085823014 0.021867732 0.023041466
000180 3c 7b 96 bd 3c 19 4f bc 07 e5 f6 bc 44 9a 82 bd
       -0.07347724 -0.012640294 -0.030138506 -0.0637708
000190 80 0e 3a bc 70 64 d9 bc 51 e3 66 3c 17 30 2b 3d
       -0.011355996 -0.02653715 0.014092282 0.04179391
0001a0 ec 93 7e 3d 7a a3 aa 3d 3b 23 d7 3c 0d 24 91 bd
       0.062152788 0.08331962 0.026261916 -0.07086954
0001b0 2a ec 88 3c 24 55 e0 bc 5c bc e3 3c f8 ed 78 3d
       0.016714174 -0.027384348 0.027799778 0.06077382
0001c0 87 fe 05 3d 76 bd 07 3c 7b 85 e5 bc 86 38 11 bd
       0.03271344 0.008284917 -0.02801775 -0.035454296
0001d0 4c 21 0e 3d 2c e5 e7 bb 7a 50 2e 3d 35 72 9b 3d
       0.034699723 -0.00707688 0.042557217 0.07590143
0001e0 08 14 bf 3c 09 8c c8 bc d3 fb 27 3d c8 28 94 3d
       0.023324981 -0.024480836 0.041011643 0.07234341
0001f0 dd bc 97 3d 35 04 f3 3c e4 44 79 3c 0e 17 f2 bc
       0.0740907 0.029665092 0.015214179 -0.029552009
000200 a0 e0 02 bc 2a 56 06 bc fe 83 b2 3c 76 1a 80 bd
       -0.007988125 -0.008199254 0.021791454 -0.06255047
000210 83 68 6e bd e3 c5 f5 bc 36 11 65 3c e7 1e 76 3d
       -0.05820514 -0.030001586 0.013981154 0.060088065
000220 37 71 84 3d 92 0b 16 3d be c4 c1 bc b9 87 07 3d
       0.064669065 0.036632128 -0.023653384 0.03308842
000230 ac 28 df 3c 0e b0 af bc 08 46 f8 ba 02 8b 0a 3c
       0.027241074 -0.021446254 -0.0018941769 0.008455994
000240 6e bb 09 3d 36 4a f6 bc 30 0f 44 3d 57 0b f4 3c
       0.033626013 -0.030064683 0.047866046 0.029790564
000250 4a 58 59 bd 47 82 c4 bc 4b b0 51 3a bb 3a 02 bd
       -0.053062715 -0.023987902 0.0007998987 -0.03179429
000260 71 2b 55 bd 78 e0 31 bd 03 c4 a0 bd 82 a5 9b 3c
       -0.052043382 -0.04342696 -0.07849886 0.018999819
000270 08 ed 95 bc f2 d6 96 bd e1 cc 90 bd 3c f2 e7 3c
       -0.018301502 -0.07365216 -0.070703276 0.028313749
000280 78 67 92 bb 98 47 30 3c 30 38 99 bd 56 1c 97 bc
       -0.004467901 0.010759257 -0.0748142 -0.018446129
000290 d3 ca fb 3c b7 8f ac bc a4 79 2a 3c 36 79 02 bd
       0.030736363 -0.021064622 0.010404978 -0.031853877
0002a0 c6 6b aa bc 54 7f 8e bc f1 a7 82 bc b2 ce 90 3c
       -0.020803344 -0.0173947 -0.015949221 0.017676685
0002b0 1b 6d a8 3c 13 51 78 bd 11 a7 b3 bb 05 3b 33 3d
       0.020559838 -0.060624193 -0.0054825624 0.043757457
0002c0 e1 47 22 3d 02 53 01 bd 6e dd 30 3d c6 29 c0 bc
       0.03961933 -0.031573303 0.04317992 -0.02345742
0002d0 1d dd 07 bd 2f 7d 9b bc 10 1c 47 3d a1 17 1f 3d
       -0.033169854 -0.01898059 0.048610747 0.038840894
0002e0 34 4f 52 3d aa 1d 6d 3d 47 0b a4 bc 87 08 c9 3c
       0.051345065 0.057889618 -0.020024909 0.024540199
0002f0 ea ca 51 3c 31 e5 1d 3d 2f ad 61 3d 30 15 86 3d
       0.012804726 0.038548652 0.0550968 0.0654701
000300 cf 8e c7 bc f0 14 fd bb 77 18 32 bb a8 46 ab bc
       -0.024360089 -0.007723443 -0.0027175227 -0.020907715
000310 71 ec 3b 3c c1 88 7c 3d 2d 06 76 3d 6e 6f f3 bc
       0.011469946 0.061653856 0.060064483 -0.02971622
000320 16 01 7f 3d 5f 72 85 bc fc 64 2b 3c ea e5 92 bc
       0.062256895 -0.016289888 0.010461088 -0.017931897
000330 4b 9d b2 ba 27 93 91 bc 05 34 2e 3d fb b8 08 3d
       -0.0013627199 -0.017770363 0.04253008 0.033379536
000340 33 e2 3e bd 06 7b 21 3d 9f b6 d8 bc f3 19 12 3c
       -0.04660244 0.039423965 -0.026454268 0.00891732
000350 bf 87 92 3c a4 e1 14 bc 84 58 bc 3c 1e a4 a9 bd
       0.017886994 -0.009087 0.022991426 -0.08283256
000360 82 b7 67 3c c4 3a 7e 3d 1e c9 8e 3d 93 13 0e 3d
       0.014142873 0.062067762 0.06971954 0.034686636
000370 67 ca 5f bd 3a 21 34 bd 2c d4 aa 3c 6a fc 4c 3c
       -0.054636385 -0.043977 0.020853125 0.012511352
000380 b7 6e 9f 3a ff ea 48 bd c3 32 de 3c 72 1c cd 3c
       0.0012163733 -0.049052235 0.027123814 0.025037978
000390 9e 75 c9 bc cf 04 5b 3d 27 ca f4 bc 4e b8 20 bd
       -0.024592217 0.053471383 -0.02988155 -0.039238267
0003a0 85 a2 0a 3c f9 bb 84 bd 2f 49 0b 3d 3f e3 6b 3b
       0.008461599 -0.064811654 0.03400534 0.0035993604
0003b0 a8 eb 5c 3c 7f ef 48 3d 10 c5 a0 3d b7 a9 46 bd
       0.013483919 0.049056526 0.07850087 -0.048501696
0003c0 9d 89 4c 3d da 9c ac bc 43 36 22 3d e4 89 d8 bb
       0.049935926 -0.021070886 0.03960253 -0.0066082347
0003d0 cc e6 9e 3b 7f 78 53 bd fd 03 85 bd c4 99 2d bd
       0.0048492905 -0.051628586 -0.06494901 -0.04238297
0003e0 dd a1 13 3c da 19 94 3d 69 c2 5e 3d 67 eb 2c bd
       0.009010759 0.07231493 0.054384623 -0.042216685
0003f0 2f d6 a0 3d c4 c6 f3 3c 64 21 25 bb 5f 54 2b bd
       0.07853352 0.029757865 -0.0025196904 -0.04182851

bias f4 [256]
000000 f5 1c 70 bd 67 97 20 3d f0 6b 17 3d 00 4c 20 bd
       -0.058621366 0.03920689 0.03696817 -0.03913498
000010 ad c1 32 3d 36 af 5f bd 37 1a 0a 3d 6f 39 91 bc
       0.043641735 -0.054610454 0.033716407 -0.017727582
000020 30 87 56 bd e6 40 75 bd 84 76 19 3d 96 f3 2c bd
       -0.05237502 -0.059876345 0.03746654 -0.04222449
000030 32 35 67 3d 80 d5 86 bd 28 7d 0a 3d 08 e8 ef bc
       0.056447215 -0.06583691 0.033810765 -0.029285446
000040 88 ae 8b bd 55 25 eb 3c b8 20 91 bd b1 d0 82 3d
       -0.068203986 0.028704325 -0.07086319 0.06387461
000050 bf 9a f9 3c f6 3b 2a 3d c7 05 12 bd f9 30 05 3d
       0.030469297 0.04156109 -0.03565004 0.032517407
000060 2c bd 35 3d 9a c9 89 3d 69 77 8d bd 24 eb 32 bc
       0.04436986 0.067279056 -0.06907541 -0.01092032
000070 1b 51 45 3d bd 0c 11 bd ee 80 64 3c 1a 59 0e 3d
       0.04817305 -0.03541254 0.013946755 0.034752943
000080 47 ca 84 bd 89 5b 4c bd 4b 35 56 3d b4 29 48 3d
       -0.06483894 -0.049891982 0.052296918 0.048867896
000090 64 7b 46 3c de 03 5d 3c ab 0b a0 3c 9e a9 1e 3d
       0.01211438 0.013489692 0.019536814 0.03873598
0000a0 cc 8f 4f bd a8 1d 94 bd e8 7f 1d 3b e8 b4 4c 3d
       -0.050674245 -0.07232219 0.0024032537 0.049977213
0000b0 55 63 21 3c c3 d6 b9 3c 79 3c 0e bd cf 50 cb 3c
       0.009850343 0.022685414 -0.03472564 0.024818806
0000c0 ab bf 8c 3c 44 b2 f0 3c f7 f4 bf 3c 04 1b 43 3d
       0.017181238 0.029381879 0.023432238 0.047633186
0000d0 fb 57 1c 3d 09 82 3a bd 56 cf 28 bd 4e fe 93 bd
       0.038169842 -0.045534167 -0.041213356 -0.07226239
0000e0 e0 2e 1a 3d 3e ad 9f bc d7 a7 47 3d 53 b4 8a 3d
       0.03764236 -0.019491788 0.04874405 0.06772675
0000f0 b4 70 00 bd 76 6f 75 3d 7c 53 26 bd b7 49 b9 bc
       -0.031357482 0.05992075 -0.04060696 -0.022618158
000100 93 12 b4 3c 90 9b f6 3a 44 6d 55 bc 3a b1 78 3d
       0.021981513 0.0018814672 -0.013026539 0.06071589
000110 fa 7e 46 bd 54 28 19 bd 70 81 05 bc dc 77 9f ba
       -0.048460938 -0.037391976 -0.008148536 -0.0012166458
000120 47 cc 04 3d 48 ce b6 bc 9b 58 ce 3c bf 73 44 3d
       0.032421377 -0.02231516 0.025188735 0.047961947
000130 d8 50 3c bd 9f a6 36 bd b5 d4 46 bd a9 16 c7 bc
       -0.045975536 -0.044592496 -0.048542697 -0.024302797
000140 8a 92 16 bd 09 26 87 3c 47 cd db bb fb 27 38 3d
       -0.036760844 0.016497629 -0.0067078206 0.044960003
000150 b6 ad 4b bb 9e f0 71 bd fe a4 57 3d fb 37 55 bd
       -0.0031078882 -0.05906736 0.052647583 -0.05205534
000160 ed e5 42 3d 8d a3 f4 bc b8 2d ca 3c f4 be 12 bd
       0.047582556 -0.029863143 0.024680004 -0.03582664
000170 26 e3 0a bd 46 ca 1a 3c 86 9e f4 3a a3 4a 74 bd
       -0.033908032 0.00944764 0.0018662966 -0.05964149
000180 e9 4d 05 3d 00 cf 39 3d d7 ea 3b bd f4 c4 40 3d
       0.032545004 0.045363426 -0.045878258 0.04706283
000190 14 47 07 bc e0 bf 0c bd a7 96 9f bc 90 cd 20 3d
       -0.008256692 -0.034362674 -0.019481016 0.03925854
0001a0 db 13 39 3b c2 44 48 bc a6 0f 2e 3c fd b4 a4 ba
       0.0028240595 -0.012223424 0.010623848 -0.0012566146
0001b0 d9 9b 5d 3d eb 53 14 3d bf 01 18 3d 79 a2 97 3c
       0.054103706 0.036212843 0.03711104 0.01851009
0001c0 90 c3 16 bd 44 83 8b bd dd ee e1 bb 0f 51 0b 3c
       -0.036807597 -0.06812146 -0.00689493 0.008503213
0001d0 ab cf 01 bd 41 4f 8f 3c 18 99 eb 3a 09 78 cd bb
       -0.03169219 0.017493846 0.0017974703 -0.006270413
0001e0 40 8e 66 bd a3 fe 6b bd ce d0 48 bc 51 41 dc bc
       -0.056288004 -0.057615887 -0.012256814 -0.026886614
0001f0 ce 68 c7 bb 0c 67 5f 3d c3 63 33 bd 6c 63 31 bd
       -0.0060854917 0.054541633 -0.043796312 -0.043307707
000200 4f e6 24 bd c3 14 16 bd d7 95 e6 bc 2c 05 36 bd
       -0.040258702 -0.036640894 -0.028147621 -0.044438526
000210 52 91 af bc e9 30 46 bd b1 b7 a0 3b 08 0c 8b 3d
       -0.021431599 -0.048386488 0.00490471 0.06789404
000220 62 ad e6 3c f2 1b 2c 3d 80 bb f2 bc c8 fb 82 bd
       0.028158847 0.04201884 -0.029630423 -0.0639568
000230 c8 95 20 bc ab 8e 4e bd 53 98 1a bd 1f 8d 32 bd
       -0.009801336 -0.050429028 -0.037742924 -0.043591615
000240 a2 82 b2 3c ac b3 31 bd 6b 35 f4 3c 9a 72 11 bd
       0.021790806 -0.04338424 0.029810628 -0.035509683
000250 b8 7a a4 3c 0a ca b0 bc c7 b2 61 bd 06 d6 92 3d
       0.020078048 -0.021580715 -0.055102136 0.07169728
000260 43 de 3b bd 05 9e 55 3d eb cb 65 3d 2c ee f5 3c
       -0.045866262 0.052152652 0.056102674 0.030020796
000270 0c 42 0b 3c 06 cb 84 bd 7a 7a 54 bd 75 85 92 3d
       0.0084996335 -0.06484036 -0.051874615 0.07154361
000280 bb 65 23 bd 14 06 72 bd eb e7 86 3d f6 4c 8e bd
       -0.03989194 -0.059087828 0.065872036 -0.06948273
000290 8e 89 51 bd 1d 48 7a 3d ce d9 2a ba 04 65 0b 3d
       -0.051156573 0.06110393 -0.0006517441 0.034031883
0002a0 ec 47 86 3d 41 f5 1a bd db a0 36 bd 20 d0 78 bd
       0.06556687 -0.03783155 -0.044586997 -0.06074536
0002b0 47 89 1d bd de 53 80 3d f5 e9 91 bd 54 d9 88 3d
       -0.038460996 0.062659964 -0.07124702 0.06682077
0002c0 23 53 91 bd c0 12 59 bd 54 15 54 bc b6 85 12 bc
       -0.07095935 -0.052996397 -0.012944538 -0.008943012
0002d0 26 92 55 3b 72 cd 40 bd ea c0 3a 3c 83 35 72 bd
       0.0032588332 -0.047070928 0.011398533 -0.059133064
0002e0 cf 40 82 bc db e9 3d 3d e0 e1 72 bd dc 4f 79 bd
       -0.015900044 0.0463656 -0.059297442 -0.060867175
0002f0 ec 42 b9 3c 65 b8 68 bd 9d 12 eb bc 3c ae 5e bd
       0.022614919 -0.056816477 -0.028695399 -0.05436538
000300 5c 93 49 bd 6d 72 0a 3c 93 fc 4c bd e1 de 7c bd
       -0.0492128 0.008450133 -0.05004556 -0.06173599
000310 27 b2 64 bd 62 e0 43 bd 33 33 22 bd fe 05 a8 ba
       -0.05583396 -0.04782141 -0.03959961 -0.0012819169
000320 d2 02 21 bc de 6c 86 bd 53 ce 48 bd d7 64 1c bd
       -0.009827333 -0.065637335 -0.04902489 -0.038182106
000330 1d fc 26 3c 97 fc e5 bc b2 f7 78 bd 7e 20 34 3d
       0.010191944 -0.028074546 -0.060783096 0.0439763
000340 23 e1 6f 3d 82 12 89 bd 92 0e 72 3b fd a5 84 3d
       0.058564316 -0.06692983 0.0036934954 0.06476972
000350 98 cf f0 3c eb d5 36 bd d9 ad 70 bd 29 1f cf 3c
       0.029395863 -0.0446376 -0.058759544 0.025283413
000360 ac 9a 85 3c e8 50 44 bd 68 84 9e 3c 12 4b d9 3b
       0.016309105 -0.04792872 0.019350246 0.0066312635
000370 ca ad 14 3c e6 2c 5d 3d 11 4e 66 bd bc ff 92 bd
       0.009074638 0.053997897 -0.056226794 -0.07177684
000380 75 58 42 3d 8e d2 62 3d e5 03 11 3d ae 3a 4e 3d
       0.04744764 0.05537658 0.035404105 0.05034893
000390 46 86 6b bb cd 3e af bc 6c 3e 56 bc 23 04 7f bc
       -0.0035938188 -0.02139225 -0.013076406 -0.015564951
0003a0 d9 ff 1b bd 5d 0c 22 3d c8 f4 88 bc ec 4a 85 bd
       -0.038085792 0.03956257 -0.016718283 -0.06508431
0003b0 b6 1a 26 3d aa ea 41 bd 67 54 8a bd 55 22 41 bb
       0.040552817 -0.047342934 -0.0675438 -0.0029469926
0003c0 a8 05 68 3d 19 46 af bc 79 6f 21 bd d4 71 b5 3c
       0.05664602 -0.02139573 -0.03941295 0.022149004
0003d0 a2 1f 01 bd d5 50 11 3d aa 2f 69 bd e3 b7 93 bd
       -0.031524308 0.035477478 -0.05693022 -0.07212808
0003e0 3f e8 8b bc 61 fc a1 bc cb f5 53 3d 0b a6 89 bd
       -0.017078517 -0.019773664 0.05174808 -0.06721123
0003f0 36 21 71 3d 55 a9 28 bd 48 18 86 bd 2e 8e f9 bc
       0.058869563 -0.041177113 -0.065476 -0.030463304

weight f4 [128, 256]
000000 c3 57 3e 3d d3 ec 3a bd 71 a4 12 3d 4a b7 1a 3d
       0.046470415 -0.04563601 0.035801355 0.037772454
000010 f5 ed f9 ba fb 63 5e bc 6e ec a9 b8 eb 22 bf 3d
       -0.0019068109 -0.013573642 -8.1025864e-05 0.09332832
000020 fc 7a 21 bd 81 fa 27 3d 35 23 5e 3c 9c e7 0a 3c
       -0.039423928 0.041010384 0.013558199 0.008478072
000030 31 88 13 bd 44 a4 3d 3c d5 fa e7 bc bd 38 99 bc
       -0.036018554 0.0115748085 -0.028317848 -0.018703813
000040 53 d3 8c bd 42 4e 44 bd 22 57 36 3c 0d 32 f4 bc
       -0.068762444 -0.047926195 0.0111291725 -0.029809022
000050 bd 22 15 bd 08 61 17 3c 65 cf 86 bd 6b 74 4c 3b
       -0.036410082 0.009239443 -0.06582526 0.003119732
000060 d9 ad ae bc 9f 0e 90 3c 84 95 75 bd 67 76 c9 3c
       -0.021323131 0.017585097 -0.059957042 0.024592591
000070 1d e6 22 3d bd 8b cc 3c 8a 6d e2 bb 32 e5 cd 3c
       0.039770234 0.024968976 -0.0069100307 0.025133703
000080 54 ee 05 bd 39 6a 2b bb 57 fd 8b 3d fc 48 bf 3b
       -0.03269799 -0.0026155843 0.0683543 0.005837558
000090 d9 5e ce 3c d7 32 28 3d 79 ef b2 3b f1 8a c5 bb
       0.025191711 0.04106411 0.0054606763 -0.006028526
0000a0 2a 16 ef 3c d0 4d e4 3c cf a6 05 3d 38 2b 55 bd
       0.029185373 0.027869135 0.032629784 -0.05204317
0000b0 34 ba 89 bd 85 b6 f4 bb e8 52 bb 3c 33 dd 88 3c
       -0.067249686 -0.007468047 0.022866681 0.016707039
0000c0 82 4d 26 3d d4 06 81 bd 99 c4 67 bc 7b b3 41 bd
       0.04060126 -0.063001305 -0.014145994 -0.047290307
0000d0 fc 26 31 bd 5f 9e 86 bc e9 59 76 ba ba 9f f5 3c
       -0.04325007 -0.01643294 -0.0009397553 0.02998339
0000e0 33 04 5b 3c 02 15 d0 bc e0 08 b2 bc 81 0c 38 3d
       0.0133677 -0.025400642 -0.021732748 0.0449338
0000f0 34 a9 6e 3d e2 1f 0f bd 45 2f 1b bc ee 18 0e bd
       0.058266833 -0.034942515 -0.009471719 -0.034691744
000100 59 17 54 3c e4 5f 36 bd 83 28 9b bd 2b d6 d6 3c
       0.01294502 -0.044525042 -0.07576086 0.02622517
000110 a5 c7 a1 bc 9c 92 ef bc e3 f1 04 bd 6f d3 11 bc
       -0.019748518 -0.029244713 -0.032457244 -0.008900507
000120 6d 5b 4b bc 51 78 1a 3d 85 07 88 ba fd 11 40 3c
       -0.012411934 0.0377124 -0.0010378218 0.011723039
000130 67 3e 3d bd b6 78 46 bd 49 b8 1e bd de 4b 78 3c
       -0.04620209 -0.048454963 -0.038749967 0.015154807
000140 e6 ac e9 bc 13 05 1f bd 6f 97 80 bb 9f 42 ee bc
       -0.028524827 -0.0388232 -0.0039243023 -0.029084502
000150 24 0f 85 3c 6a 52 34 3d 61 b5 3c 3d 2f c2 47 bd
       0.016242571 0.04402391 0.046071414 -0.048769172
000160 a8 b6 8f 3c 33 ed 4a bd 70 0e 19 3d 00 10 a6 bc
       0.017543152 -0.049542617 0.037367284 -0.020271301
000170 67 49 7f bd ef 40 a7 3b 04 b0 13 bd 79 64 60 bd
       -0.06232586 0.0051041762 -0.036056533 -0.05478332
000180 4f 68 06 3d 4c f0 69 bd c9 f4 96 3c 4c 5c cc ba
       0.03281432 -0.05711393 0.01842727 -0.0015591471
000190 6d 8d e2 3c ed 39 69 3c e1 14 39 bd ac 71 01 3d
       0.027655328 0.014235002 -0.045185927 0.031602547
0001a0 fd b8 39 bd c4 80 57 3d 2e cb 99 bd 30 d1 16 3d
       -0.045342434 0.052613035 -0.075094566 0.03682059
0001b0 a6 d7 0a bd 86 e2 46 bd 38 23 97 3c 78 f3 b2 3b
       -0.033897065 -0.048555873 0.01844941 0.0054611526
0001c0 94 1d 2d bd ee 44 32 bd de e6 b1 3b 1c 08 41 3c
       -0.042264536 -0.043522768 0.005429133 0.011781719
0001d0 f5 ac a2 3c e5 e7 3b bd 21 8a 70 3d e0 c2 05 bc
       0.019857863 -0.04587545 0.05872548 -0.008164138
0001e0 93 e6 38 3c be c8 06 bb 4f 3d 3e bb 45 0c 28 3d
       0.011285442 -0.002056643 -0.0029028242 0.041027326
0001f0 15 b1 fe 3c 8e 34 bc bc cc ce 13 bc 81 a2 14 3d
       0.031090299 -0.022974279 -0.009021472 0.03628779
000200 ec 0d ab bc ec be f0 3b 4f 63 f0 bb 45 08 51 3d
       -0.020880662 0.0073469784 -0.0073360573 0.051033277
000210 a1 ed e2 3c 27 b0 8f 3c 69 3d da 3c 59 2c aa 3c
       0.0277012 0.01754005 0.02664061 0.0207731
000220 86 bf b2 3b 34 2f 24 3d ba b9 06 3d 23 91 31 3d
       0.0054549603 0.04008408 0.032891966 0.043351304
000230 95 dd 51 3d e2 31 90 3b e9 68 30 3c f9 de 67 3d
       0.051236708 0.0044004777 0.0107672 0.056609128
000240 78 ac b3 3c bb 9d 6b bd 0a ac 12 3d 20 00 1b bd
       0.021932825 -0.05752347 0.0358086 -0.037841916
000250 b3 d3 a0 3c c0 71 80 3d fd bb 79 bd de e4 86 3d
       0.019632196 0.06271696 -0.060970295 0.06586622
000260 30 ec 98 bc 7f 3a 8c bd d9 54 8a 3d b0 8b d5 bc
       -0.01866731 -0.06847095 0.06754465 -0.026067585
000270 05 59 3d bd f2 6a c7 3b f5 8b cb bc 7a c1 78 3c
       -0.046227474 0.006085747 -0.02484701 0.015182847
000280 1e 0a 58 bd 39 9d 83 bb 53 a5 48 3d 52 74 64 bc
       -0.052744024 -0.004016545 0.04898579 -0.013943749
000290 0c b8 fa bb 6c bb c7 bb 35 e4 52 3d 20 e3 89 3d
       -0.0076513346 -0.0060953405 0.051487166 0.06732774
0002a0 4e c3 01 bd 05 91 68 3d fc 3a 35 3d 34 58 02 3d
       -0.031680398 0.056778926 0.044245705 0.0318224
0002b0 92 75 dd 3c b9 a9 8f 3d b5 bf 32 3d 26 bb 42 bd
       0.027033601 0.07014794 0.043639857 -0.04754176
0002c0 c0 74 13 bd 57 fa 1b 3c b6 34 1f bd 7a db 04 3d
       -0.036000013 0.009520135 -0.03886863 0.03243587
0002d0 f7 6a ab bb 9a 97 03 bb 91 f9 c4 bc d3 f9 9c 3a
       -0.005231257 -0.0020079375 -0.024044784 0.0011976309
0002e0 41 9d 83 bb d7 ca 20 bc 0d c3 90 bd 4a 06 43 3c
       -0.004016549 -0.009813986 -0.07068453 0.011903355
0002f0 83 88 57 3b 7d e0 11 3d 14 84 c4 bc 52 5b 5f bd
       0.0032887764 0.03561448 -0.023988761 -0.05453045
000300 a3 ed 5b 3d 30 e7 01 bd e2 f5 5c 3d 90 4d a3 bc
       0.053693425 -0.03171462 0.05394543 -0.019934446
000310 bd bc 82 bd 95 e6 4a bd 19 73 ce bc c1 95 a8 3c
       -0.06383655 -0.049536306 -0.025201367 0.02057922
000320 7f 8f e0 3b e9 0a 5f bd 1f df 05 3d a8 91 00 bd
       0.0068530436 -0.054453764 0.032683488 -0.03138891
000330 0d fa 3f bd 27 4d 55 bd 57 fc 02 bd e5 e5 83 3d
       -0.046869326 -0.05207553 -0.03197893 0.06440333
000340 16 dd 3f bd 65 17 10 3d 1a 50 58 3c 2c c2 76 3b
       -0.046841703 0.03517856 0.013202691 0.0037652357
000350 a9 9f 95 3b 7a 1f 44 3c 03 ac 08 bc 30 c6 56 3d
       0.004566152 0.011970395 -0.008341792 0.0524351
000360 22 91 25 3d ed 18 1e bd fb 39 e1 3b 99 b6 c1 3c
       0.040421613 -0.03859799 0.006873367 0.02364664
000370 77 c8 f4 bc b7 af 7e bc 72 88 93 b9 ba fb 5a bc
       -0.029880745 -0.015544823 -0.00028139685 -0.01336568
000380 ff 41 82 3d d3 24 ad bc b1 36 1b 3d bd 59 ac bb
       0.06360244 -0.021135723 0.037893955 -0.005259721
000390 fe 01 3b bc cb 55 f2 3c 23 25 d4 3c 2c 92 b8 bc
       -0.011414049 0.029581925 0.025896614 -0.022530638
0003a0 72 7c 1b 3d 3c 38 31 3d 0c d6 98 bd c3 55 2b bd
       0.037960477 0.04326652 -0.07462701 -0.041829836
0003b0 03 94 b6 3c a0 89 52 3d 91 b2 4d bd 92 28 0e 3d
       0.022287374 0.05140078 -0.050219122 0.03470666
0003c0 4c ec 50 bd 4d 79 43 3c 2e 18 64 bc 35 a9 38 bd
       -0.0510066 0.011930776 -0.0139217805 -0.045083243
0003d0 5b d1 a8 bc b6 42 99 3c 46 3c 24 bd c4 1e ce 3c
       -0.020607641 0.018708568 -0.040096544 0.025161155
0003e0 c4 34 4c 38 26 f8 42 3d 73 01 50 3c 9a 3f 12 bd
       4.8686532e-05 0.047599934 0.012695658 -0.035705186
0003f0 8c 05 4a bc 81 91 80 bc 09 94 38 bd 96 2e 27 bc
       -0.012330424 -0.015694382 -0.045063052 -0.010203978
