models/model_objs/error display test.pth (torch, 836955 bytes, 11 tensors)

weight f4 [256, 135]
0	0x3dcb6667	0.09931641
1	0xbd2698ea	-0.040673174
2	0xbbd77fcb	-0.0065765134
3	0xbdcf6830	-0.10127294
4	0xbd59ec46	-0.053203844
5	0x3cf84399	0.03030567
6	0xbb40c2e6	-0.0029413044
7	0xbd88510d	-0.06656084
8	0x3cf39323	0.029733246
9	0xbd4f8861	-0.05066717
10	0xbdd93b5b	-0.10607024
11	0xbd6cc07c	-0.057800755
12	0xbd9fabf3	-0.077964686
13	0xbd2b590a	-0.04183296
14	0x3de4193f	0.11137628
15	0x3d04123a	0.032243945
16	0x3cb61577	0.022227032
17	0xbdb21e5a	-0.08697195
18	0xbd5fd7f3	-0.054649305
19	0xbce9e6f4	-0.02855251
20	0x3d0d19f6	0.034448586
21	0xbdb6cb47	-0.08925491
22	0xbd84f038	-0.064911306
23	0xbd580c6e	-0.05274623
24	0xbbfb820d	-0.0076754154
25	0xbd1ed309	-0.038775478
26	0xbc1a021c	-0.009399917
27	0xbd9a96e2	-0.0754831
28	0xbda596b9	-0.08085389
29	0xbda43960	-0.08018756
30	0xbb907280	-0.0044081807
31	0xbd997d35	-0.074945845
32	0x3d3d537b	0.04622219
33	0xbd210d05	-0.039319057
34	0x3d5439ea	0.051813044
35	0x3b960923	0.004578726
36	0xbd5a5ce2	-0.053311236
37	0x3d1e7c05	0.038692493
38	0xbd076352	-0.033053704
39	0xbcacbff4	-0.021087624
40	0xbd801f26	-0.06255941
41	0xbdc54b62	-0.09633519
42	0x3ca4a2d8	0.020097181
43	0xbd0b19d3	-0.033960175
44	0x3b78b830	0.0037951581
45	0xbd853b4e	-0.06505452
46	0x3d349099	0.04408321
47	0xbdc371b1	-0.09543169
48	0x3b80b0b9	0.003927317
49	0xbb1220be	-0.0022297348
50	0x3cfbfa74	0.030759074
51	0x3d9585ef	0.073009364
52	0x3dc79a95	0.09746281
53	0xbd9df628	-0.07712966
54	0x3ccf3ebb	0.025298467
55	0xbda81328	-0.08206779
56	0xbca3a7dc	-0.019977503
57	0xbd4daa00	-0.050210953
58	0x3db76909	0.08955581
59	0xbdb7a339	-0.08966679
60	0x3d6af06a	0.057358183
61	0x3d2dbd81	0.042417053
62	0xbc8f0039	-0.01745616
63	0xbddf9a63	-0.10918119
64	0x3c369734	0.011144448
65	0x3d6886b8	0.056769103
66	0xbd451ba4	-0.048122063
67	0xbd5a8e32	-0.053358264
68	0x3caf4e72	0.02139971
69	0xbad515e5	-0.0016257135
70	0xbce6a4eb	-0.02815481
71	0x3e04942a	0.12947145
72	0x3cf6f3ad	0.03014549
73	0xbd0f1e40	-0.034940958
74	0xbcefb302	-0.029260162
75	0x3cf561c0	0.029953837
76	0x3d4a7a86	0.049433254
77	0xbdb1ed74	-0.08687869
78	0xbd9ecd6a	-0.077540234
79	0x3ad1b1e8	0.0015998455
80	0xbd942eb9	-0.07235474
81	0x3d5b0d4f	0.05347949
82	0x3d0b1abd	0.033961046
83	0xbd917cee	-0.071039066
84	0xba94e44c	-0.0011359542
85	0x3d3e9b6d	0.046534944
86	0x3c7058da	0.014669621
87	0xbd24d1bf	-0.040239092
88	0x3db731e7	0.08945065
89	0x3c35a251	0.0110860625
90	0x3cd8276a	0.026385982
91	0xbc289588	-0.010289557
92	0xbc06be52	-0.008224087
93	0x3b1ee97a	0.002424805
94	0xbcc257d0	-0.023723513
95	0xbcdd16fa	-0.026988495
96	0x3d698f06	0.057021163
97	0x3d5236d1	0.05132181
98	0xbc09a3e4	-0.008400891
99	0xbca5205e	-0.020157035
100	0x3d4db115	0.050217707
101	0x3ca9adc2	0.020712737
102	0xbbe58d4d	-0.0070053698
103	0xbb25ac31	-0.0025279636
104	0xbd2c779d	-0.04210626
105	0x3c44e1a9	0.012016692
106	0x3ddbd0af	0.107331626
107	0x3b8eff1a	0.0043639066
108	0x3cb95864	0.022625156
109	0xbdd83784	-0.10557464
110	0xbd3c8a4d	-0.04603033
111	0xbdf92b71	-0.12166489
112	0xbdac5cc6	-0.08416133
113	0x3c733dd8	0.014846288
114	0x3d40bbb8	0.047054023
115	0x3d1b3aec	0.03789799
116	0xbd999019	-0.074981876
117	0xbd930e27	-0.07180434
118	0x3c57f9d7	0.013182125
119	0x3d265be3	0.040614974
120	0x3cae1c5c	0.021253757
121	0xbd794545	-0.060857076
122	0xbc99d3e0	-0.018777788
123	0xbd6ac30e	-0.057314925
124	0xbd09a1b3	-0.033601474
125	0x3db5a5bf	0.08869504
126	0xbd0ce348	-0.03439644
127	0x3c5487f8	0.012971871
128	0xbda8d231	-0.08243216
129	0x3d15b3ad	0.036548305
130	0x3dbe77fc	0.09300229
131	0x3cca2315	0.024674932
132	0xbd83a333	-0.06427612
133	0xbdd47c2e	-0.10375248
134	0xbd860bb6	-0.065452024
135	0x3d73dba4	0.059535637
136	0x3c7a7f87	0.015289194
137	0x3d9b68f9	0.07588381
138	0x3d8a5458	0.067543685
139	0x3c4ff08c	0.012691628
140	0xbc2222c8	-0.009895988
141	0xbd4577a6	-0.04820981
142	0xbda1aba4	-0.07894066
143	0xbdb1629b	-0.086613856
144	0x3cbce0e9	0.023056464
145	0xbd7daab9	-0.061930392
146	0xbc494fb6	-0.012287071
147	0xbd6e1c45	-0.05813243
148	0xbd0db240	-0.03459382
149	0xbd5d26a1	-0.053991918
150	0xbd5f725a	-0.054552414
151	0x3d0b24ca	0.03397063
152	0xbca105cc	-0.019656084
153	0x3d4b9213	0.049699854
154	0xbd03b799	-0.032157514
155	0xbd947609	-0.07249076
156	0xbbde1577	-0.006777461
157	0xbd2ce9db	-0.04221521
158	0xbd163409	-0.03667072
159	0xbdb34a25	-0.08754376
160	0x3d821a7d	0.063527085
161	0xbd5bcf6b	-0.053664606
162	0x3d1ea434	0.038730815
163	0x3cb86db3	0.022513246
164	0x3d904e9e	0.07046245
165	0xbda16957	-0.0788142
166	0x3d785fb3	0.06063814
167	0xbcfc1919	-0.030773686
168	0x3d57c1d3	0.05267508
169	0x3dd00123	0.10156467
170	0x3c0ce8de	0.008600442
171	0xbcbbe66d	-0.022937024
172	0xbbaba8b4	-0.005238617
173	0xbdb88deb	-0.09011444
174	0x3d2be9b1	0.041970912
175	0xbd9509a6	-0.07277231
176	0x3d68d798	0.05684623
177	0x3d91d3c8	0.07120472
178	0x3db2cf05	0.08730892
179	0xbd70c837	-0.05878469
180	0xbd21dd24	-0.039517537
181	0x3db4280e	0.08796702
182	0x3c94ccda	0.018164087
183	0xbe0961f0	-0.13416266
184	0x3ccc9f51	0.024978312
185	0xbbf6cb34	-0.007531548
186	0xbc94d1be	-0.01816642
187	0xbd20c9e7	-0.03925505
188	0xbd29396a	-0.04131452
189	0xbd089a52	-0.033350296
190	0xbdb0ac68	-0.08626634
191	0x3dc16126	0.09442358
192	0x3cae88b5	0.021305421
193	0xbd1e93d4	-0.0387152
194	0x3d9b8394	0.07593456
195	0xbd7415c1	-0.05959106
196	0xbcdb5d10	-0.026777774
197	0xbd8901a1	-0.06689764
198	0x3d257654	0.04039605
199	0x3be27b51	0.006911673
200	0xbcdb36bf	-0.026759503
201	0xbc4dd66f	-0.012563332
202	0xbd411d8b	-0.047147315
203	0xbc8d42f1	-0.017243834
204	0xbcd7a8fa	-0.026325691
205	0xbd95907c	-0.07302949
206	0xbda9f529	-0.08298714
207	0xbd1edc63	-0.038784396
208	0xbc1357d3	-0.008993107
209	0x3d92cd4a	0.07168062
210	0xbd089257	-0.033342686
211	0x3c49cd1b	0.012316967
212	0xbd922d70	-0.07137573
213	0xbb957fe8	-0.0045623668
214	0x3dcabdc3	0.098994754
215	0xba993b0a	-0.0011690569
216	0xbdc40a80	-0.09572315
217	0x3da8d8a8	0.08244449
218	0x3dab5e82	0.08367635
219	0x3d5d40d4	0.054016903
220	0x3d40fcc9	0.047116075
221	0x3e04a76c	0.12954491
222	0xbc55ab99	-0.0130414
223	0x3bf7a92e	0.0075580096
224	0xbd5c127b	-0.05372856
225	0xbca82ff4	-0.020530678
226	0x3db1a821	0.08674646
227	0x3d3e02a5	0.04638924
228	0xbcbfae97	-0.02339868
229	0xbd7409b2	-0.05957956
230	0xbd793ceb	-0.06084911
231	0xbdc06710	-0.093946576
232	0xbdd8deb9	-0.10589356
233	0xbbb2ce54	-0.005456725
234	0x3da67535	0.08127824
235	0x3ce4b9c7	0.027920617
236	0xbcef0afd	-0.029180044
237	0xbd743844	-0.05962397
238	0x3d79f28d	0.06102233
239	0xbd842586	-0.064524695
240	0x3bbb81e3	0.005722271
241	0x3dbe8619	0.09302921
242	0xbd670d94	-0.056409433
243	0xbc891d88	-0.016737714
244	0x3a0c7f80	0.0005359575
245	0xbc84bada	-0.016202379
246	0xbd607ff3	-0.054809522
247	0xbd0f0859	-0.03492007
248	0xbdbbf8fa	-0.09178348
249	0x3c3cb05b	0.011516656
250	0x3d315f47	0.043303754
251	0xbcbdcbed	-0.023168528
252	0xbd432edd	-0.047652114
253	0x3c702ff1	0.014659868
254	0x3d756b6e	0.059916906
255	0x3d84ef01	0.06490899

bias f4 [256]
0	0xbd4f78c6	-0.050652288
1	0xbd3d077e	-0.046149723
2	0xbd999a06	-0.07500081
3	0x3d2be4e8	0.04196635
4	0x3cdad4d2	0.026712809
5	0x3d12df47	0.035857465
6	0xbd381e95	-0.04495104
7	0xbd4d0231	-0.050050918
8	0x3c21ec4a	0.009882996
9	0x3d61db8e	0.055141024
10	0x3d2464a2	0.040135033
11	0x3d2b83c6	0.041873716
12	0xbcb2867c	-0.021792643
13	0x3c8e12ac	0.017342888
14	0xbd151f30	-0.036406696
15	0x3d8ee223	0.06976726
16	0x3d720153	0.059083294
17	0xbbf9f68d	-0.007628268
18	0x3b4be6f1	0.0031112994
19	0x3d9f7193	0.077853344
20	0xbd67a3c2	-0.056552656
21	0xb8d2bc78	-0.00010048685
22	0x3c760b89	0.015017399
23	0xbccac3ab	-0.024751505
24	0xbbf9a6df	-0.0076187695
25	0xbd49f5ea	-0.049306788
26	0x3bd21749	0.006411467
27	0x3d461890	0.04836327
28	0x3d5d58ce	0.05403977
29	0x3d74b775	0.05974527
30	0x3cf7864f	0.03021541
31	0x3da0ce2b	0.078518234
32	0x3d211243	0.039324056
33	0x3caf9d90	0.021437436
34	0x3d1d3e34	0.0383894
35	0x3d554773	0.052070092
36	0x3c2a2526	0.010384833
37	0xbd903d49	-0.07042939
38	0xbbe14b10	-0.006875403
39	0xbc854f0a	-0.01627304
40	0xbd15d5d2	-0.036580868
41	0xbd124b37	-0.03571626
42	0xbcbcf6f3	-0.023066973
43	0xbcc28406	-0.023744594
44	0x3d949783	0.07255461
45	0xbcf47182	-0.029839281
46	0x3aa84da6	0.0012840524
47	0xbc64955d	-0.013951627
48	0x3d819d81	0.063288696
49	0xbcf8a63c	-0.030352704
50	0x3d21d9fa	0.03951452
51	0xbda09301	-0.07840539
52	0x3c1e7a77	0.009672753
53	0xbd562af5	-0.05228706
54	0x3cad28c4	0.021137603
55	0x3d073345	0.03300788
56	0x3ce50e96	0.027961057
57	0x3baa99f9	0.0052063433
58	0xbd22b27a	-0.03972099
59	0xbd7958f1	-0.060875837
60	0xbd28a64a	-0.04117421
61	0xbc38edc2	-0.011287155
62	0xbc8f88c2	-0.017521266
63	0x3d64d331	0.05586547
64	0x3d4cdd00	0.05001545
65	0xbb98a106	-0.0046578674
66	0x3d50a5a4	0.050939217
67	0xbc82c691	-0.015963824
68	0xbda4cf20	-0.080473185
69	0xbd339f82	-0.04385329
70	0x3da71e6b	0.08160099
71	0x3d17e76f	0.037085947
72	0x3c19f989	0.009397873
73	0xbd2c55ed	-0.042074133
74	0xbbaf8c1f	-0.00535728
75	0xbb05c25b	-0.0020410034
76	0xbd81848a	-0.06324108
77	0xbbcd1402	-0.0062584886
78	0xbd58df23	-0.052947175
79	0x3ce4ac7c	0.027914278
80	0x3cf8a7fc	0.030353539
81	0x3c40992f	0.011755272
82	0x3cbbbcf1	0.022917243
83	0x3cc6975c	0.024242096
84	0xbd31474c	-0.043280885
85	0xbc802865	-0.015644262
86	0xbd798f04	-0.060927406
87	0x3cb7f865	0.02245731
88	0x3d5effb4	0.054443076
89	0xbcb273e9	-0.021783786
90	0x3b0d9236	0.002160204
91	0x3d93fef8	0.07226366
92	0x3d29ba57	0.041437473
93	0x3d2ad447	0.04170635
94	0x3ceed21b	0.02915292
95	0xb98b0f21	-0.00026523418
96	0x3d864198	0.0655548
97	0xbd444a99	-0.047922704
98	0x3d944516	0.072397396
99	0xbb83010c	-0.0039979275
100	0xbd4e68b7	-0.050392833
101	0x3d855ab9	0.065114446
102	0x3d9b7b9f	0.07591938
103	0x3d8a3575	0.06748477
104	0x3cef1470	0.02918455
105	0x3bc2ff4f	0.0059508453
106	0xbd02b9d5	-0.031915504
107	0x3be95055	0.007120172
108	0x3c826c23	0.015920704
109	0xbd08c3ff	-0.03339004
110	0xbd101450	-0.03517562
111	0xbd54dc48	-0.05196789
112	0x3c8a8957	0.016911192
113	0x3d38ea6d	0.04514544
114	0x3c9c8698	0.019107148
115	0x3d747f5c	0.059691772
116	0xbd0a851f	-0.03381836
117	0xbcf3f3ca	-0.029779334
118	0x3d8268cd	0.063676454
119	0x3cb8b3c1	0.02254665
120	0x3b9fb9b3	0.004874432
121	0x3d2dea6f	0.0424599
122	0xbd4bda8a	-0.049768962
123	0xbd523959	-0.051324222
124	0x3dad6fa4	0.084685594
125	0xbd2f2e0a	-0.042768516
126	0x3b6fb60c	0.0036577014
127	0x3d8ad0f7	0.06778138
128	0x3d7b0a2f	0.06128901
129	0x3d3555ce	0.044271283
130	0x3c71c300	0.014755964
131	0xbd96bdb1	-0.073603995
132	0xbba5edbc	-0.0050637405
133	0xbb27a032	-0.0025577662
134	0xbcb300e9	-0.02185102
135	0xbd81f79b	-0.06346055
136	0xbd6b4507	-0.057438876
137	0x3d909ba6	0.070609376
138	0x3a3ee895	0.0007282582
139	0xbcc5ab2e	-0.024129476
140	0xbd18639c	-0.03720437
141	0xbd356cdf	-0.04429328
142	0x3daf3f3d	0.085569836
143	0xbc745815	-0.0149135785
144	0xbd3f2b39	-0.04667208
145	0xbd979869	-0.07402117
146	0x3d75bfd5	0.0599974
147	0x3db1c5bd	0.08680294
148	0x3d67846e	0.05652278
149	0x3d8911f1	0.06692875
150	0xbc682194	-0.014168162
151	0xbd9e3f92	-0.07726969
152	0xbce8c317	-0.028413339
153	0x3ccc5fd4	0.024948038
154	0x3da9633f	0.08270883
155	0x3cb26a15	0.0217791
156	0x3d3416ed	0.043967176
157	0x3d941b47	0.07231765
158	0xbcdb49b1	-0.026768537
159	0xbd8fe54f	-0.07026159
160	0xbd126545	-0.03574111
161	0xbdbc8025	-0.09204129
162	0x3d1c159d	0.03810655
163	0xbd57da0d	-0.052698184
164	0xbc58619b	-0.013206865
165	0xbd3905a9	-0.045171414
166	0xbcab2a1e	-0.020894106
167	0x3dabc38d	0.08386908
168	0x3cb253ca	0.02176847
169	0xbd28e53d	-0.041234244
170	0x3d6f1687	0.058371093
171	0xbd6a7f8c	-0.057250544
172	0x3c7c9abb	0.01541775
173	0xbd74dcc8	-0.059780866
174	0xbc1664b1	-0.00917928
175	0xbd8afce4	-0.06786516
176	0x3d441abd	0.047877062
177	0xbc928a5d	-0.017888242
178	0x3b876e14	0.0041329954
179	0xbd621892	-0.055199213
180	0x3dabdcb9	0.08391709
181	0x3db0ebfb	0.0863876
182	0x3d5365cf	0.051610764
183	0xbd8a0e0f	-0.06740963
184	0xbda32652	-0.079662934
185	0xbd932c4b	-0.071861826
186	0x3d3f636b	0.04672567
187	0x3d378b50	0.044810593
188	0x3cb35621	0.021891655
189	0xbd8cb134	-0.06869736
190	0x3d480b9e	0.048839204
191	0xbd93fbc9	-0.072257586
192	0xbdbb8e7b	-0.09158035
193	0xbcd6b80f	-0.026210813
194	0x3d4e4278	0.05035636
195	0xbd7890fa	-0.060685135
196	0x3d42268c	0.047400042
197	0x3d380b44	0.04493262
198	0x3d30a256	0.043123566
199	0xbda885b0	-0.08228624
200	0xbc3c4c1e	-0.011492757
201	0xbdb294ff	-0.08719825
202	0xbc466403	-0.012108806
203	0x3d207ac4	0.03917958
204	0xbc467fdf	-0.012115448
205	0x3da991fd	0.08279798
206	0x3da4608a	0.08026226
207	0xbca90062	-0.020630065
208	0xbb3d12ab	-0.0028850238
209	0x3d4966a1	0.04917014
210	0xbba978e7	-0.0051718834
211	0xbc72228a	-0.014778743
212	0x3d8012c4	0.06253579
213	0xbd8db14d	-0.06918583
214	0xbcca8cff	-0.024725435
215	0xbcbcacc4	-0.0230316
216	0x3d8d2205	0.06891254
217	0xbd9cbae4	-0.07652834
218	0xbd65a704	-0.05606748
219	0xbd0d9d2d	-0.034573723
220	0xbceb55fb	-0.028727522
221	0xbd9dfb07	-0.07713895
222	0xbd7acd3a	-0.061230876
223	0x3c8431ea	0.016137082
224	0x3d826f17	0.06368845
225	0x3c0abe64	0.008468244
226	0x3bbcdd5b	0.0057636923
227	0x3da76358	0.08173245
228	0x3c8c6633	0.017138576
229	0x3d3e74be	0.046498053
230	0x3c8ccc17	0.017187161
231	0xbd1f7b8a	-0.038936175
232	0x3d828909	0.06373794
233	0x3bc4709c	0.0059948694
234	0x3c0f3550	0.008740738
235	0x3d84f7f4	0.06492606
236	0x3d2f826a	0.042848982
237	0x3cc13f5b	0.02358978
238	0xbd3e7e98	-0.046507448
239	0x3b977bfa	0.0046229335
240	0xbd3e47b9	-0.04645512
241	0xbcff3951	-0.03115526
242	0xbcfd22cb	-0.03090038
243	0x3c5a34b7	0.013318232
244	0x3ae68da2	0.0017589817
245	0x3cd0104c	0.025398396
246	0xbd86b43a	-0.06577344
247	0xbcade466	-0.021227073
248	0x3ba5b15d	0.0050565437
249	0x3d849067	0.06472855
250	0xbd26ae25	-0.04069342
251	0x3d4b8d22	0.04969514
252	0x3ca613a8	0.020273045
253	0x3da78dfd	0.08181379
254	0xbda17cd4	-0.07885137
255	0x3d39fa4f	0.04540473

weight f4 [256, 256]
0	0xbd14fa55	-0.036371548
1	0xbd6eeab6	-0.058329307
2	0xbcea65f0	-0.02861306
3	0x3b733bd2	0.0037114513
4	0x3cb34fa8	0.021888569
5	0xbcb84d24	-0.022497721
6	0x3b9dd49a	0.004816604
7	0xbc28fdd6	-0.010314425
8	0x3cc1ee29	0.023673134
9	0xbbc5a52e	-0.006031654
10	0x3d5cb565	0.05388393
11	0xbd20eecd	-0.03929024
12	0xbccd8c1a	-0.02509122
13	0x3c2c81ae	0.010528965
14	0xbd00ed2d	-0.03147619
15	0x3d058706	0.03259947
16	0x3d54d355	0.051959354
17	0xbd459cee	-0.048245363
18	0xbd164fe8	-0.0366973
19	0x3d1bc56c	0.038030073
20	0x3d875d6c	0.06609616
21	0xbd818f1a	-0.063261226
22	0x3d92d64e	0.071697816
23	0xbcb08f74	-0.021552779
24	0xbc96dd5d	-0.018416101
25	0x3d9d4ff8	0.076812685
26	0x3d29c328	0.04144588
27	0x3d04fbae	0.032466583
28	0xbd36c834	-0.044624522
29	0xbc882993	-0.016621387
30	0xbc43c38d	-0.011948478
31	0xbd84bb1c	-0.06481001
32	0x3c5528f1	0.0130102495
33	0x3c37a320	0.011208326
34	0x3b2e6935	0.0026613001
35	0x3cd8b1dd	0.026452
36	0xbb4851c3	-0.0030566312
37	0x3c8eebfd	0.017446512
38	0xbc4936e2	-0.0122811515
39	0x3cf8cfb2	0.030372474
40	0xbd8be4e7	-0.06830769
41	0x3c3aacfd	0.011393783
42	0x3d2ed24e	0.04268103
43	0xbd4b7b6b	-0.049678247
44	0x3cd5d912	0.026104484
45	0xbd93c4cf	-0.07215273
46	0xbd3a0755	-0.04541715
47	0xbd2fec53	-0.042949986
48	0xbc99d7ff	-0.018779753
49	0x3d1a7abe	0.037714712
50	0x3b154f2d	0.0022782788
51	0x3d984d8d	0.07436667
52	0xbd20e6f1	-0.039282743
53	0xbce4f71d	-0.027949864
54	0xbd46b4f6	-0.04851242
55	0x3d56aa58	0.052408546
56	0xbd0cd3f7	-0.034381833
57	0xbd953778	-0.072859704
58	0xbd493e2f	-0.04913157
59	0xbd8eb18b	-0.069674574
60	0xbc858c90	-0.016302377
61	0x3d12947c	0.035786137
62	0x3d1706d5	0.03687175
63	0xbd4e9865	-0.050438304
64	0x3d55d616	0.05220612
65	0x3d6c37be	0.057670347
66	0xbb86daf8	-0.0041154586
67	0x3d316f1a	0.043318845
68	0x3d82edfa	0.06393047
69	0x3d1259af	0.03573006
70	0xbd339628	-0.043844372
71	0x3b7050fa	0.003666936
72	0xbd425ebf	-0.04745364
73	0xbd0d8c4f	-0.034557637
74	0x3d554523	0.052067887
75	0xbc3c6b73	-0.011500227
76	0xbd93284c	-0.071854204
77	0xbb84bf74	-0.0040511433
78	0x3d159820	0.03652203
79	0xbd72d4c7	-0.05928495
80	0x3ceeb9a0	0.029141247
81	0xbc7be965	-0.01537547
82	0x3d284a6d	0.041086603
83	0xbc4c669b	-0.012475635
84	0x3d7803ff	0.060550686
85	0x3d84fd86	0.06493668
86	0xbc81adc5	-0.01582993
87	0x3d8a0217	0.0673868
88	0x3c4fad2a	0.012675563
89	0x3a101f39	0.00054978166
90	0xbcbae962	-0.022816364
91	0x3c0de702	0.008661034
92	0x3b84fdf6	0.004058595
93	0x3d8c5a60	0.06853175
94	0x3c94bedd	0.018157417
95	0x3ceff8fa	0.029293526
96	0xbd6aa9e7	-0.057290938
97	0xbc6f978f	-0.014623537
98	0x3bbbbc15	0.0057292082
99	0xbd4e3790	-0.050345957
100	0xbc86b143	-0.016441947
101	0xbd32d8fb	-0.04366396
102	0x3cc614df	0.024179874
103	0xbd58da94	-0.052942827
104	0xbca46bde	-0.020070966
105	0x3d3705c7	0.044683244
106	0xbcc14b32	-0.023595426
107	0xbd59a556	-0.053136192
108	0x3d84130a	0.06448944
109	0x3d3db2d6	0.04631313
110	0x3c95b09c	0.01827269
111	0x3b5254f4	0.0032094093
112	0xbbc9d37c	-0.006159244
113	0xbcfcfe8d	-0.030883098
114	0xbc1197c4	-0.008886281
115	0xbaa54b2e	-0.0012610906
116	0xbd1c8d54	-0.03822072
117	0xbd104ad7	-0.035227623
118	0x3d957a25	0.07298688
119	0xbcd3c72f	-0.025851814
120	0xbd132ca7	-0.035931256
121	0x3db3fb23	0.08788135
122	0xbc14d6a8	-0.009084381
123	0x3c761f2c	0.01502208
124	0x3d32a3ca	0.043613233
125	0xbc57083c	-0.013124522
126	0xbb0dcd61	-0.0021637308
127	0xbcb957ec	-0.022624932
128	0x3d219028	0.03944412
129	0xbd1c46d7	-0.038153496
130	0xbc8159ef	-0.015789954
131	0xbc2f76fc	-0.01070952
132	0x3d825fc6	0.063659236
133	0x3bcf2573	0.006321603
134	0x3d1efb35	0.03881379
135	0x3d0877d6	0.03331741
136	0xbcca2620	-0.024676383
137	0x3d1ee2b4	0.03879042
138	0xbdb06d5c	-0.08614609
139	0x3c840fd6	0.016120832
140	0x3d819c9d	0.063287
141	0xbd8b30f4	-0.067964464
142	0xbc9a374b	-0.018825194
143	0x3d0b7922	0.034051068
144	0xbc5276cc	-0.012845706
145	0xbd06e7ee	-0.03293603
146	0xbd53eb57	-0.05173811
147	0xbd0f0621	-0.034917954
148	0x3d26d4ee	0.04073041
149	0xbc137cf5	-0.00900196
150	0x3d8548b9	0.06508011
151	0xbcf9a9be	-0.030476447
152	0x3bb4a171	0.0055124094
153	0xbce4f9e6	-0.027951192
154	0xbd675d20	-0.056485295
155	0x3cb84090	0.022491723
156	0xbc5c3da5	-0.013442432
157	0xbd520645	-0.05127551
158	0xbcf8bdfa	-0.030364025
159	0xbd6c58f1	-0.05770201
160	0xbc9c25b8	-0.019060954
161	0x3c51ba3c	0.012800749
162	0x3c5e0df6	0.013553133
163	0xbc5a524d	-0.013325286
164	0x3d2a2f43	0.04154898
165	0x3d139fee	0.036041193
166	0x3cd58ec5	0.026069054
167	0xbda0f40f	-0.078590505
168	0x3c85782a	0.01629265
169	0xbd3c18be	-0.045922033
170	0xbc51be99	-0.01280179
171	0x3c06d7e9	0.008230188
172	0x3d40665d	0.04697262
173	0xbcfc245a	-0.030779053
174	0xbc4fb625	-0.012677704
175	0x3cbbccbb	0.022924772
176	0x3bd14d45	0.006387385
177	0x3c107059	0.008815848
178	0x3ce20150	0.027588516
179	0x3d39ff07	0.04540923
180	0x3d59f782	0.053214557
181	0x3d7fb153	0.06242497
182	0xb99b5aed	-0.0002963165
183	0x3d91b88b	0.07115277
184	0xbcfe077a	-0.031009424
185	0x3cc2627d	0.023728603
186	0x3d2b2cc7	0.04179075
187	0xbc2ade08	-0.010428913
188	0xbb9c5014	-0.0047702882
189	0xbd59f481	-0.053211693
190	0x3cb17523	0.0216623
191	0xbb4f4724	-0.0031628096
192	0xbc8ef31b	-0.017449906
193	0x3d534989	0.0515838
194	0x3d5471bd	0.05186628
195	0xbc5ea600	-0.013589382
196	0x3d1d25d6	0.03836616
197	0xbc0e0375	-0.008667816
198	0xbc1578ed	-0.009123069
199	0xbbb1453e	-0.0054098656
200	0x3db9b023	0.090667985
201	0x3c0ca2c7	0.008583731
202	0xbb74997c	-0.003732293
203	0xbcd1ce54	-0.02561108
204	0x3c6f726a	0.014614681
205	0xbcbf1041	-0.02332318
206	0x3d162079	0.036652062
207	0xbd5008a6	-0.050789498
208	0xbd85161b	-0.06498357
209	0xbd2898dc	-0.041161403
210	0x3d7553d7	0.05989441
211	0xbdb5ff5b	-0.08886596
212	0x3ba4568a	0.005015199
213	0xbce2821f	-0.027649937
214	0x3d1e304a	0.03862027
215	0xbd6dd24e	-0.05806189
216	0x3ce74614	0.028231658
217	0xb9a5f118	-0.0003165088
218	0xbd5a2178	-0.053254575
219	0x3d745383	0.059649955
220	0xbccf3750	-0.02529493
221	0xbc99163d	-0.018687362
222	0xbd7bdf61	-0.061492328
223	0xbc01ed2a	-0.0079300795
224	0x3cd0ee51	0.025504263
225	0xbd1a6648	-0.0376952
226	0x3d0d2ca1	0.03446639
227	0x3cc63b64	0.024198242
228	0xbc45f69e	-0.012082724
229	0x3d04465d	0.032293666
230	0xbcbd5c5d	-0.023115331
231	0x3cb48177	0.02203439
232	0x3d3a7e24	0.045530453
233	0xbdad1eb0	-0.08453119
234	0x3d00258d	0.03128581
235	0x3d255aa6	0.040369652
236	0xbc055519	-0.008137965
237	0xbd58738e	-0.052844577
238	0xbabd63f2	-0.0014449342
239	0x3d9b2914	0.075761944
240	0xbd45a809	-0.048255954
241	0x3d746fbe	0.05967688
242	0x3b9430e3	0.0045224293
243	0xbc58a9de	-0.013224093
244	0xbd1afd34	-0.03783913
245	0xbd73cefe	-0.059523575
246	0xbd106d77	-0.035260644
247	0x3d2f13e7	0.04274359
248	0xbc7e13a5	-0.015507613
249	0xbd80ef7a	-0.062956765
250	0xbbc12eb8	-0.005895462
251	0x3d534c2e	0.051586322
252	0xbd55fea0	-0.052244782
253	0xbcba8e7b	-0.022773018
254	0xbc736433	-0.014855432
255	0x3c7234b2	0.014783071

bias f4 [256]
0	0x3d66f420	0.05638516
1	0x3d35a5e9	0.044347677
2	0xbcdf63ce	-0.02726927
3	0xbc4bdc6e	-0.012442691
4	0xbd6681bb	-0.056276064
5	0x3cff0f33	0.031135177
6	0xbb860cba	-0.0040908726
7	0xbd46dda4	-0.048551217
8	0x3c38b703	0.011274102
9	0xbd1e31dd	-0.038621772
10	0xbca22d0e	-0.019796874
11	0x3b4b7052	0.003104229
12	0x3d5b0731	0.053473655
13	0x3d12ee51	0.035871807
14	0x3d803a4f	0.062611215
15	0xbc5a46b1	-0.013322518
16	0xbb19e72f	-0.0023483743
17	0x3d7664d3	0.060154747
18	0x3d175d96	0.036954485
19	0x3d4e9e86	0.05044415
20	0xbd18938d	-0.03725009
21	0xbd5bdb25	-0.05367579
22	0xbd02ceaa	-0.03193537
23	0x3ca58284	0.020203836
24	0xbd6d5df5	-0.057950933
25	0xbbdb100e	-0.0066852635
26	0x3d49a5a9	0.04923025
27	0xbce53b66	-0.027982425
28	0x3d3d76ae	0.04625576
29	0xbd6e5944	-0.0581906
30	0xbc5db6c8	-0.013532348
31	0xbc809883	-0.015697723
32	0x3d4da04d	0.050201703
33	0x3cfaa93a	0.030598272
34	0x3d551cc1	0.052029375
35	0x3d28bcf4	0.041195825
36	0x3cfe490e	0.031040695
37	0x3cbe28c7	0.023212804
38	0xbc949ae2	-0.01814026
39	0x3cc1505e	0.023597892
40	0x3bcb9212	0.0062124813
41	0xbcb77ada	-0.022397447
42	0xbd45f9c5	-0.048333902
43	0xbd573c75	-0.05254789
44	0xbc2f07b2	-0.010682987
45	0xbc88653b	-0.016649833
46	0x38d36e10	0.00010081765
47	0x3d55da63	0.052210223
48	0x3b262151	0.0025349448
49	0xbcb4d0e3	-0.022072261
50	0xbd217a3e	-0.03942322
51	0x3d59e156	0.053193413
52	0x3b0125ab	0.001970629
53	0xbd4f1c48	-0.05056408
54	0x3d527f3b	0.051390868
55	0x3d17528c	0.036943957
56	0xbd4b1a74	-0.049585775
57	0x3d13255e	0.035924308
58	0x3c10dbd0	0.00884147
59	0x3d0e1465	0.03468742
60	0xbb30e808	-0.002699377
61	0xba9e4d75	-0.0012077527
62	0xbd40e8c4	-0.047096983
63	0x3d30ffc2	0.04321266
64	0xbc263a61	-0.010145755
65	0xbb625c97	-0.003454005
66	0x3cc3a0cd	0.023880387
67	0xbd457396	-0.048205934
68	0x3d37318a	0.04472498
69	0x3d11d351	0.035601918
70	0x3ba7e18d	0.0051233233
71	0x3b71d4f9	0.0036900623
72	0x3d6c3c48	0.057674676
73	0x3ccfbde8	0.025359109
74	0xbc0d99c4	-0.008642618
75	0xbd35024b	-0.04419164
76	0x3d1e7f71	0.038695756
77	0xbd2c51d9	-0.042070244
78	0xbd4e62ba	-0.05038712
79	0xbc040762	-0.008058401
80	0x3c15d9b5	0.009146144
81	0x3be1a28a	0.0068858312
82	0xbd006f21	-0.03135598
83	0xbb7664b2	-0.003759664
84	0xbd67d726	-0.056601666
85	0x3bf5851c	0.0074926745
86	0x3d4508cd	0.048104096
87	0xbc9b0e2e	-0.01892766
88	0xbbe7a6c2	-0.0070694396
89	0x3d674b73	0.05646844
90	0xbc38afca	-0.01127238
91	0x3d2db6a3	0.042410504
92	0x3d39872b	0.04529492
93	0x3d299c76	0.04140898
94	0x3cf323e8	0.029680207
95	0x3b75e72e	0.0037521827
96	0xbc1942d0	-0.009354308
97	0xbca1fe41	-0.019774558
98	0xbc9d36de	-0.019191202
99	0xbcb013f9	-0.021493899
100	0xbc0997b5	-0.008397986
101	0xbd23515d	-0.039872516
102	0xbd61f1b3	-0.055162143
103	0x3d4f6cf1	0.050641004
104	0x3d0f15e0	0.03493297
105	0xbbcb8437	-0.0062108296
106	0x3d600345	0.054690618
107	0xbb6c4e98	-0.0036057588
108	0xbd0a69c6	-0.03379228
109	0x3cee1a2a	0.02906521
110	0x3c916fb8	0.017753467
111	0x3d030b5f	0.031993266
112	0x3a299378	0.0006468813
113	0x3cc49608	0.023997322
114	0xbd23f465	-0.040027995
115	0x3c8a08a2	0.01684982
116	0x3be993de	0.007128223
117	0x3bacc9ca	0.0052730786
118	0x3c68cd05	0.014209037
119	0x3d391742	0.045188196
120	0xbd39fd5e	-0.045407645
121	0x3d0d62b1	0.034517948
122	0x3baa53dc	0.005197985
123	0xbc5b66f0	-0.013391241
124	0x3c110f64	0.008853767
125	0x3d13ed42	0.03611494
126	0x3d3b0cdc	0.04566656
127	0x3c9fe866	0.019519996
128	0x3ba299c6	0.004962179
129	0x3d7afe9b	0.061277967
130	0x3c0bdc20	0.008536369
131	0xbd2d6e67	-0.042341616
132	0x3d34de59	0.04415736
133	0x3d3abb51	0.045588795
134	0xbd3cc3d0	-0.04608518
135	0xbd2a997a	-0.041650273
136	0xbc80b931	-0.015713306
137	0xbd1793d2	-0.037006207
138	0xbd5c125f	-0.053728458
139	0x3cf09427	0.02936752
140	0xbcfcbc4b	-0.030851504
141	0xbc5114cd	-0.012761307
142	0xbd54155b	-0.05177818
143	0xbc854733	-0.016269302
144	0x3d6bc06a	0.057556547
145	0x3d6b0b6a	0.057383932
146	0x3c0c39a0	0.008558661
147	0x3cc67128	0.024223879
148	0x3c6451ef	0.01393555
149	0x3d65dd1d	0.056119073
150	0xbd2f79c7	-0.042840745
151	0x3c76e189	0.01506842
152	0xbc387b95	-0.011259933
153	0xbd14e10d	-0.036347438
154	0x3c60f98b	0.013731371
155	0x3d2aaec6	0.041670583
156	0x3c347631	0.011014507
157	0xbcceb5c3	-0.025233155
158	0xbb7a9fa9	-0.0038242138
159	0xbc73617e	-0.014854787
160	0x3d54b276	0.051928006
161	0x3c9b7ccc	0.018980406
162	0xbd52a5c2	-0.05142761
163	0xbcfede24	-0.031111784
164	0xbd503710	-0.05083376
165	0x3bae2aaf	0.005315147
166	0x3cbe864c	0.023257397
167	0xbcf07a06	-0.02935506
168	0x3cb26975	0.021778801
169	0x3cca2800	0.024677277
170	0xbbc2113c	-0.0059224647
171	0xbcca570a	-0.024699707
172	0xbd412b06	-0.04716017
173	0x38e270c0	0.00010797521
174	0x3d292d84	0.041303173
175	0x3d344ca0	0.044018388
176	0xbc667223	-0.014065298
177	0x3d160066	0.036621474
178	0x3d831208	0.063999236
179	0xbcf25c9f	-0.02958518
180	0x3c853dc4	0.016264804
181	0xbd016b06	-0.031596206
182	0xbd39b2ac	-0.04533641
183	0x3d395e70	0.04525608
184	0x3af1aaa8	0.00184377
185	0x3d60c87a	0.05487869
186	0xbbc06508	-0.005871419
187	0x3d3058ce	0.04305344
188	0x3cfd79ce	0.03094187
189	0xbad0cee8	-0.0015930803
190	0x3b98cbc4	0.0046629626
191	0x3d6aa040	0.057281733
192	0x3d1cced0	0.03828317
193	0x3bb8333a	0.005621341
194	0x3ce3a808	0.027790084
195	0xbd090bea	-0.033458628
196	0x3d578f96	0.05262717
197	0x3966b4d8	0.00022001879
198	0x3bedd430	0.0072579607
199	0x3c96bef1	0.018401595
200	0xbcd79789	-0.026317375
201	0xbd26dadd	-0.040736068
202	0x3c4adcde	0.01238176
203	0x3a64ba06	0.00087252294
204	0xbd029607	-0.03188136
205	0xbd4bb014	-0.049728468
206	0x3d3a9d18	0.045559973
207	0x3b6f0fbe	0.003647789
208	0x3c89100b	0.016731283
209	0x3d4aeb6a	0.049540915
210	0xbc12fddf	-0.00897166
211	0xbd504a2d	-0.05085199
212	0xbd1b8d28	-0.037976414
213	0xbcccfbec	-0.02502247
214	0xbd70947f	-0.058735367
215	0x3c0d1440	0.008610785
216	0x3c6df873	0.014524567
217	0xbd6858bc	-0.05672525
218	0x3cf4ddea	0.029890973
219	0xbd2dfa54	-0.04247506
220	0x3d4e999d	0.050439466
221	0xbcdd764c	-0.027033947
222	0x3d7e0e8e	0.0620256
223	0xbd229fe2	-0.039703257
224	0xbd12987d	-0.035789955
225	0x3bd539ba	0.0065071257
226	0xbd432e41	-0.047651533
227	0xbbc5e653	-0.0060394197
228	0x3d1e4595	0.038640577
229	0xbc3571f7	-0.011074535
230	0x3d25d6a2	0.040487893
231	0x3b870e09	0.004121546
232	0x3d430cee	0.047619753
233	0x3cb5a018	0.022171065
234	0xbd5a850f	-0.05334955
235	0x3d255538	0.040364474
236	0xbd18e8ac	-0.03733127
237	0xbb125fa7	-0.0022334845
238	0x3c50e7b9	0.0127505595
239	0xbb15cb00	-0.0022856593
240	0x3d0e5c08	0.034755737
241	0xbcf9397b	-0.030422917
242	0x3d06ddac	0.032926247
243	0xbbe3d034	-0.00695231
244	0xbd2ba121	-0.04190171
245	0x3d29ac80	0.041424274
246	0x3d5a214c	0.05325441
247	0x3ca5dad7	0.020245953
248	0xbc4898bb	-0.012243445
249	0x3d6efb13	0.05834491
250	0x3c34e623	0.011041197
251	0x3d06d934	0.032921985
252	0x3d64af9c	0.055831537
253	0xbcfea5b0	-0.031084865
254	0xbd014694	-0.03156145
255	0x3c0d3b22	0.008620055

weight f4 [256, 256]
0	0xbcc29488	-0.023752466
1	0xbd72b463	-0.05925406
2	0x3d68c595	0.056829054
3	0xbda76af6	-0.08174698
4	0xbd882c7f	-0.06649112
5	0xbc3d998e	-0.011572255
6	0xbd163c43	-0.036678564
7	0x3d8c6c2e	0.06856571
8	0x3c9522f3	0.018205142
9	0xbd8e9ab1	-0.06963099
10	0x3cf2bf44	0.029632218
11	0x3c9b053a	0.01892339
12	0x3c8ad46e	0.016946997
13	0x3d7adcf4	0.061245874
14	0x3d19bd69	0.03753415
15	0xbce2c077	-0.027679665
16	0xbd1ecaa5	-0.038767476
17	0x3d0cb350	0.034350693
18	0x3d083abf	0.03325915
19	0x3d2d4284	0.042299762
20	0x3d900cc1	0.070336826
21	0xbce60b9f	-0.028081713
22	0x3d48c6d7	0.049017753
23	0xbad8e9a0	-0.0016549118
24	0x3c5507cb	0.013002346
25	0xbc2897ae	-0.0102900695
26	0x3c5fe3e9	0.013665178
27	0x3db1ac18	0.086754024
28	0xbd5e32aa	-0.054247536
29	0xbd77f237	-0.06053373
30	0xbbd446f5	-0.0064781853
31	0x3d2a6885	0.041603584
32	0x3d898a25	0.06715802
33	0xbd667423	-0.0562631
34	0xbb40a8fc	-0.0029397598
35	0xbd1f34ba	-0.038868643
36	0xbd9e0d43	-0.07717373
37	0x3b499a80	0.0030762255
38	0xbd3c3568	-0.04594937
39	0xbcc41614	-0.023936309
40	0x3d34fc0e	0.04418569
41	0xbcb9798c	-0.022640966
42	0xbcdec2bf	-0.027192472
43	0x3c925753	0.017863905
44	0x3d3fa418	0.04678735
45	0x3b63dc8b	0.0034768905
46	0xbd11479d	-0.035468686
47	0x3d8250b9	0.06363053
48	0x3d1b8a2c	0.037973568
49	0x3ccb661e	0.024828967
50	0xbd97a16e	-0.07403837
51	0x3d000cdd	0.031262267
52	0x3c808450	0.015688092
53	0x3cc4309d	0.023948962
54	0xbc29dc5e	-0.010367481
55	0x3d41b4af	0.047291454
56	0x3b87bbb6	0.00414225
57	0x3c2b11e8	0.010441281
58	0xbd8782c5	-0.06616739
59	0x3aab1b2d	0.0013054364
60	0xbcf46c95	-0.029836932
61	0x3d9d2429	0.076729126
62	0xbd54f490	-0.051991045
63	0xbce460a2	-0.02787811
64	0x3c503845	0.012708728
65	0x3c6905d4	0.014222581
66	0xbc157928	-0.009123124
67	0x3bd9695e	0.006634875
68	0x3d09bdfe	0.033628456
69	0xbcaea697	-0.02131967
70	0x3baf4915	0.005349288
71	0x3c4bce16	0.012439271
72	0x3b444ca0	0.0029952899
73	0x3bfa1fe5	0.0076331967
74	0x3da04b40	0.07826853
75	0x3d26403b	0.0405886
76	0x3d50608d	0.050873328
77	0x3db14fe9	0.0865782
78	0x3c00dc7f	0.00786507
79	0xbd7c10d4	-0.061539486
80	0xbd06fbaa	-0.03295485
81	0xbd96c8bf	-0.07362508
82	0x3d0c8a53	0.034311604
83	0xbd5d1d96	-0.053983293
84	0xbd6f3941	-0.05840421
85	0xbd466637	-0.048437323
86	0xbc66f091	-0.014095441
87	0x3d1b892e	0.03797262
88	0xbc5d197c	-0.0134948455
89	0x3d2a9597	0.041646566
90	0x3bd2a566	0.0064284084
91	0xbd0eb257	-0.034838047
92	0x3c8c3576	0.017115336
93	0x3c91a90c	0.017780803
94	0x3d99b907	0.07505994
95	0x3c7508a7	0.014955676
96	0x3be66cd3	0.007032016
97	0x3d693aab	0.056940716
98	0xbd1f7d6a	-0.038937964
99	0x3cafb7e2	0.021449987
100	0x3d0ddf94	0.03463705
101	0x3cc43575	0.023951272
102	0x3d187c13	0.0372277
103	0xbc55ac5c	-0.013041582
104	0xbd595a89	-0.053064857
105	0xbc41fdeb	-0.011840324
106	0x3d77b729	0.06047741
107	0x3c4b65e7	0.012414432
108	0xbd066066	-0.032806776
109	0xbca7942e	-0.0204564
110	0x3b376c0e	0.002798799
111	0x3c291f75	0.010322441
112	0x3ce75578	0.028238997
113	0xbc96e433	-0.01841936
114	0xbca12fa2	-0.019676033
115	0xbc5e13a3	-0.013554486
116	0xbcc7ee2d	-0.024405563
117	0xbd58fe41	-0.05297685
118	0xbcfb6969	-0.030689912
119	0x3a02914e	0.00049807585
120	0xbd205bc5	-0.03915002
121	0x3c3c0466	0.011475658
122	0x3d879bac	0.06621489
123	0xbcfee5ea	-0.031115491
124	0xbc8f322a	-0.017479975
125	0xbd88e988	-0.066851676
126	0xbc8a4f1c	-0.016883425
127	0x3c7a26b8	0.01526802
128	0xbc76648f	-0.0150386235
129	0xbd1d59cd	-0.03841572
130	0x3d2d735d	0.042346347
131	0x3c17a351	0.009255246
132	0x3d248c47	0.04017284
133	0x3d0dacde	0.034588687
134	0x3dbbf8c4	0.09178308
135	0xbd309825	-0.043113846
136	0x3cf01b4d	0.029309893
137	0xbccd12ce	-0.02503338
138	0xbc2de5e2	-0.01061389
139	0x3d020a60	0.031748176
140	0xbcac533f	-0.021035789
141	0xbc05c382	-0.0081642885
142	0x3c5a8e01	0.01333952
143	0xbd74c105	-0.05975439
144	0x3da19e4f	0.07891523
145	0xbdaddaf9	-0.08489031
146	0x3c5d0cb3	0.013491797
147	0x3c8733f9	0.016504275
148	0xbd49d1dc	-0.049272403
149	0xbbd7542b	-0.006571313
150	0x3d2fff41	0.04296804
151	0x3ce25536	0.027628522
152	0x3c71bf08	0.014755018
153	0xbd206d60	-0.039166808
154	0xbc5e05ee	-0.013551218
155	0xbc32d6d9	-0.0109154815
156	0x3da1b888	0.07896525
157	0xbd3888b5	-0.04505225
158	0xbd06e78f	-0.032935675
159	0x3d3ac30c	0.045596167
160	0x3b2d9fa1	0.0026492851
161	0x3c9d0377	0.019166691
162	0x3c59d20c	0.013294708
163	0xbd430e58	-0.0476211
164	0x3d27c12c	0.040955707
165	0xbda4e8d5	-0.08052222
166	0xbd2b1028	-0.041763455
167	0x3c1de48d	0.00963701
168	0xbbce6043	-0.0062980964
169	0xbb10994c	-0.0022064028
170	0x3db7024a	0.089359835
171	0xbd330bd8	-0.043712467
172	0x3d66067c	0.056158528
173	0x3d13fd1c	0.036130056
174	0x3d5af475	0.05345579
175	0xbd241636	-0.040060245
176	0x3dada3e2	0.08478524
177	0xbabb2871	-0.001427902
178	0x3d48f336	0.04906007
179	0x3d88481d	0.066543795
180	0x3d3de0a2	0.046356805
181	0xbc55054b	-0.01300175
182	0xbd038131	-0.03210563
183	0xbda80bd5	-0.08205382
184	0xbc528213	-0.012848395
185	0x3c9a8fee	0.01886746
186	0x3d2bc100	0.041932106
187	0x3d409045	0.047012586
188	0x3c881e95	0.016616145
189	0xbd459557	-0.048238125
190	0xbd6857ff	-0.056724545
191	0x3d014345	0.031558294
192	0x3c858df2	0.016303036
193	0xbd81b5b0	-0.06333482
194	0xbc70bc3d	-0.014693317
195	0x3d413958	0.047173828
196	0xbcff55f3	-0.031168913
197	0xbc920bdf	-0.017827926
198	0x3c2b59e7	0.010458446
199	0x3b1b9350	0.0023738928
200	0xbdc05ab3	-0.093922995
201	0x3ade6f87	0.0016970494
202	0x3d021070	0.031753957
203	0x3a8a81e9	0.0010567281
204	0x3d7608c2	0.060066946
205	0x3d613fc9	0.05499247
206	0x3c8a6cff	0.016897677
207	0x3d3c473d	0.045966376
208	0x3d1e447e	0.038639538
209	0x3cd48b36	0.025945287
210	0x3d0c6f48	0.034285814
211	0x3d1b40d8	0.037903637
212	0xbd8c3d6d	-0.068476535
213	0xbd8965eb	-0.067088924
214	0x3d1e0472	0.038578458
215	0x3d210572	0.039311834
216	0x3cd20696	0.025637906
217	0xbc3cdc7e	-0.011527179
218	0xbca94882	-0.020664457
219	0x3d21c4f5	0.039494473
220	0x3cc20e8f	0.023688583
221	0x3d932643	0.07185032
222	0x3d15fdd2	0.036619015
223	0xbd05ebfa	-0.032695748
224	0xbc046601	-0.00808096
225	0xbcdb6d03	-0.02678538
226	0x3d09b853	0.03362305
227	0xbc8db1a4	-0.01729662
228	0x3d0a4053	0.03375275
229	0x3d00e489	0.031467948
230	0x3c9684e8	0.018373922
231	0xbcb4aba1	-0.022054495
232	0x3d772aea	0.06034366
233	0xbcfd3959	-0.030911135
234	0xbd035721	-0.032065514
235	0xbc46c950	-0.012132958
236	0xbcfaeced	-0.030630553
237	0x3d67b0ab	0.056564968
238	0x3ae17d11	0.001720341
239	0x3c1e33d2	0.00965591
240	0x3d274ba3	0.040843617
241	0x3bc7ece2	0.0061012367
242	0x3b4f7213	0.0031653687
243	0x3d909576	0.070597574
244	0xbabe3749	-0.0014512326
245	0xbd8ac550	-0.067759156
246	0xbc02206a	-0.007942298
247	0xbce7731c	-0.02825313
248	0xbb8e86ba	-0.0043495568
249	0x3b08e14f	0.0020886248
250	0x3ca687e4	0.02032847
251	0xbd0322b1	-0.032015506
252	0xbd7d9193	-0.06190641
253	0xbd99de2c	-0.07513079
254	0x3c8db041	0.017295958
255	0x3a2d3f7c	0.0006608886

bias f4 [256]
0	0x3c4fa56f	0.01267372
1	0xbd19fef2	-0.03759665
2	0xbcae2d97	-0.021261973
3	0xbd294469	-0.041325007
4	0xbc84459e	-0.016146477
5	0x3b9328a2	0.004490928
6	0x3d3d09c0	0.046151876
7	0xbca75fa8	-0.020431355
8	0x3d34969f	0.044088956
9	0x3d31d89f	0.043419477
10	0x3c9d2629	0.019183235
11	0x3c43e786	0.011957055
12	0x3d168c6c	0.03675501
13	0x3d84e505	0.064889945
14	0x3d8658eb	0.065599285
15	0x3cfd1d40	0.030897737
16	0xbb5619d2	-0.0032669199
17	0x3b1c13fa	0.0023815618
18	0xbc953b1c	-0.018216662
19	0x3d0109b6	0.0315034
20	0xbd3fe61e	-0.046850316
21	0xbc35298a	-0.011057267
22	0xbc04a7c4	-0.008096639
23	0x3c0f6b18	0.0087535605
24	0x3d5d5bb7	0.054042544
25	0xbcfde450	-0.030992657
26	0x3d6e8bd2	0.05823881
27	0xbd0360f7	-0.032074895
28	0xbcfef7e3	-0.031124061
29	0x3d4cef12	0.050032683
30	0x3c65e34a	0.014031241
31	0xbc70a3eb	-0.014687519
32	0xbcddd09e	-0.027077015
33	0x3b26a649	0.0025428704
34	0xbcf573a9	-0.029962378
35	0x3d66cf63	0.056350123
36	0x3cf5cbf6	0.030004483
37	0x3cd4481e	0.025913294
38	0xbd693d3b	-0.05694316
39	0x3cf8a8a6	0.030353855
40	0xbc2c3fa5	-0.010513221
41	0xbd40306e	-0.046921186
42	0xbb80c1be	-0.003929346
43	0x3d0795a4	0.033101693
44	0x3d09d95b	0.033654552
45	0xbbb8d602	-0.005640746
46	0x3a30a595	0.0006738541
47	0xbd5c695a	-0.05381141
48	0xbd569654	-0.052389458
49	0xbd454828	-0.048164517
50	0x3d1b266d	0.037878443
51	0x3bb139df	0.00540851
52	0xbd2c5bcb	-0.042079728
53	0x3cd579e9	0.026059108
54	0x3cda073f	0.026614783
55	0xbcf0e9eb	-0.029408416
56	0xbca23179	-0.019798981
57	0x3cda3d90	0.026640683
58	0x3d5d1b55	0.053981144
59	0x3d7c2276	0.061556302
60	0x3d255ad6	0.04036983
61	0x3c2227c8	0.00989718
62	0xbd4442ca	-0.047915258
63	0xbd3d519c	-0.046220407
64	0x3c979e84	0.018508203
65	0xbbfc1cbe	-0.007693856
66	0xbbffa6be	-0.0078018596
67	0x3cb178ee	0.02166411
68	0xbd0c6a79	-0.034281228
69	0x3d6d36fb	0.05791376
70	0x3d448c89	0.047985587
71	0xbd1196c6	-0.03554418
72	0x3c436af3	0.011927354
73	0xbc74894e	-0.014925314
74	0x3ce38b7d	0.027776474
75	0x3d4f52b9	0.050616
76	0xbcc23a06	-0.023709308
77	0x3d83e042	0.06439258
78	0x3d236d7e	0.03989934
79	0xbcae3047	-0.021263255
80	0x3ce46e49	0.02788462
81	0x3ce43953	0.027859366
82	0xbcaeac4b	-0.02132239
83	0xba9b9e48	-0.0011872733
84	0xbd39c282	-0.045351513
85	0x3b49e160	0.00308045
86	0x3d4ee262	0.050508864
87	0xbcbf4789	-0.02334954
88	0x3aac13b5	0.0013128432
89	0xbc231694	-0.0099541135
90	0xbb472e90	-0.0030392744
91	0x3c6eec84	0.014582757
92	0xbd4f2f73	-0.05058236
93	0x3d159145	0.036515493
94	0xbcf101d9	-0.029419826
95	0xbcc74c32	-0.024328325
96	0xbd22b806	-0.03972628
97	0x3d5d3cf0	0.054013193
98	0xbd0fc42b	-0.03509919
99	0x3c4159f5	0.011801233
100	0x3d0be8cf	0.03415757
101	0xbd62451a	-0.05524168
102	0xbd75c0fe	-0.059998505
103	0x3b8ac03b	0.0042343414
104	0xbbbeaa12	-0.005818614
105	0x3d1d8d78	0.038464993
106	0xbbe22799	-0.006901693
107	0x3c825d65	0.015913675
108	0xbc14f687	-0.00909198
109	0xbac03f52	-0.0014667308
110	0x3ccaa456	0.024736565
111	0x3b288e4a	0.0025719577
112	0x391fa3f5	0.000152245
113	0x3c01beaa	0.007918993
114	0xbc19871b	-0.009370591
115	0xbc40758c	-0.011746775
116	0xbaae327b	-0.0013290191
117	0x3d6d8c0d	0.05799489
118	0xbd4b4c6a	-0.04963342
119	0xbd3be7bd	-0.0458753
120	0xbd07cb4a	-0.033152856
121	0xbc0fd846	-0.008779591
122	0x3b419f3a	0.002954437
123	0xbcd2af0d	-0.025718236
124	0x3bbe560e	0.0058085984
125	0x3c38fb67	0.011290408
126	0x3c576ed5	0.013148983
127	0x3cdb5492	0.026773725
128	0x3cd23e19	0.025664376
129	0x3cc24af8	0.023717389
130	0xbd473cd2	-0.048641987
131	0x3d481c49	0.0488551
132	0xbcad3892	-0.021145139
133	0xbcad79bb	-0.02117621
134	0xbbeb2013	-0.0071754544
135	0x3d167022	0.036728032
136	0xbc2f362e	-0.01069407
137	0x3c809c6a	0.015699584
138	0xbbe093ed	-0.0068535716
139	0x3d199df5	0.037504155
140	0xbd44ccb3	-0.04804678
141	0x3c56c6f6	0.013108959
142	0x3d095394	0.033526972
143	0x3d505487	0.05086186
144	0xbcaf175b	-0.021373441
145	0x3d4b48ac	0.049629852
146	0xbcfeb52e	-0.031092253
147	0xbc319049	-0.010837623
148	0x3d20aaa2	0.039225228
149	0xbb8022cb	-0.0039103976
150	0xbd44821a	-0.047975637
151	0xbca8d956	-0.020611446
152	0x3d6b4ba7	0.057445195
153	0xbd14d44b	-0.03633527
154	0xbd3a4ad6	-0.045481525
155	0xbd435a3f	-0.047693487
156	0xbb0d7006	-0.0021581664
157	0x3d21526f	0.039385255
158	0xbca8786f	-0.02056524
159	0xbd6c1ed0	-0.057646573
160	0x3b99f0ac	0.00469788
161	0x3c098ec8	0.008395858
162	0xbc14dffb	-0.009086604
163	0x3d4792f4	0.04872413
164	0x3c8e580a	0.017375965
165	0x3c4137a1	0.011793048
166	0x3d7a0e1f	0.061048623
167	0x3d4bd1ec	0.049760744
168	0x3c392906	0.011301285
169	0x3cccdeae	0.025008526
170	0xbd50a048	-0.050934106
171	0x3d100751	0.035163227
172	0xbd263f0d	-0.040587474
173	0xbc978277	-0.018494828
174	0xbc6ebf68	-0.014572002
175	0xbc688699	-0.014192247
176	0x3bd37993	0.0064537018
177	0x3cea7d54	0.028624214
178	0x3cde7c75	0.027158955
179	0x3d47e711	0.048804346
180	0x3d739547	0.059468534
181	0x3d882465	0.06647567
182	0xbcd4a089	-0.025955455
183	0x3d1d09ef	0.03833955
184	0xbd479a92	-0.048731394
185	0xbd06dbc1	-0.032924417
186	0x3c313f38	0.010818295
187	0xbd3dc690	-0.046331942
188	0x3d54022e	0.05175989
189	0xbc9a796d	-0.018856728
190	0x3c09e059	0.008415305
191	0xbcd33fb7	-0.025787218
192	0x3c2830c5	0.010265534
193	0xbd0efef4	-0.03491111
194	0x3d24a3c6	0.04019525
195	0xbb0462e0	-0.0020200536
196	0x3d0f7d79	0.03503177
197	0x3be6c764	0.007042812
198	0xbd854f4a	-0.06509264
199	0xbd276fe2	-0.040878184
200	0x3d71b8eb	0.059014242
201	0xba9e59cb	-0.0012081204
202	0x3d32552a	0.04353825
203	0x3c95b102	0.01827288
204	0xbd552605	-0.05203821
205	0xbc920476	-0.017824393
206	0x3d5c8809	0.05384067
207	0x3b1257ee	0.0022330242
208	0xbbed418d	-0.0072404803
209	0x3d584c96	0.052807413
210	0xbd15513b	-0.03645442
211	0xbd3b840a	-0.04578022
212	0xbcd3e034	-0.025863744
213	0x3d2a63ca	0.041599073
214	0xbcc86c10	-0.02446559
215	0x3d59ea00	0.053201675
216	0xbd1a1e0b	-0.037626307
217	0xbc1c6c33	-0.009547281
218	0x3d55e3d8	0.05221924
219	0xbd1cc209	-0.038270984
220	0xbd675159	-0.056474064
221	0xbd326990	-0.043557703
222	0x3d62fc5c	0.05541645
223	0xbd4af969	-0.049554262
224	0x3c99b658	0.018763706
225	0xbd9c72ef	-0.07639109
226	0xbd1c2f82	-0.038131244
227	0xbc74e6bd	-0.01494759
228	0xbcd11901	-0.025524618
229	0x398fb45c	0.00027409464
230	0x3bd38713	0.006455311
231	0xbcf3d969	-0.029766755
232	0xbd04d788	-0.03243211
233	0xbd530651	-0.051519696
234	0x3d39b3b2	0.045337386
235	0x3b04cae6	0.0020262538
236	0xbc858aef	-0.0163016
237	0xbd3eb2be	-0.04655718
238	0x3d337c8a	0.04381994
239	0xbcf31b9f	-0.029676257
240	0x3d2e8673	0.04260869
241	0xbd1ac179	-0.037782166
242	0x3cdda9c3	0.027058488
243	0xbd5f42bd	-0.054507006
244	0x3d6a1c7a	0.057156064
245	0xbc232826	-0.009958303
246	0x3a5a6ee6	0.0008332565
247	0x3d760736	0.06006547
248	0x3c42b716	0.011884471
249	0x3cd3e68f	0.025866775
250	0xbc874fda	-0.016517568
251	0x3d445f58	0.04794249
252	0xbcffe4b6	-0.031236988
253	0xbd479951	-0.0487302
254	0x3bb2fd8d	0.0054623545
255	0xbce291ce	-0.027657416

weight f4 [128, 256]
0	0xbbcb06b0	-0.0061958656
1	0xbcc05926	-0.02348001
2	0xbcc046c2	-0.02347124
3	0xbd366f30	-0.04453963
4	0xbca941b2	-0.020661209
5	0xbd5d50d3	-0.054032158
6	0x3c8937bf	0.016750215
7	0x3ae95537	0.0017801885
8	0xbda50e24	-0.08059338
9	0xbc858dc9	-0.01630296
10	0xbbaad115	-0.005212913
11	0xbc3085f8	-0.010774128
12	0x3d8e7656	0.069561645
13	0xbcd18011	-0.025573762
14	0xbd228cb5	-0.03968497
15	0x3c62a175	0.01383244
16	0xbc00ac97	-0.007853649
17	0xbb0d9617	-0.0021604353
18	0xbc155cea	-0.009116391
19	0xbce30fc4	-0.027717479
20	0xbd82fc8e	-0.06395827
21	0x3cc0b363	0.023523038
22	0x3d94af67	0.07260018
23	0x3d9ccfa6	0.07656793
24	0x3c0c4073	0.008560288
25	0xbd100117	-0.03515729
26	0x3c918272	0.017762396
27	0x3c8b083f	0.016971705
28	0x3d42fca9	0.047604237
29	0x3bea1cf8	0.0071445666
30	0xbd9871b5	-0.07443563
31	0xbc293f13	-0.0103299795
32	0xbd3f4da6	-0.04670491
33	0xbb0c5ffb	-0.0021419514
34	0xbc8d1aa7	-0.017224623
35	0xbd1b9f4c	-0.037993714
36	0x3c9f85d8	0.019473001
37	0xbd400687	-0.046881225
38	0xbd1a6646	-0.03769519
39	0xbb702b35	-0.0036646847
40	0xbc34f9a9	-0.011045852
41	0xbd93bd44	-0.07213834
42	0xbd931644	-0.07181981
43	0x3c436382	0.01192558
44	0x3d4849ca	0.048898496
45	0x3d3d8aa0	0.04627478
46	0xbd28f017	-0.041244593
47	0x3c4b15d0	0.012395337
48	0x3cd9485e	0.026523765
49	0xbc8901ea	-0.016724546
50	0x3cc188aa	0.023624737
51	0xbd4e931b	-0.05043326
52	0xbd97a1af	-0.074038856
53	0xbd81a35a	-0.06329985
54	0xbccbee10	-0.02489379
55	0x3d087520	0.033314824
56	0x3d39ab3c	0.045329317
57	0x3be5d93a	0.007014421
58	0xbd92c54e	-0.07166539
59	0x3d23135f	0.039813396
60	0xbd2a33ef	-0.041553434
61	0x3cb7c7dd	0.02243417
62	0xbd5f5828	-0.05452743
63	0x3cc62ca4	0.024191208
64	0x3d812c01	0.06307221
65	0x3d779cfb	0.060452443
66	0x3daf4080	0.08557224
67	0xbc995fe7	-0.018722488
68	0xbd736a65	-0.059427638
69	0xbc9342b9	-0.017976152
70	0x3cbdc8dd	0.023167068
71	0x3cc49695	0.023997584
72	0x3ccde553	0.025133764
73	0xbd3107f9	-0.043220494
74	0xbcafe9c8	-0.02147378
75	0xbd10854b	-0.035283368
76	0x3d8b94bb	0.068154775
77	0xbd00b65d	-0.031423915
78	0xbd203651	-0.0391143
79	0x3d3b9a09	0.045801196
80	0xbae56478	-0.0017501255
81	0xbcbc1fe6	-0.02296443
82	0x3d1cd0c9	0.03828505
83	0x3da99e8a	0.08282192
84	0x3d36473f	0.04450154
85	0xba5fa752	-0.00085317076
86	0xba55240e	-0.0008130678
87	0xbcbe8986	-0.023258936
88	0xbc54f15e	-0.012997
89	0xbd131fe8	-0.0359191
90	0xbcc5f64d	-0.024165297
91	0xbd2a5b90	-0.041591227
92	0xbd4ac1e6	-0.049501322
93	0xbd121380	-0.035663128
94	0xbd3a3bbf	-0.045467135
95	0xbd8953e6	-0.067054555
96	0xbacd323b	-0.0015655229
97	0x3d8b8eb9	0.068143316
98	0xbd82d9ed	-0.06389222
99	0x3d145216	0.036211096
100	0x3d6d01cb	0.057863038
101	0xbd5c98d2	-0.05385668
102	0x3d34555d	0.04402672
103	0x3ce2dacb	0.02769222
104	0x3da1d487	0.079018645
105	0x3d82810c	0.0637227
106	0xbc60eda8	-0.013728537
107	0xba217d51	-0.0006160336
108	0xbd2a995a	-0.041650154
109	0xbd553343	-0.05205084
110	0xbd901cc3	-0.07036736
111	0x3ba64154	0.0050737057
112	0x3c8c8648	0.017153874
113	0x3d28c440	0.041202784
114	0xbd1c8171	-0.038209382
115	0x3d9018fc	0.070360154
116	0x3c68774c	0.014188599
117	0xbc9c24c0	-0.019060493
118	0xbd6aa937	-0.057290282
119	0xbc163f9e	-0.009170441
120	0x3ca43928	0.020046785
121	0x3c13a20a	0.009010801
122	0xbc3647e8	-0.011125542
123	0xbd1370c3	-0.03599621
124	0x3d745801	0.05965424
125	0xbd965f75	-0.07342426
126	0x3d041921	0.032250527
127	0xbd03f14b	-0.032212537
128	0x3ce368e7	0.027759982
129	0xbd150387	-0.036380317
130	0xbd6b9e8f	-0.05752426
131	0x3b38dae9	0.0028206652
132	0x3b84006f	0.004028372
133	0x3c9e9683	0.019358879
134	0x3d53b47b	0.05168579
135	0xbc7fcf38	-0.01561337
136	0x3c86819e	0.016419228
137	0x3d1bcff7	0.038040128
138	0x3b534b44	0.0032240907
139	0xbd0f3839	-0.034965727
140	0x3ce638a7	0.028103186
141	0x3da8d2b9	0.08243317
142	0x3d1992c2	0.037493475
143	0x3cecdb12	0.028913055
144	0x3da34f19	0.07974071
145	0xbcedd1e6	-0.029030751
146	0xbbc43f61	-0.0059890007
147	0xbc9b69e0	-0.018971384
148	0x3d753577	0.05986544
149	0x3d360027	0.04443374
150	0x3ca3567a	0.019938696
151	0x3d3a950a	0.04555229
152	0x3d2f7312	0.04283435
153	0xbd21dc66	-0.03951683
154	0x3cd526f6	0.026019555
155	0x3c983a30	0.018582433
156	0x3c82628d	0.015916133
157	0x3d8898bc	0.06669757
158	0x3d8a60b0	0.06756723
159	0xbd8b2873	-0.067948245
160	0x3da670dd	0.08126996
161	0xbc05839d	-0.008149055
162	0xbcab9568	-0.020945266
163	0x3d81cbb5	0.06337682
164	0x3d6fc456	0.05853685
165	0x3d904fdc	0.07046482
166	0x3d9fc012	0.078003064
167	0x3c8f41d8	0.017487451
168	0x3cdec538	0.02719365
169	0xbd1194ba	-0.035542227
170	0xbcf8dd0e	-0.030378845
171	0x3d88c259	0.06677694
172	0xbd1aa80d	-0.037757922
173	0xbd510d65	-0.051038165
174	0x3d554ed4	0.05207713
175	0x3d07a0cd	0.033112336
176	0x3d8652b9	0.06558747
177	0x3d80bc64	0.06285933
178	0xbd070239	-0.032961104
179	0x3d81a13e	0.06329583
180	0xbcfd7e61	-0.030944051
181	0x3c80d1ce	0.015725043
182	0x3c19cb0e	0.009386791
183	0xbcc65c03	-0.024213796
184	0xbc9741b0	-0.01846394
185	0x3b125178	0.0022326391
186	0xbd43dd8e	-0.047818713
187	0xbd9c09e3	-0.07619073
188	0x3ce3b530	0.027796358
189	0xbb2ce31b	-0.0026380483
190	0xbd9b44a7	-0.07581454
191	0x3ca243c4	0.019807704
192	0x3ce9cf5a	0.028541256
193	0xbc9be974	-0.019032218
194	0x3d2083c2	0.039188154
195	0xbd91e9ff	-0.07124709
196	0xbc840489	-0.016115444
197	0xbd19a455	-0.037510235
198	0x3d942895	0.07234303
199	0x3c0a903d	0.008457241
200	0xbd376ddc	-0.044782504
201	0x3d16ffdd	0.036865104
202	0x3d4e584c	0.050377175
203	0x3d7ef920	0.062249303
204	0x3c7c8dc9	0.015414664
205	0xbc8bd0b9	-0.0170673
206	0xbc40cdc1	-0.011767806
207	0x3c9edded	0.019392932
208	0xbd689eac	-0.056791946
209	0xbb7f382c	-0.0038943393
210	0xbcd45627	-0.025919987
211	0x3ce50636	0.027957063
212	0x3d09290d	0.033486415
213	0xbaa3ef69	-0.0012507263
214	0x3d5f5430	0.054523647
215	0x3d45dd58	0.048306793
216	0x3d119a34	0.03554745
217	0x3d2713a7	0.040790226
218	0xbbd46956	-0.0064822836
219	0xbcd567b4	-0.026050426
220	0xbb9adc9e	-0.0047260066
221	0x3a8ffee8	0.0010986002
222	0x3d7681bf	0.06018233
223	0x3d3f01a4	0.046632424
224	0xbd996dab	-0.07491621
225	0x3d52692c	0.05136983
226	0x3d00a2ad	0.03140514
227	0x3d8a6d24	0.06759098
228	0xbd045c5b	-0.03231464
229	0x3cc1a06c	0.023636065
230	0x3cb1be99	0.02169733
231	0xbc059193	-0.008152383
232	0xbce2706e	-0.027641501
233	0xbd45789a	-0.048210718
234	0x3ba1ae40	0.0049341023
235	0x3c5991d3	0.013279396
236	0x3c9b2d2b	0.018942436
237	0x3c26037e	0.010132669
238	0x3c73ba52	0.014875965
239	0x3da70a48	0.08156258
240	0xbcb96f7a	-0.022636164
241	0x3ba4456b	0.005013158
242	0x3c4fbfc0	0.012679994
243	0x3da1b6c7	0.0789619
244	0xbd807287	-0.06271844
245	0x3a615540	0.0008595772
246	0x3d2dc45e	0.0424236
247	0xbc907caf	-0.017637579
248	0x3cfd9be4	0.030958124
249	0xbcf6993e	-0.030102368
250	0xbcf347e4	-0.029697366
251	0x3cafbc61	0.02145213
252	0x3b9220d3	0.0044594794
253	0x3d31a53a	0.043370463
254	0x3d01b17b	0.0316634
255	0xbd7009c0	-0.05860305
