models/model_objs/please_make_bets.pth (torch, 836927 bytes, 11 tensors)

weight f4 [256, 135]
0	0x3dd1e874	0.10249415
1	0x3d13ac23	0.036052834
2	0x3d8ee05c	0.06976387
3	0x3d9ac237	0.07556575
4	0x3dd8c301	0.10584069
5	0xbc28705c	-0.010280695
6	0x3d1ee439	0.03879187
7	0x3dd3df91	0.10345376
8	0x3ddd4328	0.10803825
9	0xbc6c5d30	-0.0144265145
10	0x3da7a360	0.08185458
11	0xbd55c079	-0.05218551
12	0x3ae45a22	0.0017421881
13	0x3d0b4ef1	0.03401083
14	0x3d05d176	0.03267046
15	0xbd069dc2	-0.032865293
16	0xbda21ade	-0.07915281
17	0x3cb70307	0.02234031
18	0x3db11365	0.08646277
19	0xbbcff123	-0.0063458844
20	0xbd9486df	-0.07252287
21	0xbd8afad5	-0.06786124
22	0x3d5c997c	0.05385731
23	0x3d07d903	0.033165943
24	0xbe1e2f33	-0.15447693
25	0xbd20501b	-0.039138895
26	0xbdca2428	-0.098701775
27	0xbd9ff677	-0.07810681
28	0x3d4a5791	0.049399916
29	0x3cc72df4	0.024313904
30	0xbd2e44f2	-0.04254622
31	0x3d5c79ad	0.053826977
32	0xbd50ded9	-0.050993774
33	0x3a86504a	0.0010247317
34	0xbc6580b8	-0.01400774
35	0x3d9156a7	0.07096606
36	0xbdb61cb6	-0.08892195
37	0xbe1a4a1c	-0.15067333
38	0x3cef8980	0.02924037
39	0xbc5d0e1d	-0.013492134
40	0x3d923dd8	0.07140702
41	0x3b9972a3	0.004682855
42	0x3d539295	0.051653463
43	0x3db4764f	0.08811628
44	0x3da868c1	0.08223105
45	0x3dcd05e2	0.10010888
46	0x3c9ee2c5	0.019395242
47	0x3dcbe5be	0.09955929
48	0xbdad09d5	-0.08449141
49	0x3a36bb3c	0.0006970649
50	0x3d58d3ac	0.05293624
51	0x3d99bcfd	0.0750675
52	0x3d202847	0.03910091
53	0xbc99a9ad	-0.018757666
54	0xbd95f913	-0.07322898
55	0xbdd09b46	-0.10185866
56	0xbd50a66b	-0.05093996
57	0x3d66f9db	0.056390624
58	0x3d51484c	0.05109434
59	0xbe0c6230	-0.1370933
60	0x3d1dad55	0.03849538
61	0x3d94d196	0.07266538
62	0x3d811adb	0.063039504
63	0x3e17d3a5	0.1482683
64	0x3d8e9592	0.06962122
65	0xbd9ccf28	-0.076566994
66	0xbd5bb176	-0.053636037
67	0x3dba7238	0.09103817
68	0x3d26b772	0.04070229
69	0x3d9eb62b	0.077495895
70	0x3d039596	0.03212508
71	0xbe5f0cc3	-0.21782212
72	0x3b9bccef	0.0047546546
73	0xbca5789d	-0.020199114
74	0xbd8621c0	-0.06549406
75	0xbb208f51	-0.0024499486
76	0x3ded3acd	0.11583481
77	0x3c801802	0.015636448
78	0x3dc62a96	0.096760914
79	0x3de1ead3	0.11031117
80	0xbb44a7e1	-0.003000729
81	0x3e04569f	0.12923668
82	0xbd95655b	-0.07294723
83	0x3d20c773	0.03925271
84	0xbda86c3d	-0.0822377
85	0xbda92571	-0.082590945
86	0x3dec497a	0.11537452
87	0x3d8a705c	0.06759712
88	0x3d959206	0.073032424
89	0x3dade849	0.084915705
90	0xbc088ef5	-0.008334865
91	0xbd0c39f8	-0.03423497
92	0xbd17d3a1	-0.03706706
93	0x3df8073b	0.12110754
94	0x3dd298ee	0.10283075
95	0xbd81ac3a	-0.06331678
96	0xbe04b7ba	-0.12960711
97	0x3d8cf5b5	0.068828024
98	0x3c434ee3	0.0119206635
99	0x3db7f50a	0.08982284
100	0xbd8ba586	-0.068186805
101	0x3d61db06	0.055140518
102	0x3ca6cf90	0.020362645
103	0xbb74aa1c	-0.0037332838
104	0x3ca939cd	0.020657444
105	0xbdc14933	-0.0943779
106	0x3d18e18c	0.037324473
107	0x3d2e1c60	0.04250753
108	0x3d3efbaf	0.046626743
109	0xbd1e9342	-0.038714655
110	0x3d408001	0.046997074
111	0x3d692e1b	0.056928735
112	0xbcea393e	-0.028591748
113	0xbbaf1479	-0.0053430167
114	0x3dc687af	0.09693848
115	0xbd4ef4a6	-0.050526284
116	0x3d4acec2	0.049513586
117	0x3b6ceaaf	0.0036150625
118	0x3d12bbbf	0.03582358
119	0xbc9f3ede	-0.019439157
120	0xbc587a8e	-0.013212813
121	0xbd83aa39	-0.06428952
122	0xbd05fd4d	-0.03271227
123	0xbcdeadcc	-0.027182482
124	0xbdd12515	-0.10212151
125	0xbd9de278	-0.07709211
126	0xbca7fa5a	-0.02050512
127	0xbd84a545	-0.06476835
128	0xbe0a2572	-0.13490847
129	0x3c6d9270	0.014500245
130	0x3df36fd1	0.11886562
131	0x3bc29545	0.0059382045
132	0x3d3d285c	0.046181068
133	0x3d5af7b8	0.0534589
134	0xbcf28c95	-0.02960805
135	0xbce981a1	-0.028504195
136	0x3cc4b93d	0.02401411
137	0x3d2157b4	0.03939028
138	0xbb638104	-0.003471435
139	0xbc9a45ed	-0.018832171
140	0x3cf2ae03	0.02962399
141	0x3db56e38	0.08858913
142	0x3cc5f588	0.02416493
143	0xbd90e951	-0.070757516
144	0x3d74acb2	0.059735008
145	0x3d354b6f	0.044261392
146	0xbd2ec336	-0.042666636
147	0x3d72ccda	0.059277393
148	0xbcadde3a	-0.02122413
149	0x3d9c2bf5	0.07625572
150	0x3d3028aa	0.04300753
151	0x3c440fed	0.011966688
152	0xbd438691	-0.047735754
153	0xbdf50601	-0.11964036
154	0x3d1ea77a	0.038733937
155	0xbcd7297e	-0.026264902
156	0xbd2a5ca3	-0.04159225
157	0x3d1fa4ef	0.038975652
158	0xbd693be4	-0.05694188
159	0x3d58b6ac	0.052908584
160	0xbcaa5591	-0.020792754
161	0xbb3610d3	-0.0027781024
162	0xbe15567d	-0.14583774
163	0xbc78e923	-0.015192303
164	0xbd9d4da6	-0.07680826
165	0xbd8849af	-0.06654679
166	0xbde5999a	-0.11210938
167	0xbe114f53	-0.14190416
168	0xbd78562a	-0.060629047
169	0xbc077966	-0.00826869
170	0xbc6cfb29	-0.014464178
171	0xbcd8748d	-0.026422763
172	0x3d1bb691	0.038015906
173	0xbd68989d	-0.05678617
174	0xbd948de4	-0.07253626
175	0x3c4d682e	0.012537045
176	0x3c439e91	0.011939661
177	0xbcc52e70	-0.024069995
178	0x3d9d9ff4	0.07696524
179	0x3c93b365	0.018029878
180	0xbc170eac	-0.009219807
181	0x3db6f02f	0.0893253
182	0xbd984081	-0.07434178
183	0x3c7f99e7	0.015600658
184	0xbd8b6ec5	-0.06808237
185	0x3da0343a	0.078224614
186	0xbcae617a	-0.021286715
187	0x3d1bb784	0.03801681
188	0x3bb2a43a	0.0054517062
189	0xbd9c8779	-0.07643027
190	0x3d9b7168	0.0758999
191	0x3d819ebb	0.063291036
192	0xbd544eee	-0.051833086
193	0xbdc78c84	-0.09743598
194	0x3cbce8b4	0.02306018
195	0x3d9ea6a2	0.077466264
196	0xbcd3348e	-0.025781896
197	0x3d6b62b7	0.05746719
198	0xbe134d91	-0.14385058
199	0x3baf7b28	0.0053552575
200	0x3d18c07c	0.037292942
201	0x3cd5b623	0.026087826
202	0xbd8a7bdd	-0.06761906
203	0x3e05b9dd	0.13059182
204	0x3d6fe636	0.058569156
205	0x3d46bb6c	0.048518583
206	0xbd83a45c	-0.064278334
207	0x3db2286c	0.08699116
208	0xbe117288	-0.14203846
209	0x3dd6e0e3	0.104921125
210	0x3d985453	0.074379586
211	0x3dd98008	0.10620123
212	0x3d0c45b1	0.03424615
213	0xbd8c2fd7	-0.06845062
214	0xbda01623	-0.07816722
215	0x3db3104d	0.087433435
216	0xbdcc57fa	-0.09977718
217	0xbdaeba65	-0.08531646
218	0x3db32bf9	0.087486215
219	0xbd8bb358	-0.068213165
220	0x3ca8c382	0.020601038
221	0x3e00339b	0.12519686
222	0x3c443b65	0.011977051
223	0xbd5c3d0d	-0.05376916
224	0xbd8b3d14	-0.06798759
225	0xbd6b636b	-0.05746786
226	0xbd488eaa	-0.04896418
227	0x3dc122df	0.09430479
228	0xbcf99141	-0.03046477
229	0xbc6c34d9	-0.014416897
230	0x3d2ea0e1	0.042633895
231	0x3d8bfa75	0.0683488
232	0xbd363ac4	-0.044489637
233	0xbd2c48d2	-0.042061634
234	0x3d8a9420	0.06766534
235	0xbd727e54	-0.059202507
236	0xbcdd133b	-0.026986709
237	0xbd1fd533	-0.039021682
238	0x3c1a76dd	0.009427753
239	0xbc940ca1	-0.018072428
240	0xbd992dd6	-0.07479446
241	0xbd1dcd2a	-0.038525738
242	0xba8b4c64	-0.0010627625
243	0x3be94d3e	0.0071198037
244	0x3cb90ddf	0.022589622
245	0x3e12c677	0.14333521
246	0x3ab61bcd	0.0013893783
247	0x3c375e77	0.011191956
248	0xbae02707	-0.0017101475
249	0x3d56d177	0.052445855
250	0xbd57ada5	-0.052655835
251	0xbdae74ec	-0.08518395
252	0x3e0fe644	0.14052683
253	0xbd4ab446	-0.04948833
254	0x3cfb3a0f	0.030667333
255	0x3ca65438	0.02030383

bias f4 [256]
0	0xbd869213	-0.0657083
1	0x3d23bfb1	0.039977733
2	0xbd63c97d	-0.055612076
3	0xbd77d819	-0.06050882
4	0xbd9fab0c	-0.077962965
5	0xbb4b4de4	-0.0031021768
6	0x3dba6be0	0.09102607
7	0xbd82e922	-0.06392123
8	0xbb2caa6c	-0.0026346697
9	0xbc35239f	-0.011055856
10	0xbc9f1296	-0.019418042
11	0x3cfb3530	0.03066501
12	0xbd04b4df	-0.032399055
13	0xbda8a07d	-0.08233736
14	0xbc98c41f	-0.018648205
15	0xbd2b55cf	-0.04182988
16	0x3b352442	0.002764002
17	0x3c8a489b	0.016880324
18	0xbdec9774	-0.11552325
19	0x3c896f78	0.016776785
20	0xbdc35640	-0.09537935
21	0x3c342d45	0.010997121
22	0x3d025bdf	0.031825896
23	0x3cfa8bd4	0.030584253
24	0xbc317a0b	-0.01083232
25	0x3c99a345	0.01875461
26	0xbba8c728	-0.0051506944
27	0xbcaa6d41	-0.02080405
28	0xbd81cca8	-0.06337863
29	0x3cc0ee6e	0.023551192
30	0x3d26e55a	0.04074607
31	0x3d3ef59c	0.04662095
32	0xbc4430f6	-0.011974564
33	0x3d81668d	0.06318388
34	0xbcbab8fb	-0.022793284
35	0xbc3cef84	-0.011531714
36	0xbda7a1e3	-0.08185174
37	0x3a8a43cb	0.0010548768
38	0xbdbd9b69	-0.09258158
39	0x3cce1f06	0.025161278
40	0xbdbd3c52	-0.09240021
41	0x3d8b6928	0.06807166
42	0xbd306936	-0.043069087
43	0x3db28894	0.087174565
44	0xbd82ec15	-0.06392685
45	0xbd978a5c	-0.07399437
46	0x3d4a1a53	0.04934151
47	0x3d078fd3	0.033096146
48	0x3b90b10a	0.004415636
49	0x3d3139d7	0.04326805
50	0x3c76bc77	0.015059582
51	0x3d080142	0.033204325
52	0x3d6cdd34	0.057828143
53	0xbde97fb8	-0.114013135
54	0xbd8e78c3	-0.06956627
55	0xbd2f8d07	-0.042859104
56	0xbd7dd48b	-0.061970275
57	0xbdaa8e79	-0.08327956
58	0xbc7a9899	-0.015295171
59	0x3b8ba98e	0.004262156
60	0xbdd1a8a8	-0.10237247
61	0xbd5828d2	-0.052773304
62	0x3dad069e	0.08448528
63	0xbbd6aad0	-0.006551124
64	0x3d37e0d2	0.04489214
65	0xbdd64090	-0.10461533
66	0xbc50ab5b	-0.012736167
67	0xbd9a24a9	-0.075265236
68	0xbd99839f	-0.07495808
69	0xbd5edd9b	-0.05441056
70	0xbdea6ccd	-0.11446533
71	0x3cfd4195	0.030915061
72	0xbc489a18	-0.01224377
73	0x3daa7bca	0.08324392
74	0x3d95d03c	0.07315108
75	0x3d125df0	0.035734117
76	0x3ceb58a6	0.028728794
77	0xbda3f7dd	-0.080062605
78	0x3cfa6a50	0.030568272
79	0xbc1cf9d6	-0.00958105
80	0xbd84f25a	-0.064915374
81	0x3dbc61f1	0.09198368
82	0xbb77945f	-0.0037777645
83	0x3c5f0d95	0.013614078
84	0xbd2bac70	-0.041912496
85	0xbd45e317	-0.048312273
86	0x3d9d9a34	0.076954275
87	0xbcce4525	-0.025179455
88	0xbd6a6234	-0.05722256
89	0xbd81c248	-0.06335884
90	0xbd829945	-0.0637689
91	0xbd9c64ba	-0.076363996
92	0x3bdb1f0b	0.00668705
93	0x3d728785	0.059211273
94	0x3cdc72f5	0.026910285
95	0xbd82a9e9	-0.06380064
96	0xbc95214c	-0.018204354
97	0x3d3827a5	0.044959683
98	0xbdacfaa0	-0.084462404
99	0x3db42022	0.08795191
100	0x3b3227c7	0.0027184354
101	0x3be07e2c	0.0068509784
102	0xbd99952c	-0.074991554
103	0xbdcdae6c	-0.10043034
104	0xbd49ecb5	-0.049298007
105	0xbd5fe448	-0.054661065
106	0xbda22446	-0.07917075
107	0xbd93338a	-0.07187565
108	0x3d85e6ae	0.06538139
109	0xbccd5a7b	-0.025067559
110	0x3d895310	0.06705296
111	0xbd8923e9	-0.066963024
112	0xbd9b2325	-0.07575063
113	0xbbd8d66f	-0.0066173594
114	0xbdc44fa5	-0.095855035
115	0xbc9b2acc	-0.018941306
116	0xbd02866f	-0.031866487
117	0xbbfebf2c	-0.0077742543
118	0xbdc7689a	-0.09736748
119	0xbca47cee	-0.020079102
120	0x3da81d31	0.08208693
121	0xbd57eae2	-0.052714236
122	0xbd9a36d6	-0.075299904
123	0xbd817f0e	-0.06323062
124	0x3d8e7617	0.069561176
125	0xbd8f8fba	-0.070098355
126	0xbdd55090	-0.10415757
127	0x3ceeaa5c	0.029133968
128	0x3ced9bbc	0.029004924
129	0xbd30c25d	-0.04315411
130	0xbc94dc16	-0.018171351
131	0x3cb25eca	0.021773715
132	0x3a708e06	0.00091764366
133	0xbcb0ddb7	-0.021590097
134	0xbdbcfd79	-0.092280336
135	0xbd218653	-0.039434742
136	0xbcd49544	-0.025950082
137	0x3d940491	0.072274335
138	0xbd736c59	-0.0594295
139	0xbd074125	-0.03302111
140	0xbd6e5e4c	-0.058195397
141	0xbde2d4cc	-0.11075744
142	0x3d8e66cb	0.069532
143	0xbda9d4e2	-0.08292557
144	0x3cb2a436	0.021806818
145	0x3cd96688	0.026538149
146	0x3cda824f	0.026673464
147	0xbd889fea	-0.06671126
148	0x3d3c58aa	0.045982994
149	0x3dbecdf1	0.09316624
150	0x3db6156c	0.08890805
151	0xbd46a213	-0.04849441
152	0x3d1672d4	0.036730602
153	0xbd60dcef	-0.0548982
154	0xbd8052e8	-0.06265813
155	0xbd13936a	-0.036029257
156	0xbcf6a7cb	-0.030109307
157	0x3c97f9ce	0.018551733
158	0x3d984004	0.07434085
159	0x3cbbbee4	0.022918172
160	0xbd8a269b	-0.06745645
161	0x3dcefaa5	0.101064004
162	0xbd0d7bdf	-0.03454196
163	0xbd703e24	-0.058653012
164	0xbd4f2025	-0.050567765
165	0xbd1d4f62	-0.038405783
166	0x3d4156c4	0.047201887
167	0xbd8b1ec9	-0.06792981
168	0xbca02786	-0.019550096
169	0xbdc9df1e	-0.09857009
170	0x3dd228d0	0.102616906
171	0x3d58ee56	0.05296167
172	0x3b96307d	0.004583417
173	0x3cf736cb	0.030177495
174	0x3cb4e1d3	0.022080338
175	0xbcbcfc1e	-0.023069438
176	0x3db70ed8	0.08938378
177	0xbdb35fd2	-0.08758511
178	0xbd238f78	-0.039931744
179	0xbd95742a	-0.07297547
180	0xbd43d1cb	-0.047807496
181	0xbc69b891	-0.0142651955
182	0x3be0b9c5	0.006858083
183	0xbd5f2c6f	-0.054485735
184	0xbd9b336e	-0.07578169
185	0xbd8e8a5e	-0.06959985
186	0x3d63afad	0.05558746
187	0x3db1a27e	0.08673571
188	0xbd26245c	-0.04056202
189	0xbd3eb012	-0.046554632
190	0xbde18e34	-0.11013451
191	0xbd912bdc	-0.07088444
192	0xbdd904b6	-0.10596602
193	0xbc5a1a36	-0.013311913
194	0xbd5fc367	-0.05462971
195	0x3ca6d24c	0.02036395
196	0xba676a42	-0.00088277843
197	0x3cd4851b	0.025942376
198	0x3cda1fe4	0.026626535
199	0xbdfc9b01	-0.12334252
200	0xbd9a5161	-0.07535053
201	0xbda0a8fb	-0.078447305
202	0x3c4081d4	0.011749703
203	0x3da4d8c6	0.08049159
204	0xbcf11aea	-0.029431779
205	0xbd860a2b	-0.06544908
206	0x3c1a7f52	0.00942977
207	0x3cf3e2f9	0.029771315
208	0x3d144426	0.036197804
209	0xbd6586d4	-0.056036785
210	0x3d89f8a0	0.067368746
211	0xbda5042a	-0.08057435
212	0xbc1d14b0	-0.009587452
213	0x3cf5bbe8	0.029996827
214	0xbc95b587	-0.018275036
215	0xbd8a92d3	-0.06766286
216	0x3dcaf898	0.09910697
217	0xbd0a41b7	-0.033754077
218	0x3bab9b69	0.005237032
219	0xbd3f79ce	-0.04674702
220	0xbda50295	-0.08057133
221	0x3d086c39	0.033306334
222	0xbd0edf7e	-0.034881108
223	0xbd3ea80b	-0.046546977
224	0xbd8a3af5	-0.067495264
225	0xbd4e9a5d	-0.05044018
226	0x3d666e93	0.056257796
227	0x3b01271a	0.0019707144
228	0x3d3a699c	0.045510873
229	0xbd4c9b8c	-0.04995303
230	0x3c53b01d	0.012920407
231	0x3c6b5874	0.014364351
232	0xbc56c5b2	-0.013108658
233	0x3d29a0ae	0.041413
234	0xbc1f0fa4	-0.009708319
235	0x3d290f12	0.041274138
236	0x3dbd1750	0.09232962
237	0x3d975956	0.07390086
238	0xbd083fa6	-0.033263825
239	0xbdb96646	-0.0905271
240	0x3d1f289a	0.03885708
241	0x3d3c6ef4	0.04600425
242	0x3dac485c	0.08412239
243	0xbd8d1189	-0.0688811
244	0xbd95b8e7	-0.07310658
245	0x3d76e69c	0.06027852
246	0xbd6021c6	-0.05471971
247	0xbd71bfce	-0.05902081
248	0x3d12ad6c	0.03580992
249	0xbdcbbdee	-0.099483356
250	0xbd0f45f4	-0.034978822
251	0xbdba6549	-0.0910135
252	0x3c838f2a	0.016059477
253	0x3db1f504	0.08689311
254	0x3c2f262f	0.010690256
255	0xbd98ef9f	-0.07467579

weight f4 [256, 256]
0	0xb98283be	-0.00024893688
1	0x3d09f496	0.03368052
2	0xbcafeb3e	-0.021474477
3	0x3d111739	0.035422537
4	0x3ca244eb	0.019808253
5	0x3c7389c5	0.01486439
6	0x3be09ff8	0.0068550073
7	0x3d6b21b3	0.057405185
8	0xbb93ae24	-0.004506843
9	0xbd1d305b	-0.038376193
10	0xbcbaa647	-0.022784365
11	0xbd5801eb	-0.052736204
12	0x3d80a6c1	0.06281806
13	0xbd9f3218	-0.077732265
14	0xbc918d24	-0.017767496
15	0x3c11b2cc	0.008892726
16	0xbd2854b4	-0.041096404
17	0xbd50289c	-0.050819978
18	0xbd9120fc	-0.070863694
19	0x3d0b9307	0.034075763
20	0xbd1e3252	-0.038622208
21	0xbc1c51ce	-0.009540988
22	0x38c36695	9.317432e-05
23	0xbd8de36a	-0.069281414
24	0xbd554bb4	-0.05207415
25	0xbd81f0c8	-0.063447535
26	0x3d8c3869	0.06846697
27	0xbd89754f	-0.06711828
28	0xbd8cd7e9	-0.06877119
29	0xbcfc874e	-0.030826237
30	0x3d508fee	0.050918512
31	0x3b6c3aac	0.0036045713
32	0x3daf8ffb	0.08572384
33	0x3ce9de9f	0.028548537
34	0x3d108a80	0.035288334
35	0xbce5a52e	-0.028032865
36	0x3c472895	0.012155672
37	0xbcf3533c	-0.029702775
38	0x3d590ff2	0.052993722
39	0xbd429679	-0.047506783
40	0xbd399e02	-0.045316704
41	0xbdbf2079	-0.093323655
42	0x3d442cd7	0.047894325
43	0x3a9ae9d7	0.0011818957
44	0x3c4a2260	0.012337297
45	0xbbad79b5	-0.0052940496
46	0xbd07cafa	-0.033152558
47	0xbd2a4ec6	-0.04157903
48	0xbda87000	-0.08224487
49	0x3d634f1b	0.055495363
50	0xbcf785bf	-0.030215142
51	0xbbf2f010	-0.0074138716
52	0xb9276e27	-0.00015967396
53	0xbd68359a	-0.056691743
54	0x3c716a16	0.0147347655
55	0xbcefad1e	-0.029257353
56	0xbcaa0ca4	-0.02075798
57	0x3d679220	0.05653584
58	0x3d48587e	0.048912518
59	0x3dc01062	0.09378125
60	0xbde64cd9	-0.11245126
61	0xb8b43046	-8.5920605e-05
62	0x3d97ff82	0.07421781
63	0xbd2ef10d	-0.042710353
64	0x3de5c419	0.11219043
65	0x3c7f3864	0.015577409
66	0x3d60ff70	0.054931104
67	0x3db682e7	0.089116864
68	0xbc13bb53	-0.00901683
69	0x3aed338c	0.0018097027
70	0x3cbf7220	0.023369849
71	0xbc77d6f9	-0.015126937
72	0x3d0112d5	0.0315121
73	0x3d16e610	0.0368405
74	0x3c09bff9	0.008407586
75	0xbc580212	-0.013184087
76	0xbb86a8e1	-0.0041094874
77	0xbd85a869	-0.06526262
78	0xbda33b69	-0.07970316
79	0xbda26f81	-0.07931424
80	0xbd2173cb	-0.03941707
81	0x3ca9f785	0.02074791
82	0x3c5896b9	0.013219529
83	0xbdad1e1f	-0.08453011
84	0xbe0047f6	-0.12527451
85	0xbda5203d	-0.080627896
86	0x3d5f9f5a	0.05459533
87	0x3da9bbe0	0.082877874
88	0x3d7e6486	0.062107585
89	0x3d8af438	0.06784862
90	0xbb86be7e	-0.004112064
91	0x3ce78561	0.028261842
92	0xbd25a5be	-0.040441267
93	0x3cf19807	0.029491438
94	0xbb68f3de	-0.0035545747
95	0x3da82363	0.082098745
96	0x3d29b929	0.041436348
97	0xbb18140e	-0.0023205313
98	0xbc1c5f0e	-0.009544147
99	0xbd84097c	-0.064471215
100	0xbd443207	-0.047899272
101	0xbd6687ba	-0.056281783
102	0xbcd532ba	-0.026025165
103	0x3d3cd1ea	0.046098627
104	0xbc923a3d	-0.017850036
105	0xbbc9b0f7	-0.006155129
106	0xbcc158c0	-0.02360189
107	0x3cd6b24b	0.026208064
108	0xbd65313e	-0.055955164
109	0x3d61cbe5	0.05512609
110	0xbb05611c	-0.002035207
111	0x3d6e2011	0.05813605
112	0xbba28654	-0.004959861
113	0xbda39991	-0.07988275
114	0xbd3e1bc6	-0.046413206
115	0x3d5f7003	0.054550182
116	0x3d2f69d2	0.042825527
117	0xbd554f37	-0.0520775
118	0x3d184b50	0.0371812
119	0x3d4d8865	0.050178904
120	0xbaacdd69	-0.0013188544
121	0xbda23781	-0.07920743
122	0xbcc7297b	-0.024311772
123	0x3d987d17	0.07445734
124	0xbde866e9	-0.113477536
125	0xbc615065	-0.013752078
126	0xbb046dd5	-0.0020207067
127	0x3cc3a75c	0.023883514
128	0xbd9f5607	-0.0778008
129	0xbcb5bb7a	-0.022184122
130	0x3aafffcd	0.0013427675
131	0xbca38c8c	-0.019964479
132	0xbd8438a2	-0.06456114
133	0x3d27afc8	0.040939122
134	0xbb4488c6	-0.002998875
135	0x3d92147b	0.071328126
136	0xbd0453ba	-0.03230641
137	0xbc983b61	-0.018583002
138	0x3ab039a3	0.0013444911
139	0xbc8ebf4d	-0.017425204
140	0xbd743069	-0.05961648
141	0x3bc5afe6	0.0060329316
142	0xbd34bbf1	-0.044124547
143	0x3d07cd23	0.033154618
144	0x3d8d8d26	0.069116876
145	0x3b835c43	0.004008801
146	0xbc0f863f	-0.008760034
147	0xbd720f82	-0.05909682
148	0x3d618f49	0.055068288
149	0xbd0ab8a4	-0.033867493
150	0x3d65d8d0	0.05611497
151	0x3d82fa38	0.06395382
152	0x3c06b67b	0.008222218
153	0xbd2f80c3	-0.042847406
154	0xbd2c6395	-0.042087156
155	0x3d6a3bd0	0.057185948
156	0x3ce8b0e3	0.028404659
157	0x3cf98812	0.030460391
158	0xbcca238e	-0.024675157
159	0x3c42b693	0.011884349
160	0xbd64fcb2	-0.05590505
161	0x3d3469c6	0.044046186
162	0x3cc500fb	0.02404832
163	0xbd6beb7c	-0.057597622
164	0xbd35853d	-0.04431652
165	0x3d5e5fa5	0.054290432
166	0xbc758d1e	-0.014987258
167	0xbd899c2d	-0.06719241
168	0xbd7f9e09	-0.062406573
169	0xbd2a13a0	-0.041522622
170	0xbd8862c9	-0.06659467
171	0x3d849cbe	0.06475209
172	0xbcaeabf2	-0.021322224
173	0xbce9abbb	-0.02852427
174	0xbd7a14c1	-0.06105495
175	0x3d148ec8	0.03626898
176	0x3bd234e7	0.006414998
177	0x3ceb179d	0.028697783
178	0xbd801714	-0.06254402
179	0x3c8fc5bd	0.017550344
180	0x3b1377c9	0.0022501817
181	0x3d249df3	0.040189695
182	0x3abaa937	0.0014241104
183	0xbd04d20c	-0.03242688
184	0xbd8476f8	-0.06468004
185	0xbdabe246	-0.083927676
186	0xbd7cb659	-0.061697338
187	0x3d1d707e	0.03843736
188	0xbdde107e	-0.108429894
189	0x3db71803	0.08940127
190	0xbd9b085c	-0.07569954
191	0xbb153c8c	-0.0022771684
192	0xbc289c33	-0.010291147
193	0x3b897793	0.0041951626
194	0xbcc066d1	-0.023486527
195	0xbd9bc335	-0.07605592
196	0xbd8a1506	-0.06742291
197	0x3d42f82b	0.047599953
198	0xbd6c0ca7	-0.057629254
199	0x3cad6a57	0.02116887
200	0x3be86cde	0.007093056
201	0xbd8ae2de	-0.06781553
202	0x3d206023	0.039154183
203	0x3a970247	0.0011521064
204	0x3d91bee5	0.07116488
205	0xbd29e79f	-0.041480657
206	0xbd9c8bb0	-0.07643831
207	0xbc255fa5	-0.010093604
208	0x3d831251	0.06399978
209	0xbd0a1c4d	-0.033718396
210	0xbd18e598	-0.037328333
211	0xbd00a343	-0.0314057
212	0x3cf42359	0.029802011
213	0xbd612a7c	-0.054972157
214	0xbd3d37be	-0.046195738
215	0xbdaf27f4	-0.08552542
216	0x3cb84de7	0.022498084
217	0xbb8dfff9	-0.004333493
218	0xbd4c2aff	-0.04984569
219	0xbcf97655	-0.030451933
220	0xbb9a8aca	-0.004716252
221	0xbc8d42a4	-0.01724369
222	0x3c8e1104	0.017342098
223	0xbd9b5bea	-0.075858906
224	0xbd60e902	-0.054909714
225	0xbbc81ccb	-0.006106948
226	0xbb6bab3d	-0.003596022
227	0x3cb00341	0.021485927
228	0xbdaac21d	-0.083378054
229	0xbc1a0690	-0.009400979
230	0xbcc34e99	-0.02384119
231	0x3d84cb60	0.06484103
232	0xbd781969	-0.060571108
233	0x3ca99ad5	0.020703712
234	0xbc70e36f	-0.014702662
235	0x3c52442c	0.012833636
236	0x3d31bfef	0.043395933
237	0x3c693955	0.01423486
238	0xbc3a85e5	-0.011384462
239	0xbbd68c16	-0.0065474613
240	0xbd9ae135	-0.07562486
241	0x3c065a9c	0.008200314
242	0x3b86bc66	0.0041118143
243	0x3c92a5a1	0.017901244
244	0x3d647601	0.0557766
245	0x3d95f52b	0.07322153
246	0x3bf20a14	0.0073864553
247	0xbdc96ae9	-0.098348446
248	0xbd2d5d53	-0.04232533
249	0x3cc08d1c	0.023504786
250	0x3d8057b5	0.06266729
251	0x3c910d27	0.017706467
252	0x3bd27240	0.006422311
253	0x3cbec019	0.023284959
254	0xbd68a445	-0.056797285
255	0xbccd247f	-0.025041817

bias f4 [256]
0	0x3cbd28b0	0.02309069
1	0xbd8a0783	-0.06739714
2	0xbd7f2233	-0.062288474
3	0x3d855b17	0.06511515
4	0x3d88683c	0.06660506
5	0x3c5a810f	0.013336434
6	0xbcb1504f	-0.02164474
7	0xbc4bbf38	-0.012435727
8	0xbceafbce	-0.028684523
9	0x3c676129	0.014122286
10	0x3d2479bb	0.040155154
11	0x3d30e759	0.04318938
12	0xbd3e44fd	-0.04645251
13	0xbb3688a8	-0.002785245
14	0xbd4ce1ec	-0.050020143
15	0xbdaa055f	-0.08301806
16	0x3b89ab13	0.004201302
17	0x3cd4cd46	0.025976788
18	0x3d076b85	0.033061523
19	0xbc520872	-0.012819396
20	0xbcc2034d	-0.023683215
21	0x3ca30eec	0.019904576
22	0x3d9103c5	0.07080797
23	0x3d0f4c11	0.034984652
24	0xbd81a8bb	-0.06331011
25	0xbc8c4c37	-0.017126186
26	0x3caf4391	0.021394523
27	0x3d02cfb9	0.03193638
28	0xbd0a01f2	-0.03369326
29	0x3c20cf6e	0.00981508
30	0xbcea2a42	-0.028584603
31	0x3c327bec	0.010893803
32	0x3cb5cfc3	0.022193795
33	0xbb7ced5e	-0.003859363
34	0x3b085a8b	0.002080592
35	0xbd96e109	-0.07367141
36	0x3c0be152	0.008537607
37	0x3b997966	0.0046836613
38	0xbd66747c	-0.056263432
39	0xbca6e20c	-0.02037146
40	0x3ba0e7bc	0.0049104374
41	0x3da1867f	0.07886981
42	0x3da63171	0.08114899
43	0x3cd252b6	0.025674205
44	0x3b44f666	0.0030054091
45	0x3b894eb2	0.0041902894
46	0x3d28392a	0.04107014
47	0xbc7c91ed	-0.015415651
48	0x3b7d37a5	0.0038637903
49	0x3cf19ec4	0.02949465
50	0x3d2d7c11	0.042354647
51	0x3c96619c	0.01835709
52	0x3ca2d85e	0.019878563
53	0xbd8bf71a	-0.0683424
54	0xbc5b0c5e	-0.013369648
55	0x3d22f4e7	0.03978434
56	0xbd5ef881	-0.05443621
57	0xbccd01e1	-0.02502531
58	0xbd8b91c5	-0.06814913
59	0xbd575ae9	-0.052576933
60	0xbc4d58ea	-0.012533406
61	0x3bebdbba	0.0071978243
62	0x3cc51ef4	0.024062611
63	0xbc8c3c71	-0.017118664
64	0x3d571c67	0.05251732
65	0x3d61a541	0.05508924
66	0x3b05e821	0.002043255
67	0x3d4e101b	0.050308328
68	0xbd0f60ca	-0.035004415
69	0x3c91d401	0.017801287
70	0x3ba8ba3e	0.005149155
71	0x3c80a034	0.01570139
72	0xbb32c192	-0.0027276021
73	0xbc96eccf	-0.018423466
74	0xbced2ac9	-0.028951066
75	0x3da22887	0.07917886
76	0x3d4e939f	0.05043375
77	0x3c0857fc	0.008321758
78	0x3da46499	0.08027
79	0x3c86bcfc	0.016447537
80	0x3ab9d0e5	0.0014176635
81	0x3d697505	0.056996364
82	0x3d6aff76	0.057372533
83	0xbd0bfa9c	-0.034174547
84	0x3d608de1	0.054822806
85	0xbbd7eb62	-0.006589339
86	0xbd40873e	-0.047003977
87	0x3d27f892	0.04100854
88	0xbd7ab00a	-0.06120304
89	0xbda44034	-0.08020058
90	0x3c13cece	0.009021474
91	0x3c096c70	0.00838767
92	0xbc07dfd3	-0.00829311
93	0x3d306499	0.043064687
94	0x3d963fd0	0.0733639
95	0xbcec9e4d	-0.028884077
96	0xbcc66a25	-0.024220536
97	0x3cb4af27	0.022056175
98	0xbd6e06e9	-0.05811206
99	0xbd9171d4	-0.07101789
100	0xbd1088d3	-0.035286736
101	0xbd6d13ea	-0.05788032
102	0x3d1a60b6	0.037689887
103	0xbcb05743	-0.021525985
104	0xbc5d246a	-0.013497451
105	0x3c7da984	0.01548231
106	0xbd10553a	-0.03523753
107	0x3d1ce5bf	0.03830504
108	0xbd8bc1b5	-0.06824056
109	0x3bd861bb	0.0066034473
110	0xbc9584fe	-0.018251892
111	0xbd8d6525	-0.069040574
112	0xbaa6ecea	-0.0012735401
113	0x3cfe6be8	0.031057313
114	0x3d7dfa3a	0.062006213
115	0xbd650f33	-0.0559227
116	0xbc71d61f	-0.014760523
117	0xbd9f12fe	-0.07767294
118	0xbbc7b26d	-0.006094268
119	0x3c9d1d56	0.019179028
120	0xbcbac66b	-0.022799691
121	0xbc4d04fe	-0.012513397
122	0x3c90f151	0.017693194
123	0xbc64c1f8	-0.013962261
124	0x3cb80ddd	0.022467548
125	0xbc883ead	-0.016631449
126	0x3c6efd3d	0.014586744
127	0xbae822d6	-0.0017710577
128	0x3ce16793	0.027515208
129	0xbd186694	-0.0372072
130	0xbcffd225	-0.031228134
131	0xbd1e40ce	-0.03863602
132	0x3cafb2a7	0.021447493
133	0x3c99939d	0.018747145
134	0xbd959b63	-0.07305028
135	0x3d67e2bb	0.05661271
136	0xbd09c227	-0.033632424
137	0x3d7d6d9d	0.061872113
138	0x3c5b1ce1	0.0133735845
139	0xbcc68994	-0.024235524
140	0x3d2a77f7	0.041618314
141	0x3d2b0d53	0.041760754
142	0x3c95619f	0.018235026
143	0xbd8fdead	-0.07024894
144	0x3cc6e121	0.024277272
145	0xbd164ab5	-0.03669234
146	0xbd1c221d	-0.03811847
147	0x3b81cb34	0.0039609913
148	0xbcb2d6d8	-0.021830961
149	0xbd8e7ce6	-0.06957416
150	0xbd18aab9	-0.03727219
151	0x3d6790f4	0.056534722
152	0xbd800b6f	-0.06252181
153	0x3d68f190	0.056870997
154	0xbd63e20c	-0.055635497
155	0xbd966f9e	-0.07345508
156	0x3d589873	0.052879762
157	0x3c9c56b8	0.01908432
158	0xbd7ad2f4	-0.061236337
159	0xbc71b964	-0.014753673
160	0x3d77cdae	0.060498886
161	0x3d8ed06a	0.069733456
162	0xbd8b9790	-0.06816018
163	0x3ca2d8a2	0.01987869
164	0x3bf970ca	0.0076123225
165	0x3bb530c1	0.0055294936
166	0xbd75c354	-0.060000733
167	0x3d425db2	0.047452636
168	0x3d79ea1a	0.061014272
169	0x3cf35cdd	0.029707367
170	0xbd6b68b2	-0.057472892
171	0xbbc3b0e9	-0.005972017
172	0xbcfb5957	-0.030682249
173	0x3d8cd02c	0.06875643
174	0x3b6fc13f	0.003658369
175	0xbbb69467	-0.00557189
176	0x3d8527e9	0.06501753
177	0x3d6bb2d3	0.057543587
178	0xbd862301	-0.06549645
179	0x3c45c5f8	0.012071125
180	0xbaeb373e	-0.0017945541
181	0xbcc05488	-0.023477808
182	0xbd3702c5	-0.044680376
183	0x3cbf2c0c	0.023336433
184	0x3dae92ca	0.085240915
185	0x3d04e91e	0.03244888
186	0xbd95b3be	-0.07309674
187	0x3c8e43e8	0.017366365
188	0x3c267680	0.010160089
189	0x3daab541	0.08335353
190	0xbb03da6e	-0.0020119208
191	0x3bc36e9c	0.0059641134
192	0xbcd5b485	-0.026087055
193	0x3d77dc36	0.060512744
194	0x3d051374	0.032489255
195	0xbc5da1c4	-0.013527337
196	0x3c56b9c8	0.013105817
197	0x3bc0d5b5	0.005884851
198	0x3c5786b8	0.013154678
199	0xbdae7c3a	-0.08519788
200	0x3d68c4f3	0.05682845
201	0x3cf049c1	0.029332044
202	0xbbaa3ae6	-0.0051950095
203	0x3cc7504e	0.024330284
204	0x3d87d843	0.066330455
205	0xbd245cf7	-0.04012772
206	0x3bf574f0	0.0074907467
207	0x3c2cc9eb	0.010546188
208	0x3cdbcd2e	0.026831236
209	0x3d8e4ad2	0.069478646
210	0xbd84cd86	-0.06484513
211	0xbd199709	-0.037497554
212	0x3d08a18f	0.0333572
213	0x3d252114	0.04031475
214	0xbcf3052f	-0.029665558
215	0x3d540085	0.051758308
216	0xbd50b05b	-0.050949436
217	0xbb5e771a	-0.0033945502
218	0xba515b4c	-0.00079863216
219	0xbc897dd3	-0.01678363
220	0xbc370477	-0.011170498
221	0x3c3cb3d9	0.011517488
222	0x3d62aa91	0.055338446
223	0xbda8a9fb	-0.08235546
224	0xbcee58e7	-0.029095126
225	0x3c3beb47	0.011469669
226	0x3d5e185f	0.05422246
227	0xbd426b1f	-0.04746544
228	0x3d9e1efd	0.07720754
229	0x3bc34524	0.00595917
230	0x3beb0a79	0.0071728793
231	0xb8b4beb4	-8.61859e-05
232	0xbc85bbea	-0.016324956
233	0xbc225134	-0.009907056
234	0x3d8351b3	0.06412067
235	0x3d7193e0	0.058978915
236	0x3b309b50	0.0026948042
237	0xbcb13121	-0.021629872
238	0x3da63f14	0.081175
239	0xbd822326	-0.0635436
240	0xbd9c5bb3	-0.07634678
241	0xbc985781	-0.018596413
242	0xbc8e4e56	-0.017371338
243	0x3bc7b850	0.00609497
244	0xbb81dfec	-0.003963461
245	0xbd5ac596	-0.05341109
246	0xbd02308e	-0.031784587
247	0x3d3b593d	0.0457394
248	0x3d8b245b	0.06794044
249	0xbd1512d9	-0.036394928
250	0x3d75bdbd	0.0599954
251	0xbce752a7	-0.028237654
252	0x3c46e71a	0.01214006
253	0xbda0ec8c	-0.07857618
254	0x3d6caa1e	0.057779424
255	0x3bfaae77	0.0076501924

weight f4 [256, 256]
0	0xbc9af583	-0.018915897
1	0xbd812896	-0.06306569
2	0x3cfa1518	0.030527636
3	0xbd6566e9	-0.056006346
4	0xbc84b33f	-0.016198752
5	0x3cc1f81a	0.023677874
6	0xbd307823	-0.04308332
7	0xbc3d62f1	-0.011559234
8	0xbd3bec2c	-0.045879528
9	0xbc54e43e	-0.01299387
10	0x3ce99a85	0.028516063
11	0xbd392330	-0.045199573
12	0xbd441a7c	-0.04787682
13	0x3d562227	0.052278664
14	0x3d4ba551	0.049718205
15	0x3c9fd1e3	0.019509261
16	0x3d1ba410	0.03799826
17	0xbd6e8482	-0.058231838
18	0x3c3cf040	0.011531889
19	0x3cb4685a	0.022022415
20	0xbcfaa372	-0.030595515
21	0x3d0fa302	0.035067566
22	0xbbcd109a	-0.0062580826
23	0xbd157292	-0.036486216
24	0x3d40312c	0.046921894
25	0x3d391a7e	0.04519128
26	0xbad8dbe2	-0.0016545022
27	0x3d2a7ff2	0.041625924
28	0x3d1f1f41	0.038848165
29	0xbd88e965	-0.066851415
30	0xbc35d29b	-0.011097576
31	0xbd897eeb	-0.06713661
32	0x3d5ffce2	0.054684527
33	0x3d24fbb6	0.040279113
34	0x3d5abb90	0.05340153
35	0x3d1a2e83	0.037642013
36	0xbd09ce5b	-0.03364406
37	0x3bf4985f	0.007464453
38	0x3d0dd5dc	0.03462778
39	0xbd2fea6a	-0.042948164
40	0xbcbdfe29	-0.023192482
41	0x3c191aa3	0.00934473
42	0xbc8e5187	-0.01737286
43	0x3d257dda	0.040403225
44	0x3cec279c	0.028827481
45	0xbcf66e81	-0.03008199
46	0x3c806ae6	0.015675973
47	0x3b595c7d	0.00331667
48	0x3c070320	0.008240491
49	0xbb4612b5	-0.0030223553
50	0xba8a1538	-0.0010534888
51	0x3d12450d	0.035710383
52	0x3cd2d39d	0.02573567
53	0x3d893553	0.06699624
54	0x3d0b7f32	0.03405685
55	0x3d49cffd	0.04927062
56	0x3d1d3f8f	0.038390692
57	0x3d640467	0.05566826
58	0xbd5fea1d	-0.054666627
59	0xbd1a8e14	-0.037733153
60	0x3d4fe8f3	0.050759267
61	0xbd262ad2	-0.04056818
62	0x3d2968f2	0.04135985
63	0x3b62c21c	0.0034600561
64	0xbbf6c6bc	-0.007531015
65	0xbd4b29f7	-0.049600568
66	0xbd880683	-0.06641867
67	0xbd07db67	-0.033168223
68	0xbd7e6438	-0.062107295
69	0xbd81fd64	-0.063471586
70	0xbd28bf4f	-0.04119807
71	0xbc9b3291	-0.01894501
72	0x3d976ce5	0.07393817
73	0xbd718340	-0.05896306
74	0x3d6a45e8	0.057195574
75	0xbd4d7494	-0.050160006
76	0xbd573703	-0.052542698
77	0x3cdc116f	0.026863782
78	0xbc8b1045	-0.016975531
79	0xbc218ec1	-0.009860695
80	0x3d166afe	0.03672313
81	0xbccbbaa2	-0.024869267
82	0x3cf3ea50	0.029774815
83	0x3d053407	0.03252032
84	0x3b814441	0.003944904
85	0x3d366bf4	0.044536546
86	0xbd64cd9d	-0.05586015
87	0x3b46d930	0.0030341856
88	0xbd99da84	-0.07512382
89	0xbd4233ce	-0.047412686
90	0x3daca97e	0.084307656
91	0xbd7a213c	-0.06106685
92	0xbd713d77	-0.058896508
93	0xbda4f232	-0.080540076
94	0xbcb254b9	-0.021768915
95	0x3d0828fc	0.03324221
96	0xbb35d14d	-0.0027743161
97	0x3c0099fc	0.007849213
98	0xbd3b77b7	-0.045768466
99	0xbc209aa4	-0.009802494
100	0x3cd5019a	0.02600174
101	0xbd354682	-0.044256695
102	0x3da197dc	0.07890293
103	0xbcf69fcf	-0.0301055
104	0x3cc07d01	0.023497107
105	0xbd3bb15f	-0.04582345
106	0x3ce5d57a	0.028055895
107	0x3d8079fd	0.062732674
108	0x3af009fc	0.0018313522
109	0xbd0458db	-0.0323113
110	0x3d21e01f	0.03952038
111	0xbd5fbcd1	-0.05462343
112	0x3b02ee95	0.0019978632
113	0x3d84d90e	0.064867124
114	0x3d5cc8b8	0.053902358
115	0x3cb20d79	0.02173494
116	0x3c84eb17	0.01622538
117	0x3d86db90	0.06584847
118	0xbd1d8830	-0.038459957
119	0xbca6b964	-0.020352073
120	0x3a147d37	0.00056644104
121	0x3ccb232a	0.024797041
122	0xbda1c620	-0.078991175
123	0xbc98c167	-0.018646909
124	0xbcbb82c2	-0.022889499
125	0x3bfc732d	0.0077041597
126	0xbd8928b9	-0.0669722
127	0xbd8ca26d	-0.06866918
128	0xbd031c22	-0.03200925
129	0x3d5e7c16	0.054317556
130	0x3cf6a5b9	0.03010832
131	0x3cf14db1	0.029455991
132	0xbd23e074	-0.040008977
133	0xbd691a34	-0.056909755
134	0xbd34714e	-0.04405337
135	0xbb19d0d3	-0.0023470416
136	0xbc4c120e	-0.012455476
137	0x3dd63f07	0.1046124
138	0xbcdb246d	-0.026750768
139	0x3ba443b0	0.005012952
140	0xbc3643ab	-0.011124532
141	0xbd88fe38	-0.066891134
142	0x3bd47f0e	0.0064848727
143	0xbc8808cd	-0.016605759
144	0xbc9f2254	-0.019425549
145	0x3c86f33d	0.016473407
146	0xbd46a213	-0.04849441
147	0x3d1d802e	0.03845232
148	0xbbdc2fe8	-0.006719578
149	0x3ce68bf0	0.0281429
150	0x3c0200a7	0.007934726
151	0xbc004413	-0.00782873
152	0xbd7332a6	-0.059374474
153	0xbd5713f4	-0.052509263
154	0x3d1caaac	0.038248703
155	0x3d401b03	0.04690076
156	0xbbbd2bf2	-0.005773061
157	0xbd0e3067	-0.03471413
158	0xbc111c39	-0.008856826
159	0xbd91ca75	-0.07118694
160	0xbc8dc180	-0.017304182
161	0xbd6d8382	-0.057986744
162	0xbc45aa42	-0.012064518
163	0x3bfcafbe	0.00771138
164	0x3d7d1664	0.06178893
165	0xbbfad550	-0.0076548234
166	0x3d236065	0.03988685
167	0x3cc67077	0.02422355
168	0xbdbf0a09	-0.09328086
169	0xbca67786	-0.020320665
170	0x3d02d33c	0.03193973
171	0xbd3df604	-0.046377197
172	0xbd2080d5	-0.039185364
173	0x3cdc5e6e	0.026900496
174	0x3cdd5e0f	0.02702239
175	0xbd28514c	-0.041093156
176	0x3cd33064	0.02577991
177	0xbc1652fa	-0.009175057
178	0xbc14933e	-0.009068308
179	0x3d65047f	0.05591249
180	0xbcd956c1	-0.026530625
181	0x3d3fc1e5	0.04681577
182	0x3c0abd11	0.0084679285
183	0x3d42f3de	0.04759585
184	0x3d1653ee	0.036701135
185	0x3c4d0e3d	0.012515602
186	0xbd681190	-0.056657374
187	0x3d758eb2	0.059950538
188	0xbb08e0de	-0.0020885984
189	0x3c38e60c	0.011285316
190	0x3cc75f63	0.024337476
191	0x3cdbbb65	0.026822755
192	0xbd43d43c	-0.047809824
193	0x3d712b2b	0.05887906
194	0xbb20f08e	-0.0024557444
195	0x3c4915f2	0.012273299
196	0x3d9528a2	0.07283141
197	0x3c390992	0.011293786
198	0xbb9c6511	-0.0047727902
199	0x3c3c7a4c	0.011503767
200	0xbc4ae4a6	-0.012383616
201	0xbc3ffd89	-0.011718162
202	0xbc914067	-0.017730905
203	0xbc28d721	-0.010305197
204	0x3d80f123	0.06295993
205	0xbc8ebe46	-0.017424714
206	0x3cd5c31e	0.026094016
207	0xbc9bbc3a	-0.019010652
208	0x3dbc098d	0.09181509
209	0xbc45b19b	-0.01206627
210	0x3c19ff56	0.009399256
211	0x3c15fd0c	0.009154569
212	0x3c504ac0	0.012713134
213	0x3bd10fc8	0.006380055
214	0xbd371e88	-0.04470685
215	0x3c6d2e76	0.014476409
216	0xbc217bce	-0.0098561775
217	0xbc3cac27	-0.011515654
218	0x3d37feef	0.044920858
219	0x3d64460c	0.055730864
220	0x3cb71aa1	0.022351565
221	0x3c8f1309	0.017465131
222	0x3c5ceb4c	0.0134838335
223	0xbd38b61a	-0.04509554
224	0xbcd03b73	-0.025418973
225	0xbd5cc410	-0.053897917
226	0xbcf3e5e1	-0.0297727
227	0x3d006bb3	0.03135271
228	0xbd85895d	-0.065203406
229	0x3d550033	0.052002143
230	0xba94eed0	-0.0011362676
231	0xb9bf8f50	-0.00036537135
232	0x3cff6821	0.031177582
233	0x3d5404a7	0.05176225
234	0xbd3a243c	-0.045444712
235	0x3d021373	0.03175683
236	0xbd69f500	-0.057118416
237	0x3c0f7b93	0.00875749
238	0x3c583d2a	0.013198176
239	0xbc65b1d9	-0.014019453
240	0x3d2be90a	0.04197029
241	0xbd22a488	-0.03970769
242	0xbbda1919	-0.006655824
243	0xbd84f647	-0.06492286
244	0xbd77525e	-0.060381286
245	0xbd3ab632	-0.04558391
246	0x3d435587	0.047688987
247	0x3bd0f529	0.0063768816
248	0xbccc23e0	-0.02491945
249	0x3d282530	0.04105109
250	0x3b6f332d	0.003649901
251	0xbce92190	-0.028458387
252	0xbd72e3e5	-0.05929937
253	0x3be8caf3	0.0071042716
254	0xbba1a220	-0.004932657
255	0x3d0e0c4d	0.0346797

bias f4 [256]
0	0x3cb62017	0.022232099
1	0xbc4f09db	-0.012636627
2	0xbd91b826	-0.07115202
3	0x3cce1eb2	0.025161121
4	0xbd941ad1	-0.07231677
5	0x3d273807	0.040824916
6	0xbd4ebd7e	-0.050473683
7	0x3d85f1dc	0.06540272
8	0x3d5e6a00	0.05430031
9	0x3d5a8406	0.053348564
10	0xbd946803	-0.07246401
11	0x3b1f25d5	0.0024284024
12	0xbb694114	-0.0035591768
13	0x3d6c48ce	0.05768662
14	0x3d9d7e71	0.076901324
15	0xbbf7bf82	-0.0075606713
16	0x3d883785	0.066512145
17	0xbd37aa26	-0.04484
18	0x3b3123d3	0.002702941
19	0xba7fa6f6	-0.0009752357
20	0x3d4f6605	0.050634403
21	0xbcad58f4	-0.02116058
22	0xbd3765b4	-0.044774726
23	0x3b8c7780	0.0042867064
24	0x3cace42e	0.021104898
25	0xbd46394f	-0.048394497
26	0xbd9fac1e	-0.077965006
27	0xbcfab251	-0.030602606
28	0xbd277117	-0.040879335
29	0xbd8d3b0a	-0.068960264
30	0xbd9eafad	-0.07748351
31	0x3ce71e12	0.02821258
32	0x3d0ed36a	0.03486959
33	0x3d841641	0.06449557
34	0xbd036438	-0.032077998
35	0x3d8ef1ca	0.06979711
36	0x3d6f375b	0.0584024
37	0xbd19da93	-0.037561964
38	0x3cc6e046	0.024276864
39	0xbd8e4a13	-0.06947722
40	0xbc427824	-0.011869464
41	0xbd1735fa	-0.03691671
42	0x3d0f3ad5	0.034968216
43	0xbd6cdccb	-0.057827752
44	0xbbcd8baf	-0.006272755
45	0x3cec34db	0.028833797
46	0xbd1a6e81	-0.03770304
47	0x3d37c9b0	0.04487008
48	0xbbb9e32c	-0.005672833
49	0x3c92ec56	0.01793496
50	0xbda602c4	-0.08105996
51	0xbc214f6b	-0.009845595
52	0x3cb77cc9	0.02239837
53	0xbce955ff	-0.028483389
54	0xbd681c1a	-0.056667425
55	0xbd09da4d	-0.033655453
56	0xbd4d74ae	-0.050160103
57	0x3c070659	0.0082412595
58	0xbd85d98a	-0.06535633
59	0xbc01e1d2	-0.007927375
60	0x3d8a7bc0	0.06761885
61	0x3c18ae6c	0.009318929
62	0xbd8651a1	-0.06558538
63	0xbd91e224	-0.07123211
64	0x3d7d6fce	0.061874203
65	0x3c7122cc	0.014717769
66	0x3cbafe5e	0.02282637
67	0xbd05a6e5	-0.032629866
68	0xbb95fd2f	-0.004577301
69	0x3d87bb0c	0.06627473
70	0x3d082673	0.033239793
71	0x3d784f0b	0.060622256
72	0xbc70881e	-0.01468089
73	0xbce7e05f	-0.02830523
74	0xbc205044	-0.009784762
75	0xbd3ad8fa	-0.04561708
76	0xbcff5ede	-0.031173166
77	0x3c05449c	0.0081340335
78	0x3b5b42b4	0.0033456506
79	0x3ae1fcbc	0.0017241458
80	0x37d6a310	2.558672e-05
81	0xbc8f5ff9	-0.017501818
82	0x3c00eda4	0.007869158
83	0x3c773181	0.015087486
84	0x3d839f85	0.0642691
85	0x3c58cb73	0.0132321
86	0x3c5c9677	0.013463608
87	0xbbe41bf9	-0.0069613424
88	0x3d6e8849	0.05823544
89	0x3cd04300	0.025422573
90	0xbcfab3ae	-0.030603256
91	0xbd911295	-0.07083622
92	0x3d843ded	0.06457124
93	0x3d9279b9	0.07152123
94	0x3c3ddfa4	0.011588965
95	0xbcbd54f7	-0.023111803
96	0xbc05c7de	-0.008165328
97	0x3c4d2287	0.012520439
98	0xbd0d2568	-0.0344595
99	0xbc356dce	-0.011073543
100	0xbd0705a1	-0.032964353
101	0xbc691069	-0.014225104
102	0xbd7f207f	-0.06228685
103	0xbcb0b0ba	-0.021568645
104	0xbd34b8bb	-0.044121485
105	0x3d318519	0.043339822
106	0x3d2b4e97	0.041822996
107	0x3d0e6ad1	0.034769837
108	0xbd0500a0	-0.0324713
109	0x3c01d19c	0.00792351
110	0xbd2922e5	-0.041293044
111	0x3d60979c	0.054832086
112	0x3a9e87f8	0.0012094965
113	0xbd56001a	-0.05224619
114	0x3ac75af8	0.0015209606
115	0x3c77d785	0.015127067
116	0xbce3c30e	-0.02780297
117	0xbd73d0ed	-0.05952542
118	0xbd8bce13	-0.06826415
119	0xbd42e727	-0.047583725
120	0xbd1b06db	-0.037848335
121	0xbd9febf5	-0.07808677
122	0x3d767063	0.060165774
123	0x3d087582	0.03331519
124	0x3d091718	0.03346929
125	0x39d2e4f2	0.000402249
126	0xbd8717e4	-0.06596354
127	0xbd9b4137	-0.07580798
128	0x3cbeda02	0.023297314
129	0xbd37e25b	-0.044893604
130	0xbd9624fd	-0.07331274
131	0x3d22c1d6	0.039735638
132	0xbd8258c7	-0.06364589
133	0x3c85484b	0.016269824
134	0xbc8647a5	-0.016391585
135	0x3cbfdc46	0.023420464
136	0xbc0ee316	-0.008721134
137	0x3cb0075a	0.02148788
138	0xbd8a913b	-0.06765982
139	0xbd47aa6a	-0.048746504
140	0x3d7180c8	0.058960706
141	0xbd4a06e6	-0.049322985
142	0x3c81599a	0.015789796
143	0xbd8bc840	-0.06825304
144	0xbd0ef210	-0.034898818
145	0x3cef6f63	0.029227918
146	0xbd95aade	-0.07307981
147	0x3c354ffc	0.011066433
148	0xbd6bd6ac	-0.057577774
149	0xbd9824ae	-0.07428871
150	0x3d5d5005	0.05403139
151	0xbb6af442	-0.0035851155
152	0xbdaade42	-0.083431736
153	0xbc86d210	-0.016457587
154	0xbd8a9946	-0.06767516
155	0xbd0feda1	-0.03513873
156	0xbc59dd5b	-0.013297404
157	0x3a3cc894	0.00072015193
158	0xbd3d1654	-0.046163872
159	0xbbd50be3	-0.006501661
160	0xbd8f791a	-0.0700552
161	0xbbda70a4	-0.00666626
162	0xbca7471e	-0.020419654
163	0xbbe94329	-0.007118602
164	0xbce873aa	-0.028375465
165	0x3bf8bff2	0.007591241
166	0xbbaa7531	-0.0052019586
167	0x3cdb2cae	0.026754703
168	0xbb988b4c	-0.0046552774
169	0xbc841c8c	-0.016126893
170	0x3d2393dc	0.03993593
171	0xbd82df7c	-0.063902825
172	0xbd817f33	-0.063230895
173	0xbd243335	-0.040087897
174	0x3c9634ca	0.018335719
175	0x3cc0fe5b	0.023558786
176	0xbd603472	-0.054737516
177	0xbdaf92c7	-0.085729174
178	0x3d2a966f	0.04164737
179	0xbd80b320	-0.062841654
180	0x3c4981db	0.012299026
181	0xbc88cfdc	-0.016700678
182	0xbc5979dc	-0.013273682
183	0xbb9ba71b	-0.004750145
184	0x3d03b121	0.032151345
185	0xbd5df9fb	-0.054193478
186	0xbd942b94	-0.07234874
187	0xbd945648	-0.07243019
188	0xbcf828ea	-0.030292947
189	0x3ca99f80	0.020705938
190	0xbb64be7a	-0.0034903572
191	0x3da65cdf	0.081231825
192	0xbd13908a	-0.036026515
193	0x3d148ed2	0.036269017
194	0x3c839f85	0.016067276
195	0x3ce0ede0	0.027457178
196	0xbcaea8a8	-0.021320656
197	0x3ca4353e	0.02004492
198	0xbd68eadd	-0.056864608
199	0xbd145c87	-0.036221053
200	0x3cc60ebf	0.024176953
201	0xbd139e7c	-0.036039814
202	0x3cdeaf98	0.027183339
203	0xbcb890eb	-0.02253004
204	0xbd5dc56f	-0.054143365
205	0x3cefb6b4	0.029261924
206	0xbd582c08	-0.052776366
207	0x3d4bbdff	0.04974174
208	0x3d71c427	0.059024956
209	0xbcbe2a87	-0.023213638
210	0x3c669eb0	0.01407592
211	0x3d9cc767	0.076552205
212	0xbd8eebb8	-0.069785535
213	0x3c94814d	0.018128062
214	0x3d4320d9	0.047638748
215	0x3aab8d03	0.0013088289
216	0x3ba02047	0.0048866603
217	0xbcb30c1d	-0.021856362
218	0xbbadccbc	-0.0053039473
219	0x3c242b1e	0.010020046
220	0xbd33b32a	-0.043872036
221	0xbc6c82cb	-0.01443548
222	0xbd1e4cae	-0.038647346
223	0x3d06454b	0.032780927
224	0x3cfccac2	0.030858401
225	0xbd317df8	-0.043333024
226	0xbd272e70	-0.04081577
227	0xbd9bb400	-0.07602692
228	0xbd32519b	-0.043534856
229	0xbd422f7a	-0.04740856
230	0x3d1e975b	0.038718563
231	0x3d772c4a	0.06034497
232	0xbd2361ba	-0.03988812
233	0xbb6f3b01	-0.0036503675
234	0xbd81d1f3	-0.06338873
235	0xbc4bfdc2	-0.012450637
236	0x39da7fb4	0.00041675346
237	0xbd839c41	-0.064262874
238	0xbc9027e7	-0.017597152
239	0x3d4895df	0.048971053
240	0x3d6dbbcc	0.058040425
241	0xbcba9c2d	-0.022779549
242	0x3a94bb5f	0.0011347345
243	0xbcdf7808	-0.027278915
244	0x3d59c4ee	0.053166322
245	0x3cc320de	0.023819383
246	0xbdac5558	-0.084147155
247	0x3d0a0808	0.033699065
248	0x3d0bf373	0.03416772
249	0x3ce1e6c9	0.027575867
250	0x3cacd82a	0.021099169
251	0x3d41c0cc	0.047303006
252	0xbc78fda9	-0.015197196
253	0xbcc0772c	-0.023494326
254	0xbcb20d6d	-0.021734918
255	0x3d101345	0.035174627

weight f4 [128, 256]
0	0x3d71bb5a	0.059016563
1	0xbc12a782	-0.00895107
2	0x3d39f9d0	0.045404255
3	0xbba53064	-0.005041169
4	0xbd5e5882	-0.054283626
5	0xbd0196be	-0.0316379
6	0x3d74a1ec	0.059724733
7	0xbdb4a754	-0.08820978
8	0x3ca6f1c2	0.020378951
9	0xbd7d0172	-0.061768956
10	0xbd39b185	-0.04533531
11	0xbcf5d1d0	-0.030007273
12	0xbd9c25ec	-0.076244205
13	0x3d45120e	0.04811292
14	0xbca330a9	-0.019920664
15	0xbd83bf30	-0.064329505
16	0xbd0c698e	-0.034280352
17	0xbc1ae6d8	-0.0094544515
18	0xbcb9a06d	-0.022659505
19	0xbce878b6	-0.028377872
20	0x3d8a189c	0.06742975
21	0xbc4c2eaa	-0.012462297
22	0xbcea1d7a	-0.028578509
23	0x3d2b45eb	0.041814726
24	0xbcc85cb1	-0.024458261
25	0x3d134875	0.035957772
26	0xbc6fc983	-0.0146354465
27	0x3d2e33db	0.042529922
28	0x3cbdd1a7	0.02317126
29	0x3d4288e3	0.047493827
30	0xbb999854	-0.0046873484
31	0xbd9ec5c4	-0.077525645
32	0xbc68336a	-0.014172414
33	0xbbf139da	-0.007361633
34	0xbc88c4fb	-0.01669549
35	0xbd40b247	-0.04704502
36	0x3c790418	0.01519873
37	0xbd460ba4	-0.048350945
38	0x3d265846	0.040611528
39	0xbc65defd	-0.014030215
40	0xbd62267a	-0.055212475
41	0xbc937d07	-0.018003954
42	0x3c2b1fe9	0.01044462
43	0xbd6c5c6a	-0.05770532
44	0xbcbff5aa	-0.023432571
45	0x3cc21b7f	0.023694752
46	0xbd55f541	-0.052235845
47	0x3cfc3adf	0.03078979
48	0xbd11e28a	-0.035616435
49	0xbd01c7eb	-0.031684797
50	0xbcbcecad	-0.023062075
51	0x3cf1ab2d	0.029500568
52	0x3cdc35c6	0.02688111
53	0x3ced9001	0.02899933
54	0x3d38aeca	0.045088567
55	0x3d0bfacd	0.03417473
56	0xbd23bbd3	-0.039974045
57	0xbde02cc9	-0.10946042
58	0x3c6f04d9	0.014588558
59	0xbdbadbf0	-0.09123981
60	0xbc8dbf70	-0.017303199
61	0xbcba154e	-0.022715237
62	0x3d14691f	0.036233064
63	0xbd8395e2	-0.06425072
64	0x3d50dda8	0.050992638
65	0xbcc7deb2	-0.024398182
66	0xbcdd94bd	-0.027048463
67	0x3c984138	0.018585786
68	0x3ca8036b	0.020509442
69	0x3da7f594	0.08201137
70	0x3da81f41	0.08209086
71	0xbcb2d494	-0.02182988
72	0xbdb8e76e	-0.09028517
73	0xbdcecbdb	-0.10097476
74	0xbc6d12b2	-0.014469789
75	0x3d30a6d7	0.04312786
76	0xbd4b1b04	-0.04958631
77	0xbd8a0527	-0.06739264
78	0xbd486482	-0.048923977
79	0x3d0df426	0.034656666
80	0x3c340c2a	0.010989228
81	0xbd242afd	-0.04008006
82	0xbb8cdda2	-0.0042988816
83	0xbd32647f	-0.04355287
84	0x39fab6cd	0.00047819913
85	0x3d491e77	0.04910132
86	0xbd135c50	-0.035976708
87	0xbd56cab6	-0.052439414
88	0xbce67a12	-0.02813438
89	0xbce7bb27	-0.028287483
90	0xbb2f0073	-0.0026703149
91	0xbbcda7be	-0.0062761
92	0xbde58ca2	-0.11208464
93	0xbdb1ddeb	-0.086849056
94	0xbdbdfeba	-0.09277101
95	0xbd269d9a	-0.040677644
96	0xbca7d084	-0.02048517
97	0x3aa18f6f	0.0012326072
98	0xbd3b7bca	-0.04577235
99	0xbb49ebf7	-0.0030810812
100	0xbd0d0b22	-0.034434445
101	0xbda237b0	-0.07920778
102	0x3ce65984	0.028118856
103	0x3c710749	0.01471121
104	0x3b811fd5	0.0039405623
105	0x3d372010	0.04470831
106	0xbb50d80e	-0.003186706
107	0xbd097407	-0.033557918
108	0x3d5ed845	0.05440547
109	0x3c74d3de	0.014943091
110	0x3d41f5c5	0.047353525
111	0xbd1bcf80	-0.038039684
112	0x3c56e6f1	0.013116584
113	0xbd6f8a21	-0.05848134
114	0x3d45fe9f	0.04833853
115	0xbd2516cd	-0.040304948
116	0x3cb0e3a5	0.021592924
117	0x3c57202a	0.013130227
118	0xbda4d1ea	-0.080478504
119	0xbd7cf0f5	-0.061753232
120	0xbd864eb6	-0.06557982
121	0x3cbc10d4	0.022957243
122	0xbcc6180e	-0.024181392
123	0xbd72ea8e	-0.05930572
124	0xbd1cdde9	-0.038297568
125	0xbb2a9735	-0.0026030068
126	0xbd312ca1	-0.043255452
127	0x3d611deb	0.054960173
128	0xbd68f21d	-0.056871522
129	0x3d31233b	0.04324649
130	0x3c85f53e	0.016352292
131	0xbd82ab07	-0.06380277
132	0xbd3f4691	-0.046698157
133	0x3c5dd282	0.0135389585
134	0xbc63923f	-0.013889848
135	0xbd497d7f	-0.049191948
136	0xbce6c525	-0.028170178
137	0xbc366d49	-0.011134454
138	0xbc7aad28	-0.015300073
139	0xbba9fcad	-0.005187592
140	0x3cc32215	0.023819963
141	0xbc8234ea	-0.015894372
142	0xbd29a2b8	-0.041414946
143	0xbcab7092	-0.020927701
144	0xbbdb519d	-0.0066930787
145	0xbc85f4a7	-0.01635201
146	0xbd747ac3	-0.059687387
147	0xbc6830a6	-0.014171755
148	0x3c3eceda	0.011645997
149	0xbd38eddc	-0.045148715
150	0xbcf08771	-0.029361458
151	0xbd24294a	-0.04007844
152	0x3c2143b9	0.0098428065
153	0xba45223b	-0.00075200544
154	0xbcb26339	-0.021775829
155	0xbd714d13	-0.058911394
156	0x3d1fd7c4	0.03902413
157	0x3c5ca59f	0.0134672215
158	0xbcbfd756	-0.02341811
159	0xbd26f144	-0.040757433
160	0x3d27215e	0.040803306
161	0x3cfb7f5c	0.030700378
162	0xbd7b31e5	-0.06132688
163	0xbd656af1	-0.05601019
164	0x3d080b18	0.033213705
165	0xbd47d4c6	-0.0487869
166	0x3cd1f62a	0.025630075
167	0xbcf9e17a	-0.030503023
168	0xbc22be42	-0.009933056
169	0x3d5abd76	0.05340334
170	0xbc4242c2	-0.011856737
171	0xbc404324	-0.011734758
172	0x3d1178fb	0.035515767
173	0x3d43dc8a	0.047817744
174	0x3ade8f13	0.0016979895
175	0xbd411a39	-0.04714415
176	0xbd24498e	-0.04010921
177	0x3cacddfd	0.021101946
178	0x3cfa0b04	0.03052283
179	0x3ccc39e0	0.02492994
180	0xbc22f87b	-0.009946938
181	0x3acc54f2	0.001558928
182	0xbc15ef34	-0.009151269
183	0x3cb9e6cd	0.022693062
184	0xbbeac111	-0.0071641286
185	0xbd463ae1	-0.048395995
186	0x3d23181b	0.03981791
187	0xbcce8404	-0.025209434
188	0xbc9e707b	-0.019340744
189	0x3daa661d	0.08320258
190	0x3c01a2dd	0.007912365
191	0xbd2dc182	-0.04242087
192	0x3bda8cce	0.0066696173
193	0xbd75e307	-0.060030963
194	0x3d2c33b4	0.042041495
195	0x3d4f0223	0.050539147
196	0x39929714	0.00027959852
197	0xbc14be3a	-0.009078557
198	0xbc483195	-0.0122188525
199	0x3cbe4c58	0.023229763
200	0x3d3d1f68	0.04617253
201	0xbd701187	-0.058610465
202	0xbd58fd81	-0.052976135
203	0xbceb4c97	-0.028723044
204	0xbd4d4bcb	-0.05012111
205	0xbcb6dcb7	-0.022322042
206	0xbd3edc91	-0.046597067
207	0x3cdc42b7	0.02688728
208	0xbdb5c2cc	-0.08875045
209	0xb9b9ff7d	-0.00035476303
210	0x3cd520cd	0.026016617
211	0x3cf784c1	0.03021467
212	0x3d264b11	0.040598933
213	0xbd06c8d9	-0.032906387
214	0xbd1d876e	-0.038459234
215	0xbdb57f63	-0.08862188
216	0x3d2b2acc	0.04178886
217	0xbd2c9a18	-0.042139143
218	0xbc870481	-0.01648164
219	0x3cea14c2	0.028574351
220	0xbcf5687b	-0.029957047
221	0xbd84a306	-0.06476407
222	0xbcd433c0	-0.025903583
223	0x3d20e480	0.039280415
224	0x3bbdc1f3	0.005790943
225	0xbd65eb3e	-0.056132548
226	0xbc7b939a	-0.015355015
227	0x3d1f42fe	0.038882248
228	0x3d5a95d0	0.05336553
229	0x3bc2c291	0.0059436043
230	0xbd0dd8a1	-0.03463042
231	0xbd580f4d	-0.052748967
232	0xbc8898b7	-0.016674383
233	0xbcd6c026	-0.02621467
234	0x3ceb7b58	0.028745338
235	0x3d0acfcc	0.033889577
236	0x3baeb2fd	0.0053313957
237	0xbd067e6c	-0.03283541
238	0x3c586665	0.0132080065
239	0x3c87d1d8	0.016579553
240	0x3cc81678	0.024424776
241	0xbcc36a37	-0.023854358
242	0xbcd767e6	-0.02629466
243	0xbd5d6274	-0.05404897
244	0xbd92eb6f	-0.07173812
245	0xbd40b36c	-0.04704611
246	0x3d2695cf	0.040670212
247	0xbcb9cfb6	-0.022682052
248	0xbd55e3ce	-0.052219205
249	0x3d845cd5	0.06463019
250	0x3d228ed3	0.03968699
251	0xbd7abec1	-0.061217073
252	0x3bef17ca	0.007296537
253	0xbd949621	-0.07255197
254	0x3c68ea3a	0.014216
255	0xbcdd6ff1	-0.027030917
