models/model_objs/SmartBetter low risk demo strategy.pth (torch, 837307 bytes, 11 tensors)

weight f4 [256, 135]
00000000: f74d 513e 0afe a3bd 5abd 29be 2a37 9dbe
00000010: 721e ecbd de3d 0ebe 9ae8 58be 6459 9dbd
00000020: 8908 28be d53a 6d3c 6c44 23be 76c8 45bd
00000030: f045 963c 895f 923d 876d e43d 40ff 123e
00000040: bc10 3fbd b984 9c3c c667 eb3d db6c 473d
00000050: 3c2c 9cbc 3081 ecbd ed9b 203e 3b5f f23d
00000060: b34f ac3d 47da 15be cb5d 40bd 1004 693d
00000070: f49b c53a ce5b 77bd 10e3 30bd 8e33 91bd
00000080: 146e 7ebd 9a9e 41bd e3d6 663d 5350 24be
00000090: 36e5 c83c 85e1 013d fa08 53bd 736f 823e
000000a0: da3c 63bc b819 353e b4f7 4a3d 2026 293f
000000b0: 29aa 2d3d 093f a93c 94c1 30bc 4a67 2bbc
000000c0: 1e0f dd3d 1104 233f 9072 0dbf 7f04 02bf
000000d0: afde 1c3f 6146 b93e 053d a63d dc77 52be
000000e0: 09b6 6ebe cbce 4a3f cda3 88bd fb45 a93e
000000f0: f80e abbe 779d 8dbf 3b56 24bf 9823 a3be
00000100: f4d7 91be 53f8 97bd b927 c73d 10af 793e
00000110: eb47 0ebe 750c 1bbf 8b2d acbe 4289 06be
00000120: b634 20bd f32d 8d3e 6ab4 eabd 7677 783f
00000130: 583d e9be 46d4 2c3e be53 403d 16eb edbd
00000140: 84ff 3b3e 2ffb 1ebf e969 54bd abc4 53bd
00000150: 89a1 75be ebeb 3c3e 35d2 df3e 94cb 9cbd
00000160: 5fa3 a03e 42c4 973c 320a ecbd 9d26 31bf
00000170: 2f45 2e3f 1310 09be 759e b4bc f2b0 f83e
00000180: 3dab 2b3d cd20 d8bc 0b14 b33b d67a 943e
00000190: dac0 3cbe adaa 073f ec11 553e 9633 de3c
000001a0: a908 b93e cd3c 26be 5369 39bf b4ef 18bf
000001b0: e90c 6abe 921f 9b3e 98a7 c4bd b8cc 5c3b
000001c0: 045d f43e aecd 8e3e 2924 aabe 8a0b 39be
000001d0: ab15 823e 0213 eabe 26ce cebe a0e9 853e
000001e0: bfbb 37bf 979e 603d 2181 973e f660 823e
000001f0: ed3a 21be 47dd cf3e 9afe 3cbf 54ea dabe
00000200: b538 ab3d 8f2b 43be cf9f 6e3e 6e49 5a3d
00000210: c7c3 d43d 91b3 b53c a4b0 0dbb 5147 c03d
00000220: 5e13 2c3e c99c 36bc 1cb2 4f3d 6b2a 31bc
00000230: 3197 c53d 4b86 00be d1db 6f3d 9f3a ce3d
00000240: 517b 2cbe 9898 e5bc d7c2 89bd 440e f73c
00000250: 1229 e03c e030 90bc e1fe 1d3e 206b 853d
00000260: 5f8d a5bd 37c2 d5bd 16ad 9ebd 8804 a7bc
00000270: 063c e33c 05e3 4b3d edad f03d 6d68 153d
00000280: 5082 473d dc37 483c af77 b13c 896c cfbd
00000290: 2fca f23c 35d3 473e 7f8e 213e 7f1c 10be
000002a0: 18c8 4cbd c381 c73d bcd1 293d e56b 2cbe
000002b0: 8cb1 d8bd 2570 d3bd fd9f 99bd 1fde 6b3d
000002c0: 247c cfbe b3de e6be 24aa 7dbd 48b9 4fbe
000002d0: 674e b9bd 057d 653e 7d84 113e 94a5 893e
000002e0: c26a 3d3d 0661 373d a345 bfbe 8440 cabe
000002f0: 0837 0a3f d1a1 78bf e4c8 283e c0da f73e
00000300: ee3f 60bf 4b8e 6fbf 736b 0d3e a046 bd3e
00000310: 7bf7 73bf aec5 0bbf c789 86be 6165 003e
00000320: 1ab0 2dbf fbc1 093d 3052 27bd 3ec4 0a3f
00000330: ee3e 733e 1833 1c3e 289c f6bd 296a f2be
00000340: c74e 383c 5aed 263d 2ee9 51be 29b0 4bbf
00000350: 95cb ebbe 54ff 343e 6bdc 2e3e 61b1 f9be
00000360: dd65 2cbe 2d0d ce3d 186f 283d db7d 4bbe
00000370: e8d6 1d3e 019d 2ebf 5085 153d 0cfe 9abe
00000380: b2c9 2c3e d93e 31be 03ba 8a3d 9150 d93d
00000390: ff5e 7bbe 3f44 ffbd 1715 c9bf ed17 2dbe
000003a0: dd63 ebbe 2f04 b4bb 7da8 46be b018 3b3e
000003b0: 4ce3 00be 5491 353e fb13 c33d b10b 553d
000003c0: c042 243f aafe 063d d41e 32bf 8677 173f
000003d0: 9d02 293e 8355 1cbe c7d5 f0bc 194e 293e
000003e0: efe6 c9be 561b 943e 31f4 0bbf 7b79 abbe
000003f0: 8b67 203e 9171 97be f866 07bf 07d8 2abe
0.20439897 -0.080074385 -0.16576138 -0.3070615 -0.115292445 -0.13890788 -0.2118248 -0.076830655
-0.16409506 0.014479359 -0.1594407 -0.048286878 0.018343896 0.07147128 0.11153703 0.14355183
-0.04664682 0.019106256 0.114944026 0.048687797 -0.019064061 -0.11548078 0.15684481 0.1183457
0.08413639 -0.14634047 -0.046964448 0.05688864 0.0015076385 -0.060390286 -0.043185294 -0.070899114
-0.062116697 -0.047270395 0.056357276 -0.16046266 0.024523359 0.031709213 -0.051522233 0.25475654
-0.013869489 0.17685592 0.049552634 0.660738 0.042398605 0.02065994 -0.01078834 -0.010461638
0.10793899 0.6367808 -0.55252934 -0.5078811 0.6127729 0.36186507 0.08117107 -0.20553535
-0.23311628 0.7922179 -0.066718675 0.33061203 -0.33409858 -1.106368 -0.6419408 -0.31863093
-0.28485072 -0.07420411 0.09724373 0.24383187 -0.13894622 -0.6056588 -0.33628497 -0.13138297
-0.03911277 0.2757412 -0.114601925 0.9705728 -0.45554614 0.16877851 0.046954863 -0.11617105
0.1835919 -0.62102026 -0.051858816 -0.05170123 -0.23987402 0.1844937 0.43715063 -0.07656017
0.31374642 0.0185262 -0.11525382 -0.69199544 0.68074316 -0.13385038 -0.022048214 0.485725
0.041911352 -0.026382828 0.005465036 0.28999966 -0.18432942 0.52994806 0.20807618 0.027124207
0.3613942 -0.16234131 -0.72426337 -0.5974076 -0.22856487 0.30297524 -0.096022785 0.0033691358
0.47727215 0.27891296 -0.33230713 -0.18070808 0.25407156 -0.45717627 -0.40391654 0.26154804
-0.7177085 0.054838743 0.29590705 0.254646 -0.15745135 0.4059851 -0.7382599 -0.42756903
0.083604254 -0.19059585 0.2330315 0.053292684 0.10388904 0.02218035 -0.0021620179 0.093886025
0.16804263 -0.011145779 0.050706968 -0.010813336 0.09647978 -0.12551229 0.058559243 0.10069775
-0.16843916 -0.028026864 -0.06726616 0.03015817 0.027363334 -0.01760143 0.1542926 0.06514573
-0.08083605 -0.10437434 -0.07747857 -0.020387903 0.027738582 0.04977705 0.11751924 0.03647654
0.04870826 0.012220349 0.021663515 -0.10128123 0.029637424 0.19514163 0.15777014 -0.1407337
-0.04999551 0.09741547 0.041459784 -0.16838033 -0.105807394 -0.10324124 -0.075012185 0.057584878
-0.405244 -0.4509178 -0.061929837 -0.20285523 -0.09048157 0.22410972 0.14210697 0.2688414
0.04624439 0.044770263 -0.37357816 -0.39502347 0.5399022 -0.9712191 0.16482884 0.4840908
-0.8759755 -0.93576497 0.1381052 0.36967945 -0.952995 -0.5459851 -0.2627699 0.12538673
-0.67846835 0.03363226 -0.040849864 0.5420569 0.23754475 0.15253866 -0.12041503 -0.4734662
0.011249251 0.0407537 -0.20499107 -0.79565674 -0.46053758 0.17675525 0.1707627 -0.48768142
-0.16835733 0.10061107 0.041121572 -0.19872229 0.15414011 -0.6820832 0.03650409 -0.30271947
0.16873816 -0.1730913 0.0677376 0.1061107 -0.24547957 -0.12464189 -1.5709561 -0.16903658
-0.45974627 -0.005493663 -0.1940021 0.18271136 -0.12586707 0.1773122 0.09525295 0.052013103
0.6416435 0.03295771 -0.6957829 0.59166753 0.16504903 -0.15266995 -0.029398812 0.16533698
-0.39434 0.28927106 -0.5466948 -0.3349112 0.15664499 -0.29578832 -0.5289149 -0.1668397

bias f4 [256]
00000000: 0a73 09bd ad51 54be ac54 65be 3284 00be
00000010: 318f 23be c613 233d 123a a53d f8eb b3bd
00000020: e73e b7bd 61d8 c4be c7a8 87bd e156 96bd
00000030: 2f2d e43c d66b 80be 8e7c 8fbd 7847 07bd
00000040: a6d6 e03b 9dfe 15bd b61a 02bc 20fd ddbc
00000050: 27d5 f43c 70dd 35be d2bd 11bd 263a c0bd
00000060: 64a1 43be 49b2 24be 6539 bdbc 6d16 15be
00000070: dd42 32be 04a2 5f3d daf1 9dbd 0bf7 0bbe
00000080: 7751 edbd e221 65be e6a3 0ebd 5cd3 12bd
00000090: 336b 113e d94a b4bd 9283 70bd ad3b e4bd
000000a0: 6b80 29bd 6a15 13be 0219 a3bc e3a8 10bc
000000b0: 74c3 6ebd 4612 2c3d 7179 e0bc d6f4 50be
000000c0: c64c 90bd b077 813c c0d0 b53c 918e 7cbe
000000d0: 0e48 52bd 4f34 233d dc2e fabd 3c0b 2ebd
000000e0: 0c36 66bd 162e debd bfbc 6abe 4ba7 4fbe
000000f0: 66f1 9b3d d871 363d f6eb 70bd 3baf 313c
00000100: 8a3c 46be 3ec4 cfbc d17a 24be abfd e2bd
00000110: 441e 233d ddd5 413c df22 573c a4b9 89bd
00000120: af15 c4bd 6ab5 b43d fff1 50be c2a9 683d
00000130: 95d0 543b a9ac dcbd b394 96bd 788d 93bd
00000140: eef0 ff3c 2dff 05be 71e0 9cbd a1f4 2dbe
00000150: e3cd 60bd bc2b 2abe 3c1c debb 3285 163d
00000160: ebad 0a3d 3abe cdbd 9236 3cbd 25a2 adbd
00000170: 1057 ffbd 9205 91bd 63a3 8d3d a922 0dbe
00000180: 8397 e03d 6cb3 c8bc 8024 233e ec01 8d3b
00000190: d6a4 90be 524d 48bc 514a eb3c 5793 c6bc
000001a0: 04b3 d1bc 73f4 e13c 3f55 4cbe d84b d23d
000001b0: f3e3 d63d 3431 06be 278c 333d a2df d0bd
000001c0: 3b7c 02be b5b0 873c d79a 033c ccdd 673d
000001d0: 4c72 c8bc fbb4 d5bd e24b 02bd 5822 e73d
000001e0: a927 0b3e 89cf fdbd 3da9 2f3b 9b4c 913d
000001f0: f01d 17be 5c5a 58bd c0e0 89bd 30c2 8fbd
00000200: 4500 a93b ce36 2cbd c3a4 7dbd 2c42 2ebd
00000210: 2778 09be f327 273e 8756 023e 1153 80be
00000220: cbd2 c8bd 58c5 07be 3ae3 323d 6108 a9bc
00000230: 4f41 83ba f628 b1bc 026e 0dbe 7f24 adbd
00000240: 3cd2 9fbd bc41 d0bd a0be 89bd c0b2 073e
00000250: 5b80 1cbe 947c 53be 21e6 5fbe 44a3 0b3b
00000260: d98e eebd 452c a23d 309d 81bd 0e21 8ebd
00000270: 2b27 a73d 8459 0ebc 3ab8 a2bd ccaa dd3d
00000280: 9d7b b3bd 56c1 463d b3c3 62bd 7c86 ef3d
00000290: 5b7b ccbd 1da8 3c3d 4f15 fdbc a095 3abe
000002a0: d693 a4bd 94c6 c5bd 6c0e a5bc 3294 89bd
000002b0: a53e f9bd dbae a5bd fbe0 14be a31d c23d
000002c0: 65d8 c1bc c472 07bd 18d7 f7bd 2c14 c13d
000002d0: 6ffe 60be eea3 293d e55d 2a3d 1bd9 a6bd
000002e0: 1397 adbd 6880 4ebd f959 f0bc ba1b 823e
000002f0: 363f aabd 8210 46bd 4446 92bd d6cb 9bbc
00000300: a668 f5bd 7027 52bd 8ce9 e7bc d478 383d
00000310: 1aa4 21be 8390 72bd 8614 c8bc 7e5c 1bbe
00000320: a7be 57bd dfae 393e 44e6 79bd d3ae 7e3b
00000330: 8fcf 413c a925 0f3e f33e 7b3c 8360 913d
00000340: b92d ebbc 178b a3bd 5302 e4bd 9e45 19bd
00000350: c1f2 55bd 1d70 00be 022c 58bc 8b72 83bd
00000360: ae71 7f3d e866 0cbe 2701 1abe 6a59 0abe
00000370: 9bf6 893c fc3c 5dbd e543 123d a82e 0d3e
00000380: a7fb 1fbe 1d0c 53be deba 00be 9b32 49be
00000390: f2a0 a73d b189 ccbb 0ca3 1dbd 3692 cebd
000003a0: c08d f9bd c0c1 363e ed61 c8bd 5ca1 d63d
000003b0: f797 68bb 3832 a3bb 5afc babd a7f2 0b3e
000003c0: a4a9 65be bb68 48bd 0b65 ebbd e4ec 27be
000003d0: 8534 d4bd d289 8ebc 664d 41bd 1cd6 153e
000003e0: 4ae9 24bd e60e 0cbe a05e 34be 73b9 293e
000003f0: 3906 61be 65d5 53bd fc86 21be b6d8 efbc
-0.033556975 -0.20734282 -0.22395581 -0.12550429 -0.15972592 0.03981378 0.08067717 -0.08785242
-0.089475445 -0.38446334 -0.066239886 -0.073407896 0.027853576 -0.25082272 -0.07006179 -0.033027142
0.0068615256 -0.03661977 -0.007940939 -0.027098238 0.029886795 -0.17760253 -0.035581417 -0.09386091
-0.19104534 -0.16083635 -0.023098657 -0.14559336 -0.17408319 0.05459787 -0.07712145 -0.13668458
-0.11587804 -0.22376207 -0.034824274 -0.0358461 0.1420105 -0.088033386 -0.058719225 -0.11144195
-0.041382235 -0.14363638 -0.019909386 -0.008829328 -0.058291867 0.042009614 -0.027401658 -0.20405897
-0.07045893 0.015804142 0.022194266 -0.2466376 -0.051338248 0.039844807 -0.12215969 -0.042491183
-0.056203887 -0.10848634 -0.22923563 -0.20278661 0.076144025 0.044542164 -0.05881878 0.010845001
-0.19359031 -0.02536213 -0.16062476 -0.110835396 0.039823785 0.011830774 0.0131308725 -0.06724861
-0.09574448 0.088236645 -0.20404814 0.05680252 0.0032472957 -0.1077512 -0.07352581 -0.072047174
0.031242814 -0.13085623 -0.07659996 -0.1698785 -0.05488385 -0.16618246 -0.006778268 0.03674812
0.033857267 -0.100460485 -0.04595048 -0.08478192 -0.12467778 -0.070811406 0.06915929 -0.13782753
0.109663986 -0.024499618 0.15931892 0.0043032076 -0.2825076 -0.012225466 0.02872196 -0.024240179
-0.025598057 0.027582383 -0.19954394 0.10268372 0.104926966 -0.13104707 0.04383483 -0.101989046
-0.12742703 0.016563753 0.008032522 0.056608006 -0.024468563 -0.1043491 -0.03181065 0.112858474
0.13589348 -0.123931 0.0026803755 0.070946895 -0.14757514 -0.05282055 -0.06732321 -0.0701946
0.005157503 -0.042044453 -0.061924707 -0.042543575 -0.1342474 0.16323833 0.1272832 -0.25063375
-0.098058306 -0.13258874 0.04367373 -0.020633878 -0.001001397 -0.021625977 -0.13811496 -0.08454227
-0.07803771 -0.10168788 -0.06725812 0.13251781 -0.15283339 -0.20652992 -0.21865131 0.002130703
-0.1164834 0.079186 -0.06328809 -0.069398984 0.081617676 -0.008688334 -0.07945295 0.108235925
-0.08763812 0.048524223 -0.055362415 0.11695573 -0.09984466 0.046058763 -0.03089395 -0.1822114
-0.0803601 -0.096570164 -0.020148478 -0.06717719 -0.121701516 -0.08089992 -0.14538948 0.09478309
-0.023662755 -0.033068433 -0.12101573 0.094276756 -0.21972059 0.0414161 0.04159345 -0.08146878
-0.08476081 -0.050415426 -0.029339777 0.2541178 -0.08312838 -0.048355587 -0.07142308 -0.019018095
-0.11982851 -0.05130714 -0.028309606 0.045037106 -0.15785256 -0.05921985 -0.024423849 -0.15172002
-0.052672055 0.18133114 -0.061010614 0.0038861528 0.011829271 0.1397921 0.0153348325 0.07098486
-0.028708326 -0.07985514 -0.11133256 -0.037419908 -0.05223346 -0.12542768 -0.013194086 -0.06418332
0.062364273 -0.1371113 -0.15039502 -0.13510671 0.016841223 -0.054013237 0.03570928 0.13787329
-0.15623342 -0.2061009 -0.12571284 -0.1964821 0.08184995 -0.006242 -0.03848557 -0.10086481
-0.1218524 0.17847347 -0.09784303 0.104799956 -0.0035490969 -0.004980352 -0.091301635 0.13666783
-0.22427994 -0.048928004 -0.11493882 -0.1639896 -0.1036158 -0.017399702 -0.047192954 0.14632457
-0.040261544 -0.13677558 -0.17614222 0.1657465 -0.2197503 -0.05171718 -0.15774149 -0.02927814

weight f4 [256, 256]
00000000: 4944 6ebe efd5 fb3b 2a4a 38be 5f85 c8be
00000010: 26b3 a03d 0c8b 1abe c684 5e3e 61ec 0dbe
00000020: fc5a 073e ed0b 393d b427 34be 1e76 b73d
00000030: 9cad cebd 8b90 9abe f55b babd cb8e 003d
00000040: 06b1 053e 9928 cfbe b5a7 273e 81fc 10bf
00000050: 99da 40be 6232 9bbe 1b49 13be 0487 7ebe
00000060: 2c90 f23d 20fc c9be cbe7 ecbc 817a b8bd
00000070: d1a0 6b3e ef5a 94be 3420 e5bd eaee 683e
00000080: 5711 f5bc 63b6 883d 428c a03e c021 85bd
00000090: 605f 8ebe 0e03 21bf 8cab 92be 4be1 ecbe
000000a0: aba6 2dbe 9458 b83d a49e 903d fea1 123e
000000b0: 9da9 03bf 658b c7be 39fc 54be f885 2dbd
000000c0: 4111 a0bc e983 b7be d548 b6be 3a49 fc3d
000000d0: 381b 14be 9039 3fbe 644b 053e eee4 38be
000000e0: 298e e73d 97d2 3cbe f1fd 05bf 8a4e 323e
000000f0: acba 91be 5d59 1fbe f3a5 d5bd 3202 89be
00000100: 3010 3d3d f5e4 2fbe ea6e 80be 65a1 073e
00000110: 574d 6dbe 84c0 ccbc a5d1 97be ce50 383d
00000120: cb7b 0a3e 276d a4be c0b9 02bf ec7f 9fbe
00000130: 9c22 3cbe b019 033e efed b3bc 81b9 f9be
00000140: ab27 66bc 60af 533c acf1 c73d 71f9 733e
00000150: d49b 93be a631 22bd 988a a8be 4672 1abe
00000160: c6d7 a2be 5550 8d3e 9007 653e 29ea 613e
00000170: 8339 39be 0ea8 b43e 8ae7 e5bd 111b 4fbe
00000180: 9587 09bf aedc 4dbe 2686 f9bd 3aca 7bbb
00000190: b126 653e 0b0d eabd c804 1c3f 1fe5 04bf
000001a0: 5262 15be e091 cc3d 3452 f33d d67c a7bb
000001b0: 0562 853e f99c 2a3e da5e 0dbd 9871 813e
000001c0: bbab 62be bf87 2abe ebdb b5be 6ed8 95be
000001d0: c29a 8abe 95ea 10bf 45c0 b13c 4cf4 f73c
000001e0: 3e47 063e f985 863d 9d53 07be d1a2 c8be
000001f0: c6ef 61be d603 243e f4db d3be e795 06be
00000200: 9910 b0be f43c 993e e845 cfbe 38dc 753c
00000210: f725 f5bd 89a7 783d 110b 893e 6d3b 8abd
00000220: 99cd af3d 6edb e3bc 9f18 3bbf 4c81 073e
00000230: cfc0 f7bd 4540 b8bd e80a 5f3e a9e6 1c3e
00000240: 8375 4d3d 97d1 d8be 28d6 46be bed5 353e
00000250: 9670 30be 5844 373d f89a 44be 2b3f 4fbd
00000260: af6b 153f b708 8d3c 7a62 01be f5a2 eebc
00000270: 4707 a03d d7b9 acbd 0a8b 77be 6efb 80be
00000280: 1c3f 8a3d 6637 e8be 7641 103e 87c1 0dbf
00000290: f045 503e b0a9 f9be be82 373e b69f a63d
000002a0: 09f1 a73d d69f 82bd f0cf 9ebd 51c9 1cbe
000002b0: 51c0 983e 4350 043c b2ef 85be 2870 1fbe
000002c0: 469a 81bc 7f6f cbbd 8889 9abe 9649 193d
000002d0: 3e25 04be a7d1 0dbd ad06 b73d 51de bf3d
000002e0: 4d21 093e 539c 953d 4d27 62be eff3 203d
000002f0: e5df 81bd 0a54 9fbe f714 a03d 30dd 30bd
00000300: c7b1 4e3e 3150 f13d 70dd bebe 0f5a 54bd
00000310: e7be 14bd d2f6 8e3e 649b 2f3d 4e80 b63e
00000320: ba88 32bc a9fa c7be 4fb4 1abe 931b cdbd
00000330: 0185 713d fefc 9ebd 2e0f 92be b3dd 553e
00000340: b76f 86be 9f91 c4be 8a2b 743e ae79 b1be
00000350: 735c a03d 9336 6ebd fc07 0bbf 8fd0 843e
00000360: 11cd 58be e09b 833d d0b8 0d3e e98a 9abe
00000370: 455d a63d 0e97 b9be 0f16 d63e 060c c2be
00000380: 7a35 dfbd 0f96 233d 4a51 6b3e f082 5cbe
00000390: 5092 5dbb e8be 4ebe b437 063e 2183 bebd
000003a0: 71f6 21be 9bdf 9ebe ac15 1bbe 893d 013e
000003b0: ea86 983b e398 9dbe 7909 f63d a625 96be
000003c0: 02ad 5e3d c0d6 b4bd 4e40 b5be 285a 7f3d
000003d0: f3ab c8be 3b10 963e 64f4 0b3c 7128 8abe
000003e0: 6533 ec3d 9ab2 513e 868d 60be 305d 0abf
000003f0: e3ac e5be 0eb0 0e3e f915 f3be c47a a33d
-0.23268236 0.007685415 -0.17997041 -0.39164254 0.0784667 -0.15092105 0.21730337 -0.13859703
0.13218302 0.04517739 -0.1759327 0.08958076 -0.10091707 -0.30188403 -0.09099571 0.031386178
0.1305581 -0.4046066 0.16372569 -0.5663529 -0.18833388 -0.30311877 -0.14383356 -0.24856192
0.11843905 -0.3945017 -0.028919121 -0.09007741 0.23010565 -0.28975627 -0.11187783 0.22747388
-0.029915495 0.066754125 0.31357008 -0.06500578 -0.2780714 -0.62895286 -0.28646505 -0.46265635
-0.1695811 0.0900127 0.07061508 0.14319608 -0.51430684 -0.38973537 -0.2079934 -0.04236409
-0.019539477 -0.35842827 -0.3560244 0.12318654 -0.14463508 -0.18674302 0.1301704 -0.1805608
0.11306412 -0.18439709 -0.5234061 0.17412773 -0.28462732 -0.15561433 -0.10432043 -0.26759487
0.046158016 -0.17177184 -0.2508462 0.13245161 -0.23174034 -0.024994142 -0.29652134 0.044998936
0.13523786 -0.32114527 -0.5106468 -0.31152284 -0.18372577 0.12802768 -0.021964042 -0.4877434
-0.0140475435 0.012920231 0.09762892 0.23825623 -0.28829825 -0.03959813 -0.3291824 -0.15082654
-0.31805247 0.2760035 0.22366166 0.22061981 -0.18088345 0.35284466 -0.11225803 -0.20225169
-0.53722507 -0.20103714 -0.1218379 -0.0038420097 0.22378041 -0.11428269 0.60944796 -0.5191211
-0.14588287 0.09988761 0.118809134 -0.005111317 0.26051345 0.16661443 -0.034514286 0.25281978
-0.22135822 -0.16653346 -0.35519347 -0.29266685 -0.27071196 -0.56607944 0.021698127 0.030267857
0.13113114 0.06568522 -0.1321549 -0.3918672 -0.22064123 0.16017088 -0.41378748 -0.1314312
-0.34387663 0.29929316 -0.40483022 0.0150061175 -0.11970132 0.06070665 0.26766255 -0.06749616
0.085841365 -0.027814593 -0.73084444 0.13232917 -0.12097322 -0.089966334 0.21781504 0.15322365
0.050160896 -0.42347404 -0.19417632 0.17757317 -0.17230448 0.044742912 -0.19199741 -0.05059735
0.5836744 0.01721607 -0.12635222 -0.029130438 0.07813888 -0.08433884 -0.24174133 -0.25191826
0.067503184 -0.45354766 0.14087471 -0.55373424 0.20339179 -0.48762274 0.17920968 0.08135931
0.08200271 -0.063781425 -0.07754505 -0.15311171 0.29834226 0.0080757765 -0.26159436 -0.15570128
-0.015820634 -0.099333756 -0.30183053 0.037423693 -0.12904832 -0.03462377 0.0893682 0.09368575
0.1339161 0.07305207 -0.22085305 0.039295133 -0.063415326 -0.31118804 0.07816499 -0.04317969
0.20185004 0.117828734 -0.37278318 -0.0518437 -0.03631487 0.27922684 0.0428728 0.35644764
-0.010896856 -0.39058426 -0.15107845 -0.10015025 0.058964733 -0.07763098 -0.28527206 0.20885353
-0.26257107 -0.3839235 0.23844734 -0.34663147 0.07830133 -0.058157515 -0.5430906 0.25940368
-0.21171977 0.06426215 0.13840032 -0.30184105 0.081232585 -0.36248058 0.41813704 -0.37899798
-0.10898872 0.03993803 0.22980228 -0.21534324 -0.0033809133 -0.20190012 0.13107187 -0.093023546
-0.15816666 -0.31029972 -0.15144986 0.1262113 0.004654755 -0.30780706 0.120135255 -0.29325598
0.05436421 -0.08830023 -0.35400623 0.06234184 -0.39193687 0.29309258 0.008542154 -0.2698398
0.1153324 0.20478287 -0.21928987 -0.5404844 -0.44858465 0.13934347 -0.474777 0.079824

bias f4 [256]
00000000: 24e3 3abe d5a4 1fbe 2530 d7be b734 cdbe
00000010: 1efd e9bd d731 64be 427b 54be 15ed 1abe
00000020: a3ce e0be a729 f4b9 7bef a1be 6ede e7bd
00000030: 3776 38be 4545 763e c1b9 06bd e570 9fbe
00000040: 7569 64be a5c0 b5be 57e5 e7bc 899d babd
00000050: aa67 89be accf 57bb e648 9abe 11e6 41bd
00000060: 0e42 acbe 944a 85be 5d76 16bc f929 6ebe
00000070: a4d7 3cbe 46dc 97be 84b0 8cbe 435d 1e3e
00000080: c0a0 bcbe 6b1a efbe aab1 73be 9da9 a9bd
00000090: 6ab3 3e3e 74b7 7cbe ff2c 84be 705a 5dbe
000000a0: 3d27 06be 5d29 f1be e6f8 b7be c652 8bbe
000000b0: 7654 1fbe f70e 503e 865e 8cbe 9bf8 97bd
000000c0: 5f79 06be 95fa a8be 9fa3 1bbe 1edc c5bd
000000d0: 7315 ebbe 1a0e e0be 54d8 83be 4501 c1be
000000e0: cc5c 99be 5a1f 92be b403 e9be 190e c3be
000000f0: 692a 2abe f7f4 babe 41b4 733b daab 98be
00000100: 0948 13bf b754 88be e087 953d cf1e 2bbe
00000110: e0a0 05be 1a7c 04be 0a46 b9be d52a 053e
00000120: 7bf9 d6bd e409 6abe d7eb 89be 24ff 32be
00000130: 474b fabe c15c cabd 54d3 42be cc88 84be
00000140: abb1 babd 8e9d 3bbe 8452 f1bd 60f5 a2be
00000150: 05f2 6ebd 715d a9be 7c33 bfbe 7312 8abe
00000160: 75cf 8bbe 7fa0 5fbe 6098 35be 6d7f 15be
00000170: f21c 9bbe b52e ccbe bc4e f0bd 9d3d f1bd
00000180: 0d47 b3be c8c6 203d c756 babd c1c2 92be
00000190: a7eb c3be db28 49be 5c19 a1be 2c34 babe
000001a0: 8aa8 8dbe fbd3 2dbe e176 71be 53d4 403d
000001b0: 277e f7be 7727 153e 2660 bebd f0bd 4cbe
000001c0: ad6b 02be 27a9 9fbe 53af 4dbd 602d 13be
000001d0: 54a6 8bbe 097a 4ebe 3d4f 39be 074b 20bc
000001e0: 26a6 b2be d241 6fbe 47d2 f6be 56c7 37be
000001f0: 36a3 98be a221 bcbe 4db6 a7be 1e8d fdbe
00000200: 7595 67be 8545 c63d 8e13 f4be d6c5 43be
00000210: 611d 7c3d 3e4f 4cbe 50c5 0bbf 902c e8bd
00000220: 3dd0 fdbe 79d6 1abe 3fd0 62be bf5a 4bbe
00000230: f674 7dbd 130f 0abf ccd2 1ebd 0852 fabb
00000240: a2e7 99be 86e6 0e3e 64c6 e9bc 1216 8cbc
00000250: a1e4 d6be 951a 8cbe 6aec 7ebe 4e4f 79be
00000260: 90b5 8fbe db3d 82be 5f2b 92be 12f7 36be
00000270: db58 8cbe 3c70 87bd bb21 1dbd 7c62 16be
00000280: c606 89bd fac5 3bbd dfc4 21be 7214 2fbe
00000290: 1d4a cbbe ceea 373d 0aff 9ebd 54be dd3d
000002a0: be97 cdbd 2db9 a0bd 1285 c1be be67 12be
000002b0: 8649 4ebe 9754 0a3d 2416 2bbe 71d9 a4be
000002c0: 23c4 95be e89b a0be 69ac 8abe b274 f7bd
000002d0: 6b2f 1f3d 93b8 bdbe b344 f6be b4bb a8bd
000002e0: 2e45 c3bd d623 6dbe 3580 a6be 4ffa a6be
000002f0: a1f9 3abe 0fb2 59be e667 8abd b68c 5abe
00000300: 1d4a 4bbe 9a06 08bf 0bae 89be a8cb d5be
00000310: 3049 6c3d d1ac 07be 0cf2 75be b614 34be
00000320: 2aaa 3dbe ef9b 08be bbba 59bd e15e 9ebe
00000330: d0ba 9fbe 0f68 63be 9db2 1bbd fa1f 8bbe
00000340: fb3e aebe 30e4 60be 20a6 8fbe 9a7e debe
00000350: ece1 9cbe 1f93 5cbe 9936 3bbe 0260 29be
00000360: 9caa 88be bc87 28be 6d00 9cbe d9f2 e63c
00000370: 1976 c9be da47 b1be f97d cabe 5431 87be
00000380: fc08 5dbe e8e1 40be 196e ccbc f2c9 c2bd
00000390: f634 a6be eaec c4bd 21fc d1be e07c 94be
000003a0: 2145 aebe 3439 4abe ad37 acbd eb58 6bbe
000003b0: 2e91 7ebe 083d 9abd 2e20 dcbd cd37 87be
000003c0: 7edd bebd 4a47 c8be 769f 03be f3e2 efbe
000003d0: 1672 f8bd 1cff dcbe 089c dfbd 9506 b0be
000003e0: cef0 483e 0631 443e 7649 6bbe 7a7d 9cbe
000003f0: 0cf3 8dbe 124f a53d 11fc 0fbe 9a37 65be
-0.1825071 -0.15590222 -0.4202892 -0.4007928 -0.114252314 -0.22284637 -0.20750144 -0.15129502
-0.4390765 -0.0004657034 -0.31628022 -0.11321722 -0.18013845 0.24049862 -0.032891992 -0.3114082
-0.22305854 -0.3549854 -0.0283076 -0.09112079 -0.26836902 -0.0032930179 -0.30133742 -0.04733855
-0.33644146 -0.2603346 -0.009183493 -0.23258199 -0.18441635 -0.29660243 -0.2747842 0.15465264
-0.36841393 -0.46699843 -0.23798242 -0.08284304 0.18623129 -0.24679357 -0.2581558 -0.2161653
-0.13100906 -0.4710187 -0.35932082 -0.2721159 -0.15559563 0.20318209 -0.27415866 -0.074204646
-0.13132237 -0.3300368 -0.15199135 -0.09661125 -0.45914802 -0.4376076 -0.25750983 -0.3769628
-0.2995361 -0.28539544 -0.45510638 -0.38096693 -0.1661774 -0.36515018 0.0037186297 -0.29818612
-0.5753179 -0.26627132 0.07301307 -0.16710971 -0.1304965 -0.12937966 -0.36186248 0.1300462
-0.104968034 -0.22855335 -0.26937744 -0.17480141 -0.48885557 -0.09880973 -0.19025928 -0.25885618
-0.09115919 -0.18321821 -0.11783317 -0.3182783 -0.058336277 -0.33079103 -0.37343967 -0.269672
-0.27306715 -0.21838568 -0.17733908 -0.1459939 -0.3029552 -0.39879385 -0.117337674 -0.1177933
-0.35015145 0.039252073 -0.09098583 -0.2866421 -0.38265726 -0.19644491 -0.3146466 -0.3636793
-0.27667648 -0.16975395 -0.23580505 0.04707749 -0.48338434 0.14565836 -0.092956826 -0.1999433
-0.12736388 -0.3118374 -0.05021603 -0.14372778 -0.27275336 -0.2016374 -0.18096633 -0.009783513
-0.34892386 -0.23364952 -0.48207304 -0.17947134 -0.2981202 -0.3674441 -0.32756272 -0.49521726
-0.22615607 0.096812285 -0.4767117 -0.19118437 0.061551455 -0.19952103 -0.5459795 -0.113366246
-0.49572936 -0.15120877 -0.22149752 -0.19858836 -0.06187912 -0.5392925 -0.03877525 -0.0076391734
-0.30059534 0.13955125 -0.028536983 -0.017100368 -0.41971305 -0.2736403 -0.24894872 -0.24346659
-0.2806821 -0.25437817 -0.28548715 -0.17867687 -0.2741154 -0.06613204 -0.038362246 -0.14686006
-0.06690745 -0.045843102 -0.15797757 -0.17097643 -0.3970498 0.04490166 -0.077634886 0.10827318
-0.10038708 -0.078478195 -0.37796837 -0.14297387 -0.20145234 0.033772077 -0.16707665 -0.32197145
-0.29251203 -0.31368947 -0.27084664 -0.12082805 0.03886358 -0.3705488 -0.48099288 -0.082389265
-0.09534679 -0.23158202 -0.3251969 -0.32612845 -0.18259288 -0.2125933 -0.06758098 -0.2134274
-0.1985249 -0.53135073 -0.26890597 -0.4175694 0.057686985 -0.13249518 -0.24018115 -0.17586026
-0.18521944 -0.13340734 -0.053156596 -0.30931762 -0.31197214 -0.22207664 -0.038012136 -0.27172834
-0.34032425 -0.21962047 -0.2805643 -0.43455964 -0.30641115 -0.21540497 -0.18282546 -0.1654053
-0.26692665 -0.16458029 -0.30469075 0.02819197 -0.39347914 -0.3462513 -0.39549235 -0.26404822
-0.21585459 -0.18836176 -0.024954842 -0.09511174 -0.3246228 -0.096155 -0.41012672 -0.29001522
-0.34037116 -0.19748384 -0.08409057 -0.22983138 -0.24860069 -0.07531172 -0.10748325 -0.2640976
-0.0931959 -0.3911689 -0.12853798 -0.46852836 -0.12131135 -0.43163383 -0.109184325 -0.34380022
0.1962311 0.19159326 -0.22977242 -0.3056448 -0.27724493 0.08071722 -0.14061 -0.22384492

weight f4 [256, 256]
00000000: fbfd 6d3d faec 0d3e 4c1d e5bd 08db 85be
00000010: fd8b f7be d400 6e3e 0647 ac3e 90e4 d8bc
00000020: c733 04be 3898 8dbe 9045 5c3e 56b0 42be
00000030: 4a3d 19be c8f5 d0be 55fd 1c3e 5ab6 323e
00000040: 6e8e b33d af36 e93d 5bc4 983c b2fb 6b3d
00000050: 9898 3abd 2ff3 583d 3be4 4ebe e904 b9be
00000060: 166c 77bd 8e50 28be eba0 febe 2608 4e3e
00000070: 932d 5c3e 7b29 5f3d 2025 1fbe d327 8ebe
00000080: 6e20 553e b477 39be d297 6fbe 24ba 6dbe
00000090: 55af 263d f7b0 363e 9825 6c3d 7a58 d93d
000000a0: 156a 153d 6b28 493e c867 dfbb 339f 4d3e
000000b0: 7b28 fdbd 4e7f 5fbd 22dd 853e 72b5 bbbc
000000c0: 7d83 ec3d ccd6 58bd 5fd8 92bd e70f 0e3d
000000d0: eb09 a93d 3bf7 2e3e 08d5 883d 40c5 843e
000000e0: 5b58 dabd bd71 c53e 645a 403e 48ca 3c3b
000000f0: dedc 0abf 6e5c fc3d 5111 d0bd 0c55 923d
00000100: 49b7 4b3e a334 9f3c 1ebf 2ebe f78f 19be
00000110: ac12 b53d 7af3 a4bd 1c9f 13be da92 4dbe
00000120: 3340 bfbe 59dc 733e 743e 23be 5d79 a33c
00000130: cfbb 573e 8a9f a23d 775e 09be 5e83 fd3d
00000140: e41d 26be 4c05 863e 467f 10be b9f3 e13c
00000150: dfe5 a63e c569 8b3e ebeb 623d 40ac d139
00000160: 6da3 00be 2680 a539 d276 67bd 1b4b 6c3e
00000170: a738 173e 277b 7b3d b7f8 66bd 85d0 40bd
00000180: c524 b73e 02f1 823c 6a94 2fbe 5839 8abb
00000190: 193f 6d3d d6ee 823c e525 203e 7b85 a63e
000001a0: 5a19 e6bd ea67 983e 7803 5abe 0782 f2bc
000001b0: 5936 86bc 9b3b f63c 648f 223e 5410 00be
000001c0: 8b3c babe ce09 1cbd bd38 8cbe a2d3 67be
000001d0: 219d 9a3e 0962 203e ecf5 363d 54f4 773d
000001e0: d299 803d 97da 003e 525d 8e3e 41d2 20bd
000001f0: 1d22 5e3e 8544 5ebe 2d39 f83e bd83 b93e
00000200: 3264 363e f83c 2fbe 0de1 583e dfaa 063e
00000210: 3a94 84bd fd16 e1bc f71b 2f3e 8d7b 46be
00000220: a5fa f93e d738 d2bc 7593 a83e b25a c0bd
00000230: 0e61 f8bd 89dd 8f3e 9bc0 67be cab1 b5bd
00000240: c2e0 79bc 52a7 cdbe a07f 0abf 86e6 bebe
00000250: 7d6f 34be b92b 9c3e 204a 72be 0984 53be
00000260: 03e4 55be 2d0b 693e d577 923c e4c7 df3e
00000270: 3e97 b03d 9cfe 54be bac8 0e3e 1fb0 0e3d
00000280: 9e82 91be 2334 33be 35a0 1abe 27c0 b5bd
00000290: 5084 9c3e 4e74 89ba 99d6 8bbd 8025 73be
000002a0: f634 08bd b1a1 cc3d e3cb 12be 7fdf a13d
000002b0: 71e6 d3bc 4307 ae3d 3cdc 163e 9973 39be
000002c0: 1c0b 0d3f c58e 8ebe 5bea 8ebd 6c77 21be
000002d0: 62cb 713e 6500 c9bd 8cc6 4cbd 863b a43d
000002e0: 9616 063d cc91 5abe 8a70 833c 4f86 2b3d
000002f0: 36b1 323e 423a 0f3e 2a02 463d 9cf8 083e
00000300: 461b 123e 62ff eabc 3c72 823d 2b6b 9b3e
00000310: 1a85 07bf a9f8 363e 0963 dc3c cb4d febd
00000320: fec0 1c3d 119d b13d a10b 51be 1da8 3e3d
00000330: c60e 80bd 5d68 5ebe eb1e 34be c52c ad3e
00000340: aebf 1f3c ca2e dfbd 2067 d6bd f951 8fbe
00000350: 8e75 8bbd c4ed 1cbb dffe 463c f846 aa3e
00000360: 4786 10bd cc13 db3e 0295 d03d 80b7 eabe
00000370: 2a16 073b 0e58 f2bc ac21 233e 69f8 5f3e
00000380: 1e7f 1e3d 49b3 1f3e 3b47 ff3c b626 80be
00000390: 8235 9f3c 3bb2 023e 796c ae3e 8869 a33e
000003a0: af01 253e 2a3e 80bc e368 67be 84fc e9bd
000003b0: 0968 e53d 1499 0abe 10c1 a63e 5f79 663d
000003c0: ea01 1e3d e915 b4bc a0c0 493e 0f66 f6bd
000003d0: fd8d 43bd cce6 ac3e b172 ce3d 2643 c3bd
000003e0: 27e1 81be 0875 03bf af26 853e c272 943d
000003f0: eced cabd 5a56 ba3c 464b 983e c764 94bb
0.058103543 0.1385993 -0.111872286 -0.2614367 -0.4834899 0.23242503 0.33647937 -0.026476175
-0.12910376 -0.27655196 0.21510911 -0.1901258 -0.14964786 -0.40812516 0.15331014 0.17452374
0.08767401 0.11387383 0.018648317 0.057613082 -0.04555568 0.052966293 -0.2020425 -0.3613656
-0.060405813 -0.16436979 -0.49732146 0.20120296 0.2150176 0.05448292 -0.15541506 -0.27764758
0.20813152 -0.1811207 -0.23397759 -0.23215538 0.040694553 0.17840944 0.05765304 0.10612579
0.03647812 0.19644324 -0.0068177916 0.20080261 -0.12361237 -0.054564767 0.26145273 -0.022913668
0.11548517 -0.05293922 -0.07170176 0.034683134 0.08253845 0.17086498 0.066812575 0.2593174
-0.10661384 0.38563338 0.18784481 0.0028807092 -0.54243267 0.12322317 -0.10159553 0.07145128
0.19894136 0.019434279 -0.17065093 -0.14996324 0.08841452 -0.08054252 -0.14416164 -0.2007555
-0.37353668 0.23814525 -0.15941793 0.019955331 0.21067737 0.07940586 -0.13414942 0.12378572
-0.1622234 0.26175916 -0.14111051 0.027582036 0.32597253 0.27229133 0.05540077 0.00039991923
-0.12562342 0.0003156673 -0.0565098 0.23075525 0.14767705 0.061396744 -0.056389537 -0.04707386
0.3577024 0.015984062 -0.17146459 -0.0042182617 0.057921503 0.015983026 0.15639456 0.32523713
-0.11235304 0.2976678 -0.21290386 -0.029603017 -0.016383337 0.030057719 0.15875012 -0.12506229
-0.36374316 -0.038095288 -0.27387038 -0.22639325 0.30198005 0.15662397 0.044668123 0.060535744
0.06279339 0.12583385 0.27805573 -0.039263014 0.216927 -0.21705826 0.48481122 0.3623332
0.17811659 -0.17113101 0.211796 0.1315112 -0.064735845 -0.027476782 0.17100511 -0.19383068
0.4882404 -0.025661869 0.32925 -0.09392299 -0.12127887 0.28098705 -0.22632067 -0.08871801
-0.01525134 -0.40166718 -0.5410099 -0.3728525 -0.17620654 0.30502108 -0.23661089 -0.20655836
-0.20887761 0.2275817 0.017879406 0.43707192 0.08622597 -0.20800251 0.13943759 0.03483593
-0.28419966 -0.17500357 -0.15100177 -0.08874541 0.30569696 -0.0010486932 -0.06828041 -0.23744774
-0.033253632 0.09991778 -0.14335589 0.079039566 -0.025866719 0.08497479 0.1473245 -0.18110503
0.55095077 -0.278433 -0.069782935 -0.15768212 0.2361274 -0.098145284 -0.049994037 0.08019166
0.032736383 -0.2134468 0.016044874 0.041876134 0.17450413 0.13987067 0.048341908 0.13376087
0.14268216 -0.02868623 0.06369445 0.303552 -0.5293747 0.17868294 0.026902692 -0.124171816
0.03826999 0.08672536 -0.20414592 0.046547044 -0.06252818 -0.21719499 -0.1758992 0.3382322
0.00975029 -0.10897596 -0.10468888 -0.27992228 -0.06809531 -0.002394543 0.012145727 0.3325727
-0.035284307 0.4278854 0.10184671 -0.45843124 0.0020612576 -0.029583003 0.15930814 0.21872105
0.038695447 0.15595736 0.031161895 -0.25029534 0.019434694 0.12763302 0.34067133 0.3191645
0.16113923 -0.015654642 -0.22598605 -0.11425117 0.11201484 -0.13534957 0.3256917 0.056268092
0.038576044 -0.021983104 0.19702387 -0.12031185 -0.047742832 0.33769834 0.100804694 -0.09534292
-0.2536709 -0.5135045 0.26006076 0.07248451 -0.09908661 0.022746254 0.2974493 -0.004528615

bias f4 [256]
00000000: 41ec 07bf 7cb5 6ebe 6753 e1be 4ef3 b1be
00000010: 28df b4be b571 09bf e249 dcbd 8b42 b0be
00000020: b818 90be 3db7 40bd a585 4dbe cfec 63be
00000030: aac1 b7be e8d6 d1bd a4dd 38be c1e7 a43d
00000040: 1562 e6be 3497 1fbe a5d1 e1be 1c05 70be
00000050: b360 b1bd 0c27 a3be c1a5 e2be 7f4a 6ebe
00000060: 0856 1bbe d910 6abe fc59 c0be cbe3 683d
00000070: 0261 04bf ec29 a6bd a41f 09bf ecb0 94be
00000080: 021e 58be a2f6 03be d8f7 cabe f5ae 95be
00000090: 0353 ccbe a32e 4dbe 2af0 bcbe b4cd 82be
000000a0: 99cd a7be f596 0ebe 8646 bcbe 45d1 bfbe
000000b0: 4693 70be 285b 03bf 9751 cebd 42cf 41be
000000c0: 462b a6bd 32fd 59be a0b6 debd 6d07 49be
000000d0: 49ec 23bd d535 69be 9f2b 0dbf c3fc 133c
000000e0: 13e3 87be ab6f 34be 23e6 6f3d 0cfc 12bf
000000f0: 77b8 1abd 363a 24be 3f68 17bf 00c4 9fbe
00000100: 1fea 0fbd 2197 3cbe 869a 7ebd 3cd7 0cbd
00000110: 333a 08bf 1f02 dbbd 094d d0bc 9abb e7bd
00000120: e057 72be dd4c b2be e0e9 563c 57d8 79be
00000130: 0abd 50be bd06 dbbe 2c30 81be 8c10 71be
00000140: 11cc 86be 2520 a4be d757 2dbf 4bed 51be
00000150: f735 c2be bf8c d73b e69a 45be 18f0 debe
00000160: 6a0d 9ebe 0285 eebd a760 e2be 2ca8 8abd
00000170: 4ed7 55be c413 bcbe bf06 73be 6112 86be
00000180: 5def 983c 030b c7be 81d7 82bd e458 08bf
00000190: f8d8 5cbe 8990 81be d24a bbbe 389a efbe
000001a0: b2c7 04be d7c9 ddbd cc84 4fbe ff85 08bf
000001b0: f71a 18be 486b a8be 37de 26bf 02ab 61be
000001c0: f138 bdbe 96fd fa3c 61b2 2abe 92d2 38be
000001d0: ec21 e1bc c4b3 b3be dbaf 78be e282 dbbc
000001e0: e62a f8bd 0014 3bbd 81b2 49bd 5c25 9abe
000001f0: 9b82 32be 8b14 05be f7b4 c0be 91dd 0bbf
00000200: 2348 7fbe d0a1 b2be f4cd 2dbe a747 53be
00000210: c803 c6be d765 a5bc b5e5 82bd 19de 90ba
00000220: 6a21 96be 96ad c0be 8e78 5ebd ce8e 353d
00000230: 3d04 febc a7e7 dcbe c704 d2be 27f4 34be
00000240: 6eb2 a9bd 8052 aebe e030 a3be 4535 38bd
00000250: 5289 e0be 8865 acbd 747e d9bd 8c0b 163d
00000260: 5660 80bd caa3 58bd 5f32 7ebe e33a 76be
00000270: 3726 e7be 4027 303d 48f6 25be 7bd7 cbbd
00000280: 18f5 1abf 1edd d5be 755a 3ebe 87de cdbe
00000290: 4f1a 9dbe 593e 2dbc 74b6 a9be 1827 88be
000002a0: 30e7 f2be 5401 62be bf07 6e3b 60de 2fbe
000002b0: 879a a03d 0dff 42be 0afb 84be 3560 23bf
000002c0: 9326 5bbe 9c49 03bc 6127 b0be 1327 0bbe
000002d0: ba6f 15be 7f44 a8be 803e 7fbe b557 61be
000002e0: 8744 d9be 680c d0bd 8ffe e2be 32c1 47be
000002f0: 7c8b 54be 2251 24be f54b e2bd 289c 9b3c
00000300: aaca 8cbd abfe 7dbe e480 9dbe d091 d6be
00000310: 720a bbbe 93c7 7cbd 5452 3cbe 8873 e8be
00000320: dd6c 2fbf 3b15 0abe 2c8d 82be 9583 e83b
00000330: ff4b 2cbe 457f 043e 04d9 0e3d 3022 18bf
00000340: f078 8abe 62e4 82bd cd82 afbb a8cb bfbe
00000350: bc8c 95be 6708 9ebe a54c 45bf 17ec dbbd
00000360: d4e5 c4be 4ee8 53be a08a ccbe c75b 11be
00000370: c813 493d 586d 8e3c 5659 943c 3089 53be
00000380: 9597 edbc 17fd 23be d542 e3be 27be 3fbe
00000390: eeb3 14be 4c67 8ebe 62ae 06be aa51 c9bd
000003a0: 8bc8 61bd ba15 1f3b 2ee2 1bbe 114d ecbe
000003b0: f468 b0bd 2641 2cbe 0664 adbe eb08 38be
000003c0: 3679 dabd 0aba b3be 14fe 88be 2176 9ebe
000003d0: eb97 19bf 7590 64be adcb d5be a222 6bbe
000003e0: c1f3 07bc de0c ecbd 4a3d a9bd 7f93 8abd
000003f0: 404b 8cbe 120a 453d 604a c7be 9b9b dabd
-0.5309487 -0.23311418 -0.44008943 -0.3475594 -0.35326505 -0.5368913 -0.107562795 -0.34425768
-0.2814386 -0.04704975 -0.20070513 -0.22258304 -0.3588994 -0.10246068 -0.18053299 0.08052016
-0.44996706 -0.15585023 -0.4410526 -0.23439449 -0.08661022 -0.31865728 -0.44267085 -0.23270606
-0.15169537 -0.2285799 -0.37568653 0.056857865 -0.5171052 -0.08113465 -0.53563905 -0.2904123
-0.21105197 -0.12887052 -0.39642215 -0.29235044 -0.39907083 -0.20037322 -0.3690198 -0.25547564
-0.32774046 -0.13924773 -0.36772555 -0.37464347 -0.2349368 -0.5131097 -0.10074156 -0.18926719
-0.081137225 -0.21287993 -0.10874677 -0.19631739 -0.04002026 -0.22774442 -0.55144686 0.009032431
-0.2654043 -0.17620723 0.058569085 -0.57415843 -0.037773576 -0.1603783 -0.5914344 -0.31204224
-0.035135385 -0.18417026 -0.062159084 -0.03438495 -0.53213805 -0.10693764 -0.025427358 -0.11315079
-0.23666334 -0.34824267 0.013117284 -0.24398933 -0.20384613 -0.42778578 -0.25232065 -0.23541468
-0.26327565 -0.32055774 -0.6771216 -0.20500676 -0.37931797 0.0065780575 -0.1929737 -0.43542552
-0.3086961 -0.11646463 -0.44214365 -0.067703575 -0.20882913 -0.3673383 -0.23733042 -0.26185897
0.018668825 -0.3887559 -0.0638876 -0.53260636 -0.21567142 -0.25305584 -0.3658052 -0.46797347
-0.12966803 -0.108295135 -0.20265502 -0.5332946 -0.14854036 -0.3289435 -0.6518282 -0.2203789
-0.36957505 0.030638497 -0.16669609 -0.18049076 -0.027481996 -0.35098088 -0.24285834 -0.026795808
-0.12117557 -0.04567337 -0.0492425 -0.30106628 -0.17432635 -0.12996118 -0.37638065 -0.5463496
-0.24929862 -0.34889078 -0.16973096 -0.20632802 -0.3867476 -0.020190163 -0.063914694 -0.0011052518
-0.29322368 -0.37632436 -0.05431419 0.044325642 -0.03100788 -0.43145487 -0.4101927 -0.17671262
-0.08285986 -0.34047318 -0.31873226 -0.044972677 -0.43854767 -0.08417803 -0.10619822 0.036632106
-0.062683746 -0.052890576 -0.24823903 -0.24045901 -0.45146343 0.04300618 -0.1620723 -0.09953209
-0.60530233 -0.41770262 -0.18589194 -0.40208837 -0.30684134 -0.010573947 -0.33147013 -0.26592326
-0.47442007 -0.22070819 0.0036320535 -0.17174673 0.07841974 -0.19042607 -0.25972778 -0.63818675
-0.21401434 -0.008013155 -0.34405044 -0.13589124 -0.14593402 -0.32864758 -0.24926186 -0.22006114
-0.42435095 -0.10158616 -0.44334838 -0.19507292 -0.20756334 -0.16046575 -0.11049644 0.01899536
-0.068745926 -0.2480418 -0.30762398 -0.4190812 -0.36531407 -0.061713766 -0.1839078 -0.45400643
-0.6852549 -0.13484661 -0.2549833 0.007095764 -0.16825865 0.12939174 0.03487493 -0.59427166
-0.27045393 -0.06391217 -0.005356169 -0.37460065 -0.29208934 -0.30865785 -0.77070075 -0.1073839
-0.38456595 -0.20694086 -0.39949512 -0.14195167 0.04909113 0.017386124 0.018109005 -0.20657802
-0.029002944 -0.16014515 -0.44386926 -0.18724881 -0.14521763 -0.27813184 -0.1315246 -0.09830029
-0.055122893 0.0024274425 -0.15223 -0.46152547 -0.08613768 -0.16821727 -0.33865374 -0.17972152
-0.106676504 -0.35102874 -0.26756346 -0.309495 -0.59997433 -0.22320731 -0.41756955 -0.2296243
-0.008297862 -0.11525892 -0.08263643 -0.06766414 -0.2740116 0.048105307 -0.3892393 -0.10674211

weight f4 [128, 256]
00000000: 00b8 3fbe 9598 80be 1cbe ab3d 8726 6cbe
00000010: d890 bd3c 287d bb3d e150 793e c787 ddbe
00000020: 12be 223e 04c9 eabd d157 86be 8477 63be
00000030: eab5 cf3d c828 183e dde9 76bd 50c5 ba3d
00000040: d5eb dfbe 887f 78be ce24 84be 013a 3abe
00000050: d54d 8dbd 167c 37be 97d6 43be db53 6dbe
00000060: 8261 5ebe a9b3 6dbd 1f4f 963d d8f7 ad3d
00000070: 1146 4ebd a442 df3d 4ab9 f13d a91d 653e
00000080: f2ea 813e 5680 7cbe 8a72 67be 4ed0 41be
00000090: af7e 09bf d06b 453d 6c35 0bbe 5d57 1fbe
000000a0: 5c6a abbe 36b0 e4bc 6806 77be 0aef bebd
000000b0: c8f9 373e e3ba b9bd 4f78 8cbe f146 c03b
000000c0: aed6 b2bd deff 2dbf b023 06bd f6eb 46be
000000d0: f3df dbbe 2d56 9cbe 338e 13be 95b0 da3d
000000e0: ca1c f7bd b8a2 33be 904f 10be b586 16bd
000000f0: d58d 743e 8af7 47be 4a0b 2fbe 0a9e d6be
00000100: 2d98 c5bd 205b 12bf 0e15 0ebe 6aee db3c
00000110: c342 f4be e011 2bbe 6392 d0be 9240 9fbe
00000120: 18cf 9cbe 203a da3e 4154 693e 6aa3 9abe
00000130: 7cf6 dc3d 6b1f 183e 844c c4be b168 5e3e
00000140: 872b 3cbd 647d a0bd e616 99bc 4ba0 62be
00000150: b5be 03bf b3c3 9bbc 0c16 77bd 08ee 96be
00000160: 5bd1 113f 358b fa3d 4ca8 75be 613a a43d
00000170: 297d 8e3e 224e b13d a7dc 09bd d3c1 9f3e
00000180: 0809 00bf 9adc 1dbe 2098 7b3d 3af0 9fbd
00000190: bf05 cb3d 32af 13be 45a6 22be cf4b 0dbe
000001a0: 8e21 abbe f0a9 fabe 222c e9be 2581 263c
000001b0: 023d 32bd a2ae 74bd d78f e03b ea5b b6be
000001c0: 1f04 e1bd c118 423c 9730 f9bd 0c46 53be
000001d0: bdec 80be 975f e4be 449d c6be a401 1bbe
000001e0: 1b9c d0bc 9a7d a93e cc29 e93c ad95 3abe
000001f0: e462 1e3d 3b61 013e 75c6 5b3d 3481 44be
00000200: 8774 dfbe e432 1b3e a6e2 e9bd d8b3 56bc
00000210: e6cd 63be df91 9a3e 47f4 36bd bc52 44bf
00000220: 8147 653e e643 1ebe adbd a8be c350 55be
00000230: 24b6 27bc 11a1 b4be d154 8b3d fbc3 c53c
00000240: f56e 44be 80b9 713e ad98 03bf 159d 9d3e
00000250: 6482 6fbe 9765 8bbe 4f80 85bd 7742 3ebe
00000260: 1d63 213d 0a74 febd 983f 8abe b673 02bf
00000270: ea33 4fbe 35b3 14bd ac98 16bf 605f 28be
00000280: ece4 a0be 6b1f 66bd a7e0 5abe 24ec b4be
00000290: 9859 dfbe d2ef ba3c 58aa a3be e6a8 afbe
000002a0: 0789 ebbe 050f 1a3d 9dab f3bc a25d 6f3e
000002b0: 67e9 243e 9adf 8dbe 2809 c7be 8881 3fbe
000002c0: 3b60 c2bd 4ac4 0d3e 4f84 5bbb 3614 323e
000002d0: d4f2 ffbe 17a4 48be 3dad 1a3e bdd6 d03d
000002e0: 3282 bbb9 3480 8abc 04cf 0d3e 5a8a ef3c
000002f0: 13d3 de3d c9e4 b3be ba0a 553e ff4a 893d
00000300: 7fb8 07be 3b40 f6be 27ad b53d cdf7 23be
00000310: 3c3b 023e 2b7f 9bbe cbda 883d 9f09 0abd
00000320: 7743 a0be d946 853e 31ab 063e 8ddd d3bd
00000330: a41b 803e 5a51 f93d 4846 b23c 1f12 25be
00000340: c24f 58be 10a2 a23e da71 a83b ea43 623e
00000350: da45 4f3e 2475 7d3d 0c1c d2be 8daa 823e
00000360: 155a cb3d 7aa8 01be 97ce 853e 45ed 99be
00000370: 0e2c 41be 9bcd 5e3d 424a 34be c6bf 043e
00000380: 5c32 6b3d 74a4 2c3c 9aa3 5ebe 5e27 773e
00000390: 6cfa 1e3e 65c3 0bbe 450b cf3e 1874 aabd
000003a0: 2b13 19bf 5a22 a0bd e3fc bdbd 2199 30be
000003b0: 381c da3d f24f c2be b511 c0be 7ee3 8a3d
000003c0: f88f d4be 1e59 f8bd c3a8 04bf cae8 c2bd
000003d0: ffe9 35be f783 433d 426c 91be 32ca 78bc
000003e0: 1b35 483c 4969 78be 2e53 133e 8960 bcbe
000003f0: dc3f 24be f150 633e 9fa5 9bbe 75b6 3b3e
-0.18722534 -0.2511641 0.0838587 -0.23061572 0.023140356 0.09154731 0.24347259 -0.43267652
0.15892819 -0.11464122 -0.26238874 -0.2221356 0.10142119 0.14859307 -0.060281623 0.091196656
-0.43734613 -0.242674 -0.2580933 -0.18186189 -0.06899611 -0.17918429 -0.19124828 -0.2317652
-0.21716884 -0.058032665 0.0733931 0.08494538 -0.05035979 0.109013826 0.11802919 0.22374596
0.25374562 -0.24658331 -0.22602287 -0.18927118 -0.5370893 0.04819852 -0.13594598 -0.1556067
-0.33479583 -0.027916055 -0.24123538 -0.09322937 0.17966378 -0.09068849 -0.27435538 0.005867832
-0.08732353 -0.6796855 -0.032748878 -0.1942595 -0.42944297 -0.30534497 -0.14409713 0.106782116
-0.12066038 -0.17542541 -0.1409285 -0.03674956 0.2388223 -0.19528022 -0.1709415 -0.4191745
-0.09648166 -0.57170296 -0.13875219 0.026847083 -0.47707185 -0.16706038 -0.40736684 -0.3110395
-0.3062675 0.4262247 0.22786047 -0.302028 0.10789201 0.14855735 -0.38339627 0.21719624
-0.04593995 -0.07836416 -0.018687677 -0.2213146 -0.5146287 -0.019014215 -0.06032376 -0.29478478
0.56960076 0.12233583 -0.23989981 0.080189474 0.27829865 0.08657481 -0.033657696 0.31202564
-0.5001378 -0.15416184 0.061424375 -0.078094915 0.09913205 -0.144223 -0.1588374 -0.1379845
-0.33424038 -0.48957777 -0.45541483 0.010162626 -0.043515213 -0.059736855 0.0068530845 -0.35617
-0.10987114 0.011846722 -0.12167471 -0.2063219 -0.25180617 -0.4460418 -0.3879186 -0.15137345
-0.025465062 0.3310364 0.028462313 -0.1822116 0.03866853 0.12634747 0.05365606 -0.19189912
-0.4364359 0.15156132 -0.11420183 -0.0131044015 -0.22246513 0.30189416 -0.044666555 -0.7668874
0.22390558 -0.15455589 -0.3295721 -0.2083159 -0.010236297 -0.35279134 0.06803287 0.024141302
-0.19182952 0.23605919 -0.5140484 0.30783907 -0.23389584 -0.27225944 -0.065186135 -0.18580042
0.039401162 -0.124244764 -0.27001643 -0.5095781 -0.20234647 -0.036303718 -0.5882671 -0.16442633
-0.31424654 -0.056182306 -0.2137476 -0.3533641 -0.43623042 0.022819433 -0.319659 -0.34308547
-0.4600298 0.03761198 -0.029744918 0.23375562 0.16104661 -0.27709657 -0.38874173 -0.18701756
-0.09491011 0.1384441 -0.003349561 0.17390522 -0.4998995 -0.19593845 0.15105148 0.10197208
-0.00035764423 -0.016906835 0.13848501 0.029240776 0.10880103 -0.35135487 0.20804873 0.067037575
-0.13253973 -0.4809588 0.08870917 -0.16012497 0.12717909 -0.3037046 0.066823564 -0.03370058
-0.31301472 0.26030615 0.13151242 -0.10344992 0.25021088 0.1217372 0.021762028 -0.16120194
-0.21124175 0.3176427 0.0051405253 0.2209622 0.2024149 0.061879292 -0.41037023 0.25520745
0.09929291 -0.12661925 0.26134178 -0.30063835 -0.18864462 0.0543953 -0.17606452 0.12963781
0.057421073 0.010537256 -0.21742097 0.24136111 0.15525216 -0.13648756 0.40438285 -0.083229244
-0.59794873 -0.07819052 -0.0927675 -0.17245914 0.106499135 -0.37951618 -0.3751351 0.06781672
-0.4151609 -0.12126373 -0.5182001 -0.09517057 -0.17765044 0.047733273 -0.28402907 -0.015184926
0.012219693 -0.24258913 0.143872 -0.367924 -0.16039985 0.22198845 -0.30399796 0.1833132

bias f4 [128]
00000000: 7d2f d63c 71b9 9fbd fa39 983d 3261 71bd
00000010: ae59 d9be 8744 b8bd 5d3c 12bf 1683 10be
00000020: 4a5c 4bbf 4c3c 3bbe 8179 403b d93a e03c
00000030: 694f d8be 1a72 203c cea7 02bf 37d8 c1be
00000040: c1df f33b 17b7 e3be 22fb 60be 15e5 9fbd
00000050: 369a 2d3d f0c2 f7bd 31f6 94be d688 e73b
00000060: f121 b8bd 3c32 04bf ea13 f4be 02b7 c63c
00000070: 99b4 a8bd c302 d0be bf88 b5be a963 5abe
00000080: 9247 54be 6baf cfbd c157 a53d 3ea9 99be
00000090: 1a1d b2be c256 f6be 9145 78bc dd50 9bbd
000000a0: fab7 01bf d085 253e 01d9 ad3d 54cf acbe
000000b0: 1e62 08be f93f 00be 5a8b 6c3d 3e63 103d
000000c0: cf88 7ebd 2441 a8be 3330 c0be ee19 68be
000000d0: f33c fbbc 7543 a8be 61c5 e1be f0b1 c73c
000000e0: 083b 61be 7ee9 ddbe f0a8 8638 09fc e63c
000000f0: 0542 1c3e b4d2 b3bc 3492 29bf 7928 1ebf
00000100: f660 aebd ca1e f63d 0b8f c13e c9ae a8bd
00000110: 87e9 92be d4c2 debe 27e9 37be 58f1 c43d
00000120: becc 653d 98cc 81be 5fea bbbe 7f4e 99be
00000130: 3827 903c 2c48 ffbe 1df7 82be 6d58 b7be
00000140: 341f 08bd 626d d0bd 8147 0abe b2f9 883d
00000150: dc38 02bf 999e 03bf 363d 863e 3aff 0abf
00000160: 074f b3be 13c6 89bd a8af 1c3e 173a 083d
00000170: 4e78 783d d3af b03c 93bf 083d b81d 58be
00000180: 907c 8fbe 8c3f 03bf a701 cabd 9601 fabd
00000190: 4e68 82be f18d b6be 61f3 3e3e 1eec b8be
000001a0: 3a12 13bf f369 bbbe 3761 fa3d a034 b7be
000001b0: 9dbd 243d 4815 603e b6f1 313e 2d57 873d
000001c0: cec2 babe c3fa 4b3e 156a 07bc 818b dfbd
000001d0: c417 673e e4aa 21be 9550 603d f206 a5be
000001e0: 4822 78bd 7bd1 133e c253 2e3e 08ac 913d
000001f0: 9dfe 1c3e ea37 15bf 01f8 1dbe c093 82be
0.026145691 -0.07799042 0.07432933 -0.058930583 -0.42451233 -0.089974456 -0.5712336 -0.14112505
-0.79437697 -0.1828472 0.0029369297 0.02737181 -0.42248085 0.009792829 -0.510373 -0.3786027
0.007442445 -0.44475624 -0.219708 -0.07807366 0.042383395 -0.12097728 -0.2909408 0.0070658727
-0.08990849 -0.5163915 -0.47671443 0.024257187 -0.08237571 -0.40627107 -0.3545589 -0.2132708
-0.20730427 -0.1014088 0.08073378 -0.30011934 -0.34787828 -0.48113066 -0.015153305 -0.07583783
-0.5067135 0.16164327 0.08488656 -0.3375193 -0.13318679 -0.12524404 0.057750084 0.035250895
-0.06214219 -0.32862198 -0.37536773 -0.22666141 -0.030668711 -0.32863966 -0.440959 0.02437684
-0.21995175 -0.43342203 6.421085e-05 0.028196352 0.1525956 -0.021951057 -0.66238713 -0.61780506
-0.085145876 0.12017591 0.37804446 -0.082364626 -0.28693792 -0.43508017 -0.17960034 0.09616345
0.05610346 -0.25351405 -0.36702248 -0.299427 0.017596826 -0.4985975 -0.25579157 -0.3580965
-0.033232883 -0.10177113 -0.13503839 0.066882506 -0.5086801 -0.51413876 0.26218575 -0.54295695
-0.3502123 -0.06727233 0.15301383 0.033258524 0.060661606 0.021568215 0.033385824 -0.21105087
-0.2802472 -0.5126884 -0.098635964 -0.12207334 -0.25470203 -0.35655168 0.18647529 -0.36117643
-0.57449687 -0.3660427 0.122255735 -0.35782337 0.04021989 0.21883118 0.17377362 0.06608424
-0.3647675 0.19919877 -0.008265038 -0.1091528 0.2256766 -0.15787846 0.05476435 -0.3223186
-0.06057957 0.14435379 0.17024139 0.071128905 0.15331502 -0.58288443 -0.15426637 -0.2550335
