models/model_objs/Stefan low risk live.pth (torch, 836983 bytes, 11 tensors)

weight f4 [256, 135]
00000000: db82 cf3c d9e0 4bbc dfc5 803d ebb3 7abd
00000010: dfeb 303b 9718 79bd a091 3b3c 39be 22bd
00000020: 90ba 833c d02c 90bc 03f3 533d bfc6 80bd
00000030: 9e7c 68bd ff2e 77bd ba92 903d e0b9 883c
00000040: 6b6a 7b3d 5c43 9ebd 4263 d0bd ce62 adbd
00000050: 5275 8dbd decb c43b 272a b43c 270b 843d
00000060: 845b 1dbd 7877 99bd f42f 143d 752d 36bd
00000070: 2272 373d 9e00 23bd b2ea ed3d dcd7 a7bd
00000080: 415d 89bd 8b7a 373c 1ea4 823b a68c 1cbd
00000090: b4d5 b93c 5bc8 553d 73de a5bd 73b7 31bd
000000a0: 40b4 d23d 24b7 49bd 0ba0 3ebd 59fb e9bd
000000b0: dc17 35bd 7e41 3c3b d6ca 9abd d3bd 7ebd
000000c0: ecb6 103d f64c b0bd 2d41 cebd 8e89 04be
000000d0: 0766 9cbd dad7 d1bd aea4 933d 8985 87bc
000000e0: 43fa d13c 34cd 2fbd 003c a0bd 5e4d abba
000000f0: 0cc4 233d 1bf4 f5bd a23c 64bd 3775 7abd
00000100: d851 35bc 1207 cb3b 71e9 4bbd cccd cc3a
00000110: 06e5 e63b b5f8 81bd 56be 1dbd 6e90 283b
00000120: 90ad 6f3d e9a2 ebbb 58aa b23d 790c c73d
00000130: 4b99 d6bd 4ba2 a33d 5905 29bd c59c b3bd
00000140: 8d95 d0bd c4af 06be 27c8 163d e397 97bb
00000150: 73ab b03c 4c42 37bd 7630 9f3c 23ed 49bd
00000160: 0679 993a 10bf 6f3c c1a4 02bb 2d9b 663d
00000170: 37bf b43d e0bd e4bd 4ff1 5f3c d67b 12bd
00000180: 90f0 1ebd 341a aabd 3507 963d 64f1 1abd
00000190: 46a9 323d 97d0 c53b 3a38 603c 124d 2cbc
000001a0: b222 033e 741a 0c3d 12e2 59bb 2d6b c9bd
000001b0: c8b4 d33c e22e 9ebc 2c4d edbc 623b b43d
000001c0: 5880 af3c 3dfe 7ebd 469c 20bd 23ce 2f3d
000001d0: d373 b0bb 9756 9fbd 4db9 fdbc fa1a b1bd
000001e0: d39b 45bd a9e9 93bc 7068 bd3b 0d0f adbc
000001f0: d16a 503d c2a7 5d3d a37c 1b3d c7de c2bc
00000200: 66b3 4c3d 0679 883d 605e 563c 9d54 f5bc
00000210: 4d02 9fbc b5ca 31bc a826 5fbb a4dd 3fbc
00000220: 544b 823d e595 7d3d 5235 78bc d030 06bd
00000230: 8daf 1e3c eacd 0fbd 006e 8b3c dd9c cdbb
00000240: 13bf 94bd 16d8 3bbd 8b77 7e3d 08b5 2e3d
00000250: 48b5 883a 9f4f efbc b336 fdbc 32f6 d1bd
00000260: f864 c43b 5c1b 0d3d fa32 b83d 6d3b 553d
00000270: a8f5 a9bd 6a65 82bd 5bb7 563c e5bc c43d
00000280: b5e0 bb3c 8663 e9bb 7378 643c 1a6e 87bd
00000290: 7c9b 55bd 98e2 973d efae cd3b 46a3 9cbd
000002a0: e3e5 c8bd ec12 393d 11f6 5c3d bf93 b1bc
000002b0: c92c 42bd c3e1 32bd e34e 8bbd fa08 6f3d
000002c0: 095e 173d 6dcc 893d 2c9a be3c ebd3 853c
000002d0: 0dcd c8bc 3df1 53bd 2079 81bd c3eb 60bd
000002e0: 1922 8abc 97ac acbd 3882 30bd af23 c7bd
000002f0: ab66 20bd b766 b6bd bf50 5ebd 0adf 60bc
00000300: 7c2e 5c38 0fec 893d 09de 5fbd 9a66 eebd
00000310: 3457 2ebd b17c 863a 30d8 87bd 0b77 fcbd
00000320: 465c 4c3d 01ab 93bd 2d2e e43d e446 b03d
00000330: bee8 1f3d 840b adbd 59ed 4c3d 9640 85bd
00000340: eae4 903d 7946 923d 15e3 1d3d 056c 5c3c
00000350: 7894 34bc c33d 88bd 95a7 58bc 5a45 f6bd
00000360: 237b 8b3d 3b77 a03d 0f92 9b3d 5b50 51bd
00000370: f2e5 43bd 7103 62bd 29be 013d 75a0 9cbd
00000380: 688a 51bd 085e b3bd 33ba 383c 7291 5bbd
00000390: dfee 3ebd 6779 3ebd c27b 8bbd fcc5 8a3d
000003a0: 6e22 7f3d 7ce6 06bd 5099 8d3c c8ec 9abb
000003b0: b820 c4bd 4152 22be 9733 9a3c 1866 40bc
000003c0: 6f09 91bc 9428 073d 0759 dbbd 0cb2 76bc
000003d0: c32a 893d 83c9 4e3d 5ab9 85bd 8b43 c4bd
000003e0: a504 d1bd 6fe8 193d 371e bfbc cade a2bc
000003f0: 5775 7ebc 9858 86bb 0c49 953c a256 e23c
0.025330951 -0.012443745 0.06287741 -0.06120674 0.002699606 -0.060814466 0.011448294 -0.03973219
0.01608017 -0.017599493 0.051745426 -0.06287908 -0.05675947 -0.060347553 0.07059236 0.016690195
0.061380785 -0.077276915 -0.10175182 -0.08466111 -0.06907143 0.006005748 0.021992756 0.0644744
-0.038417354 -0.0749349 0.036178544 -0.044476945 0.04478658 -0.03979551 0.1161703 -0.08195469
-0.0670724 0.01119865 0.0039868494 -0.03822007 0.02268491 0.052193027 -0.080990694 -0.04338784
0.10288286 -0.049246922 -0.046539348 -0.11424894 -0.044212207 0.002872556 -0.07558219 -0.06219275
0.035330698 -0.08608429 -0.10071025 -0.12943098 -0.07636648 -0.102462485 0.072091445 -0.016543167
0.02563203 -0.042920306 -0.07823944 -0.0013069322 0.039981887 -0.1200945 -0.055721886 -0.06114694
-0.011066876 0.006195911 -0.049783174 0.0015625297 0.0070463447 -0.06346265 -0.038511597 0.0025720852
0.05851513 -0.0071910513 0.08723897 0.09719176 -0.10478457 0.07989939 -0.041264866 -0.08770136
-0.101847745 -0.13152987 0.036811974 -0.0046262606 0.021566128 -0.04474096 0.019432288 -0.049298417
0.0011709041 0.014632955 -0.0019934627 0.05630033 0.08825534 -0.11169028 0.013668372 -0.03576263
-0.038803637 -0.08305779 0.073255934 -0.037827864 0.043618463 0.0060368287 0.01368528 -0.010516422
0.12806204 0.034204915 -0.003324632 -0.09834895 0.02584304 -0.019309465 -0.028967462 0.08800389
0.021423504 -0.06225418 -0.039211534 0.042921197 -0.005384901 -0.077801876 -0.030972147 -0.086477235
-0.04824431 -0.018055754 0.005780272 -0.02112534 0.050883118 0.054115064 0.03796066 -0.02378787
0.049975775 0.066637084 0.013084024 -0.029947573 -0.019410277 -0.010851552 -0.003405014 -0.011710558
0.06362024 0.06191053 -0.015149431 -0.032761395 0.009685409 -0.035108484 0.017020226 -0.006274803
-0.07263007 -0.045860372 0.062125724 0.042653114 0.0010430003 -0.029212771 -0.030909872 -0.10252036
0.0059934817 0.03444992 0.08994098 0.052058626 -0.08298808 -0.063669994 0.013105239 0.09606341
0.022934297 -0.00712246 0.013944733 -0.06612797 -0.052150235 0.07416266 0.006276957 -0.076483294
-0.098094724 0.04518406 0.053945605 -0.021676896 -0.04740599 -0.043672334 -0.06802156 0.05835817
0.036954913 0.06728444 0.023266874 0.016336402 -0.024511838 -0.051743735 -0.06321931 -0.05491234
-0.016861962 -0.084313564 -0.043092936 -0.09723603 -0.03916041 -0.0890631 -0.054276224 -0.013725052
5.249538e-05 0.06734478 -0.05465511 -0.116406634 -0.042563632 0.001026055 -0.06633031 -0.12327393
0.049892686 -0.07210351 0.1114162 0.08607271 0.03904032 -0.08449462 0.05003104 -0.065064594
0.07074912 0.07142348 0.03854664 0.013453488 -0.011021726 -0.06652405 -0.013223548 -0.120249465
0.06810596 0.078352414 0.07596218 -0.051102024 -0.047826715 -0.055179063 0.03167549 -0.07647792
-0.051157385 -0.087581694 0.011274862 -0.053605504 -0.046614524 -0.046502497 -0.06810714 0.06776044
0.062288694 -0.03293465 0.01728502 -0.0047279336 -0.09576553 -0.1585169 0.018823428 -0.011743091
-0.017704694 0.032997683 -0.1071034 -0.015057098 0.06697609 0.050485145 -0.06529494 -0.09583195
-0.10205964 0.03757518 -0.023329837 -0.019881625 -0.015530906 -0.0040999167 0.018223308 0.0276292

bias f4 [256]
00000000: 3caf 35bd c621 f03c b00e 27bd 2121 65bd
00000010: ac89 e73a 8991 323d 2144 7e3c 1114 b43a
00000020: cf7e ac3d 500f 223d 312b 14bb 1807 943d
00000030: f204 0bbd 2e38 18bd 44c3 ba3c ba59 71bd
00000040: 2d76 b93c 18a6 263d cb8c 473d db0a ad3c
00000050: 5edd e23c 6061 1f3d 1464 5c3d ac25 7dbd
00000060: 72ca 7e3b e6b2 123d 54cc 8e3d 2cee ab3d
00000070: 2f00 89bd eed5 a93d 6425 e63c ee26 35bd
00000080: 26d0 9bbd 8848 f93c db24 963d 4dde 7b3d
00000090: 6100 073d ce0a 88bd 3041 90bd 0101 08bd
000000a0: bd3a 56bd 5a70 3fbd 47df 84bd d940 2f3d
000000b0: 0f1d ab3c ddc2 f53c b945 3fbd f6ff 90bd
000000c0: 86ab c13b 68ab 2a3d aaee 0b3d 62cb c53c
000000d0: 19ed 52bc a545 12bb bb54 32bd 428d 343d
000000e0: dad8 6b3d 78ad 3d3b 29aa 2abc 7a5f 943d
000000f0: 85db 36bd 4920 e53b 92e9 8d3c f430 40bc
00000100: d3e4 3f39 b183 2fbd 45c6 c43a 378e 053d
00000110: 1072 983d f2b7 7e3d b977 3f3d cd69 bd3d
00000120: 4b74 563d fa72 213d f0e7 133d 3be6 f03c
00000130: dccf 1c3d 7622 a4bd a87e 0a3c afc1 03bd
00000140: 6354 e6bc 1a08 02bd b9d9 00bd 1073 bdbc
00000150: 95dc 833d 42e4 9bbc 1511 c73b d509 e4bc
00000160: 4a55 a73d 8301 d8bc 2d19 273d 48c4 a4bd
00000170: edde 613c 0cbf 37bd 18b8 2a3d 2b21 c23c
00000180: aef7 1d3d e6a9 a03c 6a00 00bd 7996 63bd
00000190: 351b 82bd f77c 48bb 6008 cdbc ff20 a43d
000001a0: 289c 753d 83ad 0fbb 7e6c 623d dccd 4dbc
000001b0: 0fce 97bd fbab e3bc 1268 b43d ef4f 3b3d
000001c0: 33bb 9cbb 473d f8bc 99d8 98bc bdad 66ba
000001d0: 2035 8ebd 9a29 caba 2c73 26bd 7ac7 713d
000001e0: 172b 8d3c 3618 a23c 56fa 2d3d 4a8b 153d
000001f0: 2ab3 55bd a879 8cbb d21e 47bd 1ac4 dc3c
00000200: d084 9d3d 9394 46bd 2797 003b 7ab4 823d
00000210: 2813 6f3d 202e 103d 0b50 263d 82c7 953c
00000220: bdb4 a53d 96d6 5dbd c51f 483d 4384 fabc
00000230: 0b30 22bd 6e72 8f3d 3d16 b73d e96c 953d
00000240: fb78 c53c 7caf 893c 549f 30bd b05e 943c
00000250: a743 c23c f516 15bd 4266 f3bc b59b 56bd
00000260: 6463 0e3d 2660 123d 451e 1b3d 2d74 8d3d
00000270: abfa eabc 77e8 36bd 2c92 923d 2575 df3c
00000280: 7875 dc3b f342 293d 635d 4fbd b2b4 7dbd
00000290: aea2 a83d 249e fbbc b574 803b 2b90 9b3d
000002a0: 7be5 b33d f988 093d d126 853c a0a8 a1bd
000002b0: da5a e2bc 6a08 acbc d65f 6ebc 0d7e 61bd
000002c0: 606a 73bd 46d7 9c3d a0d6 5ebb db9c 08bd
000002d0: a8e9 f8bc 2fe7 adbc a463 aa3d 1914 8fbc
000002e0: 8692 5ebd 24aa 81bd e614 913d c38b a13d
000002f0: 9d9d 893d 6c5a 983d 6c11 293b c319 89bd
00000300: 12e0 ffbc b639 153c 379c a13d 29c1 3b3b
00000310: 10c0 243d 2ee6 a93d 086b f0bc afee 86bd
00000320: b34f 1fbd 5dd9 a6bd d00a 573d 12e4 19bd
00000330: c504 ccbb d70a 23bd 9e0a 60bb ac7e c93d
00000340: f4df 0f3d 5de3 29bd 97dc 5d3d f213 36bd
00000350: 3b8a a33c 131b 83bd fa58 7bbb 0c67 4fbd
00000360: 2e0a 263d 0bdf 16bc bde4 683c 9ecc 38bd
00000370: 9ee2 9d3d a98c b33d 700c 6c3d e74d aebd
00000380: 4c79 c5bd bf85 0cbd dde4 273d d83b 0c3d
00000390: 1d8a d83c 14e8 88bd c042 463d 318e 71bd
000003a0: 5d7f a6bd fb52 42bd 981a 573d c0c5 19bd
000003b0: df3f 5b3d 3a4f 5e3d adef 093d 1a95 8ebd
000003c0: 6a83 ebbc 5217 97bd 1298 6abc 54aa 0e3d
000003d0: 5f35 18bb cc78 893d d699 a43d 7e97 32bc
000003e0: 9edf 76bb a885 4f3d 90a2 20bc 92b9 84bb
000003f0: 9cf2 8c3d 727d 57bd 0228 39bd 1ae1 dcbb
-0.04435657 0.02931298 -0.04078549 -0.055939797 0.0017664931 0.043595824 0.015519173 0.001373889
0.08422624 0.039565384 -0.0022608752 0.072279155 -0.033940263 -0.037162952 0.022798188 -0.05892346
0.022639358 0.040685743 0.048718255 0.02112334 0.027693447 0.038911223 0.05380638 -0.061803505
0.003887799 0.035815142 0.06972566 0.08395037 -0.06689488 0.08292757 0.028094001 -0.04422658
-0.076080605 0.030430093 0.073312484 0.0614913 0.032959346 -0.06642686 -0.070436835 -0.033204082
-0.05230211 -0.046738006 -0.06487899 0.042786453 0.02088788 0.030000145 -0.046697352 -0.07080071
0.0059103398 0.041667372 0.034163155 0.024144832 -0.012873911 -0.0022319343 -0.043537837 0.044080026
0.057579853 0.0028942507 -0.010416546 0.07244773 -0.044642944 0.006992374 0.017323289 -0.011730421
0.00018300423 -0.0428502 0.0015012702 0.03260633 0.07443631 0.062187143 0.046745036 0.092486955
0.052357 0.03941629 0.036109865 0.029406657 0.038284168 -0.080143854 0.008453049 -0.032167133
-0.02811641 -0.031746008 -0.031457637 -0.023126155 0.06438557 -0.01902974 0.0060750344 -0.02783672
0.081705645 -0.026367908 0.040795494 -0.0804525 0.01378606 -0.04485993 0.04167947 0.023697456
0.038566284 0.019612264 -0.031250395 -0.055563424 -0.063528456 -0.0030592063 -0.025028408 0.08014106
0.059963375 -0.002192349 0.055279247 -0.012561288 -0.074123494 -0.027791968 0.08808912 0.045730527
-0.004783058 -0.030302657 -0.01865797 -0.0008799693 -0.069437265 -0.0015423775 -0.04063718 0.059028126
0.01723246 0.019786935 0.042475067 0.03650979 -0.052172817 -0.0042869635 -0.048613377 0.026948977
0.076913476 -0.048481535 0.0019621344 0.063820794 0.05836788 0.03520024 0.04060368 0.01828361
0.08091114 -0.054159723 0.048858423 -0.030580645 -0.0395966 0.070042476 0.089397885 0.072961636
0.02410554 0.01680731 -0.043120697 0.018111557 0.0237139 -0.036398847 -0.029711846 -0.052394588
0.034762755 0.035736226 0.037870664 0.069069244 -0.02868398 -0.04465529 0.07156786 0.027277539
0.0067278706 0.041323613 -0.05062617 -0.061939903 0.08234154 -0.030715056 0.0039201626 0.07595857
0.08784004 0.033577893 0.01625386 -0.07893491 -0.027631212 -0.021000106 -0.014549216 -0.055051852
-0.05942762 0.07658248 -0.0034002438 -0.033352714 -0.030384853 -0.021228401 0.08319786 -0.017465638
-0.054338954 -0.0633128 0.07084064 0.078879856 0.067195155 0.074391216 0.0025797738 -0.06694367
-0.031234775 0.009107998 0.07891124 0.0028649068 0.040222228 0.082958564 -0.029347911 -0.06588494
-0.038894366 -0.081469275 0.052500546 -0.03757102 -0.0062261545 -0.03980526 -0.0034186016 0.09838614
0.035125688 -0.041476596 0.05416545 -0.044452615 0.019963374 -0.06401648 -0.0038352595 -0.050635383
0.04053705 -0.009208451 0.014214692 -0.045117013 0.077092394 0.08767063 0.05762905 -0.085109524
-0.09642276 -0.034307238 0.040989745 0.03423676 0.026433045 -0.066848904 0.0484035 -0.058973495
-0.08129761 -0.047442418 0.052515596 -0.037542105 0.05352771 0.054274775 0.03367584 -0.069620326
-0.028749187 -0.07377495 -0.014318483 0.034830406 -0.002322517 0.06712493 0.080371544 -0.010900376
-0.0037669907 0.050664574 -0.009804383 -0.004050442 0.068822116 -0.05260987 -0.04520417 -0.0067407014

weight f4 [256, 256]
00000000: 405d 643d 3168 3fbd c10d 38bd 0393 09bc
00000010: 1eb3 febc 06a3 4fbd bd93 82bd dff0 7a3b
00000020: 9d9c 183d a743 253d f734 b73b c497 773d
00000030: 8eeb cabb 644e 403d d291 ad3b 68b7 c7bc
00000040: 9973 e83c 25d8 8ebc ad60 b13c 8a1d 0c3d
00000050: d14a 903d b372 e83c 5d7e 88bb 2acb 40bb
00000060: 9921 06bd 6f96 923a 0370 1ebd 69ad 2e3c
00000070: c363 20bd 7299 e13c a9c0 3abd 6617 683c
00000080: 43e9 12bd f4a3 353d 7bc4 87bc 99dd e13c
00000090: 748c 923b d45c 4e3b 5a5c 59bd 335e e63c
000000a0: e296 b4bc 3782 42bd 67b8 dfbc 0b77 4f3b
000000b0: fba4 863c 2f63 8ebc 6d07 0f3d d034 0c3d
000000c0: 19ad 1a3c cb85 6c3d 98f1 b43d 7354 90bd
000000d0: 6add b9bc ccb9 9c3c 4b5b d9bc 0664 7eba
000000e0: e444 913d f61b 4abd 2bb7 91bd be64 1a3d
000000f0: cd3b 943d 78dc d2bc 325c ac3d 19fc e8bc
00000100: a024 19bd 6607 bd3c e877 803d 97e5 713d
00000110: aa17 13bd 568c ecbc 36e7 febb 320f 55bd
00000120: 4cc8 e53c 912d c33c db2d 6abc e3f0 843c
00000130: 46a2 3f3c 4e1f 023d f20e 463d 4465 203d
00000140: 7bad 0bbc 23e1 323d d7e6 a43c c636 e0bc
00000150: 77fd 9c3d cef4 39bd 460b c33b 41c9 f4bc
00000160: 588d aebc 825d 713d e512 ad3c dfd0 e53c
00000170: b0fa 35bd bc73 a7bd ebe6 35bd 2f70 b53d
00000180: 121b e1bc b1b9 02bd 0fbd 47bd 9845 abbd
00000190: 10d0 29bd 4d60 303d 76ad c3bc 6e26 15bd
000001a0: ef06 a33c 3d4b f93c e086 f3bb 0dd8 803d
000001b0: 8481 b43d b475 2c3d 7dc2 68bd 7e67 1e3c
000001c0: ec33 86bd c448 dcbc b4da 813d 51e4 adbb
000001d0: b57c 73bd 5b7f 9dbc bd7c 253d a3ad a1bd
000001e0: 420c 613d 649f 42bd 52b4 343d 7369 8a3c
000001f0: 2c20 b13d 8b22 553c 81f6 18bd 601b 3b3d
00000200: 103c 24b7 4c60 d13b 2ab4 a6bd a1f7 60bb
00000210: 4e15 c23d 6dc3 803d 35ce cb3c 5773 943d
00000220: 63e5 59bd ad13 debd c879 a63c ec34 23bd
00000230: 3226 9abb 6c4b 5dbd 0606 6f3d 1d07 9dbd
00000240: c24b 38bd 36bf 323d 051c ccbc a57a 18bd
00000250: bf14 343d 7153 3a3d a637 a03c cc8f 1a3c
00000260: a9c0 ccbc a705 36bd 73b6 1b3c 3258 823c
00000270: 5990 90bc ff0b 7cbd 65b1 523d 63cb 39bd
00000280: fc01 31bd ae3c 743d 5968 c43c 8cb6 0a3d
00000290: bea8 163d 58d2 2f3b 6b3f 063c 19ee aa3c
000002a0: 3982 9f3c b63d 55bd 2c4e 1dbc ad2e 5fbd
000002b0: 4e70 463d 84a2 fd3c 598f e13c 5d91 403d
000002c0: 5f00 42bc cd8b 3d3d 0b9d 85bd bfb4 c63a
000002d0: e588 823d 3557 b2bc a68b a3bc b6b6 0c3c
000002e0: 5f67 a8bb cd52 68bd 4f9e 62bc 567c 6cbd
000002f0: 4d2f 923c 1cca 30bb 929b 773d 355f edbc
00000300: 3092 123d d711 c2bc 042d 4fbd 5c5d 603c
00000310: 7e4c 08bc 5a39 00bd 5fa0 19bd 04ef bfbc
00000320: 3a2b af3b 1f1b 283d 7600 d93b 814a 4b3d
00000330: 95ea 8a3d 040a 093d b769 c3bb 5e9c 59bd
00000340: 8440 0f3d 54e3 86bd 56f2 7e3b c1e3 df3c
00000350: a386 2e3d 98f1 a3bd c133 2fbd fe47 1f3d
00000360: 0483 9a3c bec5 1b3c b431 c13c 0d68 393d
00000370: d57f 233d c582 5d3d ac89 803c d17a 523d
00000380: 8a35 41bc 2c3e 3e3d 3260 103c 6ce9 8b3b
00000390: 03e4 9fbc 734e c4bd b2a2 7e39 7337 06bc
000003a0: d315 e13c ac47 ba3c d2a7 de3c e2dd f3bc
000003b0: 84a3 5a3d e426 973b c05f 333b 68af 1abc
000003c0: e993 2a3d 48c5 9f39 2539 31bc 320d c5bc
000003d0: b194 4e3d 2f09 1a3b eb61 913d c6b5 d8bb
000003e0: a6fd 43bd 6e1a c33c 3d13 523d 8253 57bd
000003f0: 4cc3 783c eef5 13bd f433 3c3c 5e7b 30bd
0.055752993 -0.046730224 -0.04493499 -0.008396867 -0.03109127 -0.05069258 -0.06375835 0.0038290543
0.037258733 0.04034772 0.0055910307 0.06044747 -0.006192631 0.04694976 0.005296924 -0.024379447
0.028375434 -0.01743705 0.021652544 0.03420786 0.0704552 0.028375005 -0.0041654543 -0.002941797
-0.032746885 0.0011183749 -0.03868104 0.010661461 -0.03915764 0.027538989 -0.04559389 0.014165735
-0.035866987 0.04434581 -0.016573181 0.027571486 0.0044723097 0.0031488435 -0.05306659 0.02812109
-0.022044603 -0.047487464 -0.02730961 0.0031656648 0.01643609 -0.017381279 0.03491919 0.034230053
0.009440684 0.057744782 0.08835143 -0.070473574 -0.022688586 0.019131564 -0.02653279 -0.00097042357
0.07093218 -0.049343072 -0.07115015 0.03769373 0.072379686 -0.025739893 0.08416022 -0.028440522
-0.037388444 0.023074817 0.0627287 0.059056845 -0.03591124 -0.028875511 -0.0077790273 -0.052016445
0.02804961 0.023825439 -0.014293159 0.016228145 0.011696404 0.031768136 0.048354097 0.039159074
-0.008525248 0.04367174 0.020129604 -0.027369868 0.07665532 -0.04539948 0.0059522716 -0.029881122
-0.021307632 0.058927067 0.021127174 0.028053699 -0.044428527 -0.081763715 -0.044409674 0.08859288
-0.027478728 -0.03191537 -0.048764285 -0.08362883 -0.04145819 0.04306059 -0.023886424 -0.036413603
0.019900767 0.030431384 -0.00743185 0.062912084 0.08813766 0.042104438 -0.056826103 0.009668229
-0.06552872 -0.026890166 0.063405424 -0.0053067585 -0.0594451 -0.019225767 0.040402163 -0.07894447
0.05494333 -0.047515288 0.04411728 0.016895985 0.086487144 0.013008724 -0.03734446 0.045680404
-9.789146e-06 0.0063896533 -0.08139832 -0.0034327286 0.0947672 0.062872745 0.0248786 0.07248562
-0.053197276 -0.108435966 0.020321742 -0.039845392 -0.0047042603 -0.054027006 0.058355354 -0.076673724
-0.044994123 0.043639384 -0.024915705 -0.037226338 0.043965098 0.045489732 0.019557785 0.009433698
-0.024994211 -0.044438984 0.0095039485 0.015911195 -0.017646955 -0.061534878 0.051438708 -0.04535998
-0.043214783 0.05962818 0.023975538 0.033865497 0.03678202 0.0026828256 0.008193831 0.020865487
0.019471275 -0.052060805 -0.009601157 -0.054487873 0.048446946 0.030961283 0.027534174 0.04701363
-0.011840909 0.046275903 -0.06524094 0.0015160068 0.06373767 -0.0217701 -0.01996405 0.008588484
-0.005139276 -0.05671959 -0.013831689 -0.057735763 0.01784482 -0.0026975935 0.060451098 -0.028976062
0.035783947 -0.023690147 -0.05058004 0.013694134 -0.008319018 -0.031304695 -0.037506457 -0.023429401
0.005345729 0.04104149 0.0066223694 0.0496316 0.06783024 0.033456817 -0.00596353 -0.05312764
0.034973636 -0.06586328 0.0038901768 0.027330281 0.04260887 -0.08005065 -0.042773966 0.038887016
0.018861301 0.009507595 0.02358327 0.045265246 0.039916832 0.05407979 0.015690647 0.051386658
-0.01179255 0.04644601 0.008811997 0.0042697694 -0.019517904 -0.095852755 0.00024283936 -0.008191931
0.027476227 0.022739254 0.027179632 -0.029768888 0.053378597 0.0046127904 0.0027370304 -0.009441234
0.041644964 0.0003047383 -0.010816847 -0.024054144 0.050434772 0.002350401 0.070987545 -0.006613466
-0.04784932 0.023816314 0.05128788 -0.052569874 0.015183281 -0.03612321 0.011486996 -0.043086402

bias f4 [256]
00000000: 1600 66bc 6972 583d 9ddc 313d 758d 06bd
00000010: de9d 3d3d ccdc d5bb 579d 943c c3a1 533d
00000020: f3f3 733c 4e10 c73a f85a c9bc 60b0 363d
00000030: 2495 673d 9ee5 a73c d490 11ba 6f19 fc3b
00000040: 371e 823d 3058 67bd 8854 f23a 6c80 d63b
00000050: b2c0 f33a a33b 563c cbcc f0bc 83f3 2d3d
00000060: 0172 873c 560e 12bc a91f 26bd 97fd e8bc
00000070: 7839 ab3b cbd5 4f3d 9273 85bd 326f 2fbc
00000080: dbd8 79bd a404 0abd 6cf3 b83b de3d 8dbc
00000090: 2128 40bd 5068 5b3d b8b7 0f3c 5e85 45bd
000000a0: 6e68 4f3d d04a 293d 0d74 00bd 198b c5bc
000000b0: e436 81bd ea89 1e3d a1b8 cc3c f02a 1bbd
000000c0: 1e06 f93b 5f4e 57bd 505b c8bc 2995 f2bb
000000d0: 773e 743d a0a4 0b3d 94cc bb3d b6de e2bc
000000e0: dd77 363c 12c1 663d 6d8d 453d 8088 903d
000000f0: d1b9 12bd e1d6 3dbd 9b48 b3bc 1d51 133d
00000100: ca67 3ebd 83e5 8d3a ef03 1f3d 17c7 99bc
00000110: edee 233d eade 4cbd 67d3 02bb badc 91bc
00000120: b039 2b3d 0d67 f23c 6d8f 363d b453 4d3d
00000130: 1dba 0b3d dd66 8d3c 37e9 b9bc 877d 843c
00000140: 51c6 a83c e8b3 76bc 321c 80bd 37cc 4dbd
00000150: b85b a839 ba94 bcbc 26fc 3e3b b59a 7f3d
00000160: 64d4 cbbb 9d00 c7bc 180d 49bd 9ca2 853d
00000170: 4670 2abc 3e7b 47bd f50a 733d d48f 443d
00000180: 7ab6 68bd bf80 113d b4db 123c 9a1e 283d
00000190: 8370 b9bc aff4 16bc bc07 87bd 1999 093d
000001a0: 666d c4bc e1f8 a23b 8c89 b43c 902d 0dbd
000001b0: b156 2d3d fe7e d73c 920f 553c 9a2d 8cb9
000001c0: aecc 753d b73a 073d 6c42 4b3b 6ca7 2ebd
000001d0: f938 323d 7135 51bd 26c2 57bd e60b e0bc
000001e0: 9305 99ba b7d7 98bb df5b 00bd 2906 c33b
000001f0: 2f83 80bd 32d3 36bc 1e1e 613d 5ba6 73bb
00000200: 8160 513b 5be9 493d aaa1 0cbc 5629 493d
00000210: 404a 4d3d 5571 e83c 2d8e e73c af38 f4bb
00000220: ad51 29bc 7d67 98bc 4a9b b3bc 8097 8b3b
00000230: a70f c339 f6c2 45bd 033d 82bd d128 763d
00000240: 5855 173d 101f edba e393 803d 1bd2 2abc
00000250: 0e63 25bd 1e0b 103d 9d87 cc3c 148f 633c
00000260: bdbe 083c 232b 5d3c 63e0 43bd 3b25 f93c
00000270: 722c 4d3c c339 4bbc 8a7c ae3c bbd9 5c3d
00000280: b1ac 4ebd 2a59 063d a7fe 493c 8a64 e9bb
00000290: 0b73 95ba 0460 b73c ad7f 423d bf27 ae3b
000002a0: d9bb fb3b b61b 4d3d 3457 873c ce3a 1fbd
000002b0: d2b6 723d 151c 563d 7d41 63bd 05ac 5dbd
000002c0: c0a7 2cbc 985a 46bd 5ce9 75bd 6db1 9d3c
000002d0: 6325 09bd 9730 a9bc 89b5 6dbd 634f 0bbd
000002e0: 7e7e 893d e2bb 473d 23b7 26bb d5cf c83c
000002f0: 3b56 463d 375e ed3c b166 11bd ab62 b43c
00000300: 6f12 b4bc 69ed 13bd b069 9f3c a433 043d
00000310: 0667 873c 28cc 66bc 2afe 963c 1e87 a1bb
00000320: aa6b 703d 16ff 643c 9c15 69bd f95d a3bc
00000330: aa2a 80bd 4b43 753c 0be5 fc3c 5de5 07bc
00000340: 9e8b fc3c 9406 153d 6a4a 683c 6f34 ecbc
00000350: 3214 35bc f9fa 083c add0 323d 6884 273d
00000360: a284 edbb 7d7b 0c3d 1986 823d 5d6b 42bd
00000370: 087e a33c 0d53 55bd 6f5d 5bbd 96d5 553d
00000380: a2e0 64bb 2980 813d 5383 abbc 0971 123d
00000390: 8082 333d c964 443b ff04 4fbc bc6f 793d
000003a0: 1780 4e3d 7f12 8ebc b5da bb3c 0ab8 8dbc
000003b0: 88c2 423d 3cce 3abb 7321 513c 7660 793c
000003c0: e1e4 91bc fa83 2bbd 1d9c 883c 02ca 83bc
000003d0: cc0b 1cbd 2e3a 37bd 567b 2e3d 8727 c13b
000003e0: 0934 1a3c 981d 593d 5cc0 a2bc fe81 55bd
000003f0: 8f1f 4fbd 39cb 0abd b1fd 88bd cbfb 763c
-0.014038106 0.052843485 0.043423284 -0.032849748 0.046293132 -0.006526565 0.018141432 0.05166794
0.014889705 0.0015187354 -0.02457951 0.044601798 0.056538716 0.020495232 -0.0005552892 0.0076934616
0.06353419 -0.056480587 0.0018488327 0.006546071 0.0018596856 0.013075742 -0.029394528 0.04246856
0.016533853 -0.008914551 -0.040557537 -0.028441234 0.0052253567 0.050741 -0.06516184 -0.010707663
-0.060997825 -0.033695832 0.0056442525 -0.017241415 -0.04691327 0.053566277 0.008771829 -0.048222892
0.0506367 0.041331112 -0.031360675 -0.024114178 -0.06309298 0.038705744 0.024990382 -0.037882745
0.007599606 -0.052564975 -0.024457604 -0.007403035 0.059629884 0.034092546 0.091698796 -0.027694087
0.011136976 0.05633647 0.048230577 0.07057285 -0.03582174 -0.046347503 -0.021885207 0.035966028
-0.0464857 0.0010825846 0.03882211 -0.018771691 0.04002278 -0.050017275 -0.0019962431 -0.017805446
0.041803062 0.029590154 0.044570375 0.050128654 0.03411304 0.017260963 -0.022694213 0.016173137
0.020602377 -0.015057541 -0.06255378 -0.050243583 0.00032111793 -0.023020137 0.0029141991 0.0624034
-0.0062203873 -0.024292285 -0.049084753 0.06525156 -0.010402745 -0.048701517 0.05933662 0.047988728
-0.05681465 0.035523172 0.008963514 0.04104481 -0.022636658 -0.009213611 -0.06593272 0.03359327
-0.023977946 0.0049735163 0.022038244 -0.03446728 0.042319003 0.026305672 0.0130042005 -0.00026736857
0.06000965 0.03301498 0.0031014932 -0.042640135 0.043511365 -0.051076356 -0.05267539 -0.027349424
-0.0011674635 -0.004664387 -0.031337615 0.005951662 -0.06275021 -0.011158751 0.054960363 -0.0037178013
0.003194839 0.04929481 -0.008583466 0.049111687 0.05011964 0.028374353 0.028266037 -0.0074530463
-0.010334414 -0.018604035 -0.021924634 0.0042600036 0.0003720496 -0.048281632 -0.06359293 0.06009752
0.036946625 -0.0018090922 0.06278207 -0.01042607 -0.04037767 0.035166852 0.02496701 0.013889093
0.008346257 0.013499054 -0.047821414 0.03041326 0.012522804 -0.012403908 0.02129962 0.05391858
-0.05045766 0.032799877 0.01232878 -0.007122581 -0.0011402083 0.022384651 0.047485042 0.0053147967
0.0076823053 0.050075255 0.016521074 -0.03887444 0.059256382 0.052272875 -0.055482376 -0.05411913
-0.010538042 -0.04842624 -0.060037002 0.019249642 -0.03348292 -0.020653052 -0.058034454 -0.034011256
0.067135796 0.048763163 -0.0025438748 0.024513165 0.04842208 0.02897559 -0.035498325 0.022019705
-0.021981446 -0.036115084 0.019459575 0.03227581 0.016528618 -0.014086761 0.018431742 -0.0049294373
0.058696426 0.013976833 -0.056905374 -0.01994227 -0.062581375 0.014969657 0.030870935 -0.008294431
0.030828293 0.036383227 0.014177898 -0.028833596 -0.011052178 0.008360618 0.04365604 0.040897757
-0.007248477 0.034297455 0.06373233 -0.04746567 0.019957557 -0.052081157 -0.053555902 0.052205645
-0.003492393 0.06323273 -0.020936644 0.03575233 0.043825626 0.00299673 -0.0126354685 0.060897574
0.050415125 -0.017342804 0.022931436 -0.01729967 0.0475488 -0.0028504273 0.012764323 0.015220752
-0.017809333 -0.04187391 0.016676003 -0.016087536 -0.038097188 -0.04473322 0.04259809 0.0058946046
0.00941182 0.05300674 -0.019867115 -0.052125923 -0.050567206 -0.033885214 -0.06689013 0.015074681

weight f4 [256, 256]
00000000: 41b4 943c 08dc 54bd 4626 4b3d 5768 6ebd
00000010: 8797 963d 5694 0cbd 7ddf 7d3d 698a 06bd
00000020: c3a2 abbd 6a1e 4a3b 7f3d 5cbd b95d f73c
00000030: 7b4f 503d 3338 a4bc 25cf a63d d7bf e43c
00000040: 3c9d 5f3d 06f7 db3c 5cd9 62bd 6fe3 083d
00000050: 5ef4 bbbc f154 083c 1656 a23c 3155 5eb9
00000060: 58e7 0c3d 7eda b8bd 96a6 b13c 7514 dc3b
00000070: da24 58bd 1560 3c3d e172 303d 3797 403d
00000080: 6a29 80bc cb62 323d 43ab fe3c 1b1b b43c
00000090: a1cd 143d f356 10bd f3cf bebb ec54 543c
000000a0: 1bc5 e7bc 5ac9 81bd 9d3d 173d 044f 36bd
000000b0: 2f25 61bd 98a9 d2bc 2c6c a3bd 8349 163d
000000c0: 4b17 d43c 6291 4abd 2328 dfbc 2a37 cbbb
000000d0: 5b1c 3b3d bde0 1d3d 991b 9ebc 7769 e2bb
000000e0: acd3 2ebd 8c5c 7f3d fe1a bc3c 459f 083d
000000f0: f8aa 603d c997 4abc 7a43 eb3c 44c2 bcbb
00000100: 1e86 b63b f00f 783c 021a 073d 1a61 8d3d
00000110: 6078 3ebd c056 36bd 8457 5a3c d0ea 163c
00000120: b912 3b3d 6b41 1dbd a151 9abc 40de 0cbc
00000130: d863 07bd c134 06bd b57e 0ebd 3470 60bd
00000140: c240 af3c ddad c8bc 98d6 a1bc 0f8b 3b3d
00000150: 6b5a f43c 227c be3c ef01 afbc d630 533d
00000160: 18c2 393c 90e7 823d 28ec 58bd c45b 023d
00000170: 0e34 1a3c 679d fb3b f5b8 37bc 334d 823c
00000180: 0ce7 17bd 97a0 8dbc 92b6 3fbd 9b37 2bbb
00000190: 8da5 b9bb 8dc4 363d 116e 22bd 8da4 bcbc
000001a0: b3f4 d83c 3412 203b f6d4 e5bc 8473 723b
000001b0: 6496 213d 4469 7abc 5374 04bc 808e 9dbb
000001c0: 43a2 f2bb 136b 68bb 8e27 553d f78c 443c
000001d0: 2ada 403d 76fb 103d f448 9d3c 0d03 21bd
000001e0: 8e68 a9bc 5ebd 80bd 0e19 523c 31e0 54bd
000001f0: 5604 39bd faa6 f5bc fa6a 1e3c 2898 c13c
00000200: 75fc 66bc 3e60 4f3d 4de3 283d 7598 39bd
00000210: 283f b5ba d3ad f23c 9e64 183d c01e 283d
00000220: 93d2 1dbd ea4e 813d 1e9a 87bd 359b 60bc
00000230: 1df0 b03c fc57 123d ce47 563d beb0 8fbc
00000240: b4e9 a3bc 690b 993a 9702 633d 4ded a13c
00000250: 7e27 e5bc 8268 c8bc e682 71bc b868 d03d
00000260: c723 943b 802d c1ba 3887 2fbd 274f 2cbd
00000270: 074c e23b 1cdb d7bb 269f 06bc 9f70 393b
00000280: 262c acbc e7d2 433c 3b17 863d 08b5 fa3b
00000290: 8611 40bd b574 04bd b0a7 df3c acb4 2b3d
000002a0: a054 c9bc e5e7 77bd c475 143d d365 6f3d
000002b0: 733c 4b3d 0575 773d 1d2f 4d3d d1fa abbc
000002c0: 6a1b 73bc 41f4 55bd 2ab9 f53b f64a 543b
000002d0: 11c9 3cbd 9825 1c3c 6014 213c 018d 83bd
000002e0: 51aa 613d 7b22 8cbd 6a0b 80bc 2aed 773d
000002f0: 8c8b 66bd 97a4 9cbc 579f 863d a3b9 573c
00000300: a708 08bc 9b50 d4bc 2832 e2bc f2ff 14bd
00000310: a6dc 603d f50d c4bc 7709 0fbd 7789 793d
00000320: 8262 823c ba2b 043d 2f37 ef3b 2284 3cbd
00000330: 737e 5a3d b298 96bd 09fa 66bd 17f0 b03c
00000340: 3473 bdbc 3388 aabc 90a1 833d 9bf9 98bc
00000350: e02d fe3c 526f 3d3d dc07 db3c a6b4 bdbc
00000360: 0574 833d ecd0 85bb a9a6 623d 77c1 4a3d
00000370: 40a0 903d 8e4f bb3a 6b63 dfbc 0501 2ebd
00000380: 050d 543c 2a18 813c 02e3 123d a288 aa3c
00000390: e05a 94bc 76cb 8cbd aac2 4abd a04d 063d
000003a0: 23f8 61bb 15c2 14bd f711 853b c505 dd3b
000003b0: a2d4 62bd b8fd 37bd 8b8c 6a3d 90fe 843c
000003c0: 342b 57bd 40df 40bd f15b c63a 6e6c 5c3b
000003d0: a257 003d d5ca 253d e209 1dbb 75e4 e83c
000003e0: 9537 7c3c 635c 1ebc fa0b 1c3d 6e28 7e3c
000003f0: 2c3c 5cbd 57c2 66bd 742f 1d3d 636c 7a3d
0.018152358 -0.05196765 0.049597047 -0.058204975 0.0735312 -0.03432115 0.061980713 -0.032846842
-0.08380654 0.0030840882 -0.053769585 0.030196058 0.05085705 -0.02004633 0.081449784 0.027923508
0.05459331 0.026851188 -0.05538307 0.033420023 -0.022943672 0.008321033 0.01981644 -0.00021203306
0.034400314 -0.09026049 0.02168588 0.006716306 -0.05276952 0.04599007 0.043078307 0.04701921
-0.015644748 0.043551248 0.031087523 0.021985581 0.036328916 -0.03523917 -0.0058231293 0.0129597
-0.02829223 -0.06337233 0.036923993 -0.04450895 -0.0549671 -0.025715634 -0.079796165 0.0366912
0.025890013 -0.049455054 -0.027240818 -0.0062016444 0.04568134 0.038544405 -0.019300269 -0.006909545
-0.042682335 0.06234412 0.02296209 0.033355016 0.05485055 -0.01236529 0.028718699 -0.005760463
0.0055701872 0.015140519 0.032983787 0.06903286 -0.046501517 -0.044516325 0.013326529 0.009211257
0.045672152 -0.038392466 -0.018837752 -0.00859791 -0.033054203 -0.032765154 -0.034788806 -0.054794505
0.021393184 -0.024496967 -0.019755647 0.045786913 0.02982827 0.02325255 -0.021363227 0.051560245
0.011337779 0.06391823 -0.05295959 0.031825796 0.009411825 0.007678676 -0.011213531 0.015905952
-0.037085578 -0.01728849 -0.046804972 -0.0026125673 -0.005665487 0.04462104 -0.03965575 -0.023027683
0.02648387 0.0024424912 -0.02805565 0.0036995122 0.039450064 -0.015283886 -0.0080843745 -0.004808247
-0.007404597 -0.0035464212 0.052039675 0.011996499 0.047083057 0.03539606 0.019199826 -0.03930955
-0.020679738 -0.06286119 0.012823356 -0.051971618 -0.04517015 -0.029986847 0.00966906 0.023632124
-0.014098276 0.050628893 0.041232396 -0.04531141 -0.0013828026 0.029623901 0.03720533 0.04104495
-0.038530897 0.0631388 -0.066211924 -0.013708879 0.02159887 0.03572844 0.052314572 -0.017540332
-0.0200089 0.0011676374 0.05542239 0.019766474 -0.027972933 -0.024463896 -0.014740681 0.101762235
0.0045208666 -0.0014738292 -0.042853564 -0.042067673 0.006906036 -0.006587399 -0.008216655 0.0028295887
-0.021017145 0.0119521385 0.065473996 0.007650975 -0.04689171 -0.032337863 0.02730164 0.04192035
-0.024576485 -0.060523886 0.036245123 0.058446717 0.049618196 0.060414333 0.05009376 -0.020993622
-0.014838079 -0.05223489 0.00749888 0.0032393313 -0.04609019 0.009530447 0.009831518 -0.06423379
0.055094067 -0.06842514 -0.015630443 0.06052891 -0.056285426 -0.019121451 0.065733604 0.013166818
-0.008302844 -0.025917342 -0.027611807 -0.0363769 0.054897927 -0.023932436 -0.034921136 0.060922112
0.015916113 0.032268263 0.0073002796 -0.04602445 0.053343248 -0.07353343 -0.056390796 0.021598859
-0.023126222 -0.020816898 0.064273 -0.018673709 0.031027734 0.04624874 0.026737146 -0.023157429
0.06418613 -0.0040837433 0.05533472 0.04950091 0.07061815 0.0014290677 -0.027269086 -0.04248144
0.012942557 0.015758593 0.035861023 0.020817105 -0.018109739 -0.068747446 -0.049502052 0.032788873
-0.0034480176 -0.036317904 0.0040609795 0.0067450725 -0.055378564 -0.0449197 0.05726294 0.016234666
-0.052531436 -0.047087908 0.0015133602 0.0033633965 0.031333573 0.04047664 -0.002396219 0.02842925
0.015394111 -0.009665581 0.03809736 0.015512569 -0.053768322 -0.05633768 0.038375333 0.061138522

bias f4 [256]
00000000: 9b8c b8bc c6b1 063d e15f f8bc 6d69 dabc
00000010: 410e 07bd 066d 44bd 2f7c 17bd 3580 863b
00000020: 317d 973c 44c5 8ebc a077 70bd 79e4 4a3d
00000030: 3bcc ae3c e270 1d3c f355 2abd c36b f3bc
00000040: f06f 2cbd 1a82 873d c528 183d 2fcb 5bbc
00000050: 7331 85bd 6cb9 17bd c082 203d 8fd4 7e3d
00000060: e991 74bb 3cbe 58bd 36f8 053d d6e6 3d3d
00000070: a6b3 5dbd eadb 2bbd a30e f93c 63f5 fc3c
00000080: 6952 15bd 9c49 a13c 3e31 053d ecfb 89bc
00000090: cecd 35bd 67df 65bc 431f 51bd 2bad 07bc
000000a0: 9d42 443c 7952 42bd ff80 c6bc 75fa 6abd
000000b0: a694 54bc 140d ad3c f271 693d 1fcf b1bc
000000c0: a038 1b3d ca6b 363d 5cc4 923c 1079 2c3c
000000d0: 1a22 173d ffa3 843d 8801 873d c2dc 823c
000000e0: 1c45 3cba 1490 113c 5648 d6bc 96a5 943c
000000f0: a6f5 29bd 6c9d a3bc 9213 3f3a cb28 963c
00000100: 4d6b 423d 1d37 aabc 6774 393d ed03 2abd
00000110: 167b e0bc 4f8b 283d 3c82 383c 656d 6ebc
00000120: b20d f6bc e665 233c bd3c 09bd 5992 793d
00000130: 32a4 d63c 7246 dc3c 3a81 59bd 6899 aa3c
00000140: 0268 b0bc 18b0 4c3c 3aa8 32bc 697c 013d
00000150: 9af3 e63c 559d 5bbc 9c1f a33b 4e39 52bd
00000160: cda1 4abd 3f23 5dbd 22d0 d33c 2221 223a
00000170: 1b87 40bd 28c9 253c f12f ec3c 0e6c 2ebd
00000180: 2a24 0ebd 5aba 823c 0a4b 453d 0718 853d
00000190: b0fe 173d 4b46 2d3c c480 64bd 2040 7fbd
000001a0: 3593 843c 0e82 a6bc 563f e0bb cc72 ca3c
000001b0: 0b99 31bd 4bf6 853d 14cb 1b3d f9be 1cbd
000001c0: 5011 003c c6f8 18bc e664 a33c 8144 6d3d
000001d0: dc10 92bc e955 893d 12f4 4b3d 8f57 18bd
000001e0: efd3 a93c 9941 bb3c 9a55 eabc 1de3 a13b
000001f0: 6683 42bd 7030 d6bb e216 4b3d 7836 e6bc
00000200: a998 e83b e923 93bb 2288 4abc 6fec 673c
00000210: 8a31 74bd dd2f 323d fc1f 13bd c8ff 8abc
00000220: f99f 07bd 8d16 5d3d f4a2 26bd 1aa5 8e3b
00000230: dc99 fd3c 10f1 4cbd 3a80 60bd d467 8bbb
00000240: d8df 8bbc 5349 313d 05be 36bb 077e b53b
00000250: 774c 94bb 40f6 98bc 9ef4 6a3c d99c 73bb
00000260: d11b 613b 5a24 363d f89e 42bc d41f e13a
00000270: ef86 2a3c 0272 893d 8dee 6cbd a05e 10bd
00000280: f54a 01bd 45eb debb 5908 10bb ecad 33bd
00000290: 7884 793d b5f5 3e3b 69a0 8c3c a0de fa3c
000002a0: b958 903c bbad 843c 289a 79bd facf 103d
000002b0: 0654 fbbc 9ecb e7bc 79c2 85bb 28b6 fa3c
000002c0: 13a8 82bc 6ca1 ad3c 3cf9 c7bc 6374 243d
000002d0: 3d14 60bd 0fca 683c e383 fd3c 8128 5b3d
000002e0: e88a ecbc 18c0 6d3d 9883 b0bc 5e18 b5bb
000002f0: 8322 d93c 9587 f33b b906 16bd 1a66 89bc
00000300: 5d34 833d f379 f3bc f904 6bbd fa6d 86bd
00000310: 84b1 babb 4b58 4a3d 512e e7bc a37e 84bd
00000320: 7db3 3a3c c48b 323c bfd9 64bb d24e 483d
00000330: d75a de3c 954c 133c 78dc 863d a8db 513d
00000340: 924d 563c b2a8 ef3c 4239 17bd de19 173d
00000350: a6c8 08bd 4ae6 ecbc 3415 163c 27bc 5cbc
00000360: 8856 1c3c c881 a53c f261 e63c 1714 723d
00000370: fd5c 623d 3775 893d dee2 55bd e209 2d3d
00000380: 4a3a 0dbd 194f f6bc c2de 32bc 105f 17bd
00000390: b5f7 643d c6b1 11bd 918a 84ba f7b9 02bd
000003a0: ed6a 523c adab 623a e69e 3f3d 06f6 1dbc
000003b0: 98a8 133d c00e c23b 7aed 60bd 16ca 1abd
000003c0: a47b 773d d1f5 043c 1b13 413d a281 3f3c
000003d0: b4a8 46bd 5dd9 b5bc c4d4 893d 0283 c2ba
000003e0: 9128 9fbc 1d83 813d dfee 3fbd 6cc7 4cbd
000003f0: 897b 8bbc 7ccf 1f3d c0af 06bd ff2b 673d
-0.022527983 0.03288438 -0.030319156 -0.026661599 -0.032972578 -0.047955535 -0.036983665 0.004104639
0.018492313 -0.017428048 -0.058707833 0.049534295 0.021337619 0.009609433 -0.041585874 -0.02971447
-0.04209894 0.06616612 0.037148256 -0.013415142 -0.06503572 -0.037042066 0.039187193 0.06221443
-0.0037318415 -0.052915797 0.032707416 0.04636272 -0.054126404 -0.041957773 0.030402487 0.030878728
-0.036455546 0.01968842 0.032517664 -0.016843759 -0.044385724 -0.014030314 -0.051055204 -0.008281033
0.0119787725 -0.047441933 -0.024231432 -0.05736776 -0.012974894 0.0211244 0.056993432 -0.021705208
0.0378958 0.04453639 0.017915897 0.01052691 0.036897756 0.06476592 0.06592089 0.015974406
-0.0007181929 0.008884449 -0.02615754 0.018145364 -0.041494034 -0.019972526 0.0007288988 0.018329998
0.04746561 -0.020778233 0.045277026 -0.04150765 -0.027402442 0.04114848 0.011261519 -0.014552449
-0.030035827 0.009973025 -0.03350519 0.060930584 0.026201341 0.02688906 -0.053101756 0.020825103
-0.02153397 0.012493156 -0.010904366 0.031612787 0.02819233 -0.01340421 0.0049781334 -0.05132418
-0.04947071 -0.05398869 0.025856081 0.0006184747 -0.047003847 0.01011876 0.028831454 -0.042583518
-0.034702457 0.015958 0.048167266 0.064987235 0.037108123 0.010575841 -0.055786863 -0.062317014
0.016183475 -0.020325687 -0.0068434877 0.024712943 -0.043358844 0.06541117 0.038035467 -0.038268063
0.007816628 -0.009336656 0.019945573 0.05792666 -0.017830305 0.06705839 0.04979331 -0.037192877
0.02073094 0.022858428 -0.028605271 0.004940404 -0.047488593 -0.006536536 0.04958237 -0.028102145
0.0070982766 -0.004490365 -0.012361558 0.014155491 -0.059617557 0.043502677 -0.035919175 -0.01696767
-0.033111546 0.053976584 -0.040682748 0.0043531777 0.030957155 -0.050034583 -0.054809786 -0.0042543206
-0.01707451 0.043282818 -0.0027884257 0.0055387053 -0.004525717 -0.018672109 0.014340548 -0.0037172346
0.0034348855 0.04446826 -0.011878721 0.0017175623 0.010408147 0.067111984 -0.057844687 -0.03524649
-0.031565625 -0.0068029487 -0.0021977632 -0.043867037 0.060917348 0.0029138152 0.017166333 0.030623734
0.017620431 0.016196122 -0.06093803 0.035354592 -0.030679714 -0.028295334 -0.004082021 0.030604437
-0.015949285 0.021195136 -0.024410836 0.040150058 -0.0547068 0.014208331 0.030946678 0.053505424
-0.02887483 0.058044523 -0.021547124 -0.0055265864 0.026505714 0.007431934 -0.036627505 -0.016772319
0.06406472 -0.029721236 -0.05737779 -0.06563945 -0.005697431 0.04940061 -0.028220328 -0.064694665
0.011395332 0.0108975805 -0.0034919826 0.048903294 0.027142925 0.008990427 0.0658502 0.05123487
0.013080018 0.029255245 -0.03691984 0.036889903 -0.03339448 -0.028918404 0.009160329 -0.013472593
0.009542115 0.020203486 0.028122876 0.05910119 0.05526446 0.0671181 -0.05221831 0.042245753
-0.034479417 -0.030067014 -0.010917367 -0.036955893 0.055900294 -0.03556993 -0.0010112097 -0.03191563
0.012842876 0.00086467975 0.046782397 -0.009641176 0.036049455 0.0059221685 -0.054913975 -0.03779038
0.060420647 0.008115248 0.04713736 0.011688622 -0.04850073 -0.022198373 0.06730035 -0.0014840069
-0.019428523 0.06323836 -0.046858665 -0.04999487 -0.01702668 0.039016232 -0.032882452 0.056438442

weight f4 [128, 256]
00000000: 8910 22bd 3cc2 e4bb 0f79 503d 8581 40bd
00000010: aa8e 85bd b98f 74bd cdfd 4e3d 1acb 7bbd
00000020: 94ee b53c 8298 7dbd 631e 25bd 9639 bdbc
00000030: 2bc3 a7bd 0b02 10bc 1f6d cbbb 1ca5 b2bc
00000040: 5a98 f1bc 1652 2cbd b93f 6a3d b687 bebb
00000050: 2296 cabc c449 4ebd 3c3f 4d3d f2e9 c9bc
00000060: 8518 1f3d 53c8 35bd 1306 d13c 482e 5fbd
00000070: 9857 6d3d 15e3 85bb 4060 b7bb 7c1f 883d
00000080: dd69 e83c 65f8 bb3c 105c b3bc e719 3b3d
00000090: 518c 09bd db4b 6fbd 69ed ba3a 87d1 47bc
000000a0: 41cc a43a e3a1 93bc e635 0f3c dacc 1dbd
000000b0: d655 bd3a 080c 53bd 6507 5b3c 945a b0bb
000000c0: 4d78 80bd 1040 8dbc 2cfc 04bd d880 9cba
000000d0: 0b0e 283d 7a23 54bd 755f 6bbc 9a5e f23b
000000e0: 9a46 803b 7592 6ebc 44a5 ccba f857 c3bc
000000f0: 2ad0 4cbd eb0e 2b3d 0a91 533d 07b2 6d3d
00000100: 5330 8dbc 2d59 81bc 0457 1fbc d2de 64bc
00000110: 770b 503d 8464 b8bc fc63 3bbd f4c2 06bd
00000120: b1ac fbbc 0d41 65bc 9529 3abd b671 46bd
00000130: e818 ee3c 3990 a7bc a496 6bbc 83f0 a5bc
00000140: a5fe c7bc c076 f7bd 6d9b 2cbd 31f6 0f3d
00000150: e0e5 a73c ef52 573d f0aa 22bc f7bd 403d
00000160: a0c3 4f3d 3e82 22bd c00e 25bb e01b 10bd
00000170: 848f 85bd 85f8 21bd 26c6 97bb f7bc 6d3d
00000180: 605e 6f3d 9bb6 1c3d a92d 68bd 682b ed3c
00000190: 8f74 7bbb 089c 533c e9cf dcbc f85e 053d
000001a0: 7d3d 1a3d 4672 233d 7eca 9a3d 990e 4bbc
000001b0: 553e 2ebd b2bc bebc c027 fd3a a7b1 5e3c
000001c0: 2b44 4b3d 021a 4abb fee3 62bd fbb3 4bbd
000001d0: 71bc 473d 2209 11bc b56e 68bd bba8 e73c
000001e0: 6138 febc 41ce 63bd b0ee 3f3c ee33 853d
000001f0: 1254 7b3c e453 023c 3fa3 c8bc 619a 4bbd
00000200: fb32 a13b 8602 88bc 7a8c 72bb 5304 4dbc
00000210: 18ea d3bc 58a9 3abd 07cc d6bc de08 19bd
00000220: 6353 ae3c efe8 443d ebef 4fbd 6033 293d
00000230: e91a 253d 873d 17bd 7921 de3c ea6c 39bb
00000240: e497 4a3d 92c2 513d bc5b 963c 460c 713c
00000250: 1447 84bc ddfb c0bc ebf5 64bd e967 823c
00000260: 5148 82bb 3a98 bcbc 5d68 9cbc 2989 423d
00000270: b20f 25bd 4375 cebc 1ffb 2abd 294f 1d3c
00000280: 99db 4a3d af17 303d 69b0 34bd 3fa3 b2bc
00000290: 3ecd e6bb 1900 79bd 272a 843d 0d97 31bd
000002a0: 8a70 143d c236 aabc 2cb1 0fbd 8dc4 973c
000002b0: 7f40 a83c 168d 253d a25b 443d 6ede fdbc
000002c0: 9119 833c ad18 b33b 40f3 873c 5c2c 2bbd
000002d0: b3dc f93c c9f8 493d b6c3 c23c 96a3 933c
000002e0: 3311 673d 6096 40bd 38b6 5fbd 8f39 723c
000002f0: b0f2 143d 1005 013d cfdb f53c aabe 5e3c
00000300: 8cf7 1a3d 33c0 60bc 61ef 6c3d 3bc8 0d3d
00000310: cedf 643d 3fb6 1f3d 8c61 303d 83be 65bd
00000320: d653 323d cc09 c13c 52a3 f93a 6c01 503d
00000330: e998 023d 76a9 2c3d b416 8d3d fe8e 8dbc
00000340: d4a9 883c 0c0d 86bc 3c86 343d 9c7e 553d
00000350: f011 20bd c4ce cabc 7376 353d 121e 9e3c
00000360: 1385 363d 00e5 2f3d 9e59 66bb c697 6f3d
00000370: 2394 61bd d8a1 fc3b 6541 1b3d e422 25bd
00000380: eafe 0ebd 5f0c a4bc 5eeb 97bc bd6d 65bd
00000390: 5810 3f3b a487 3c3c 0025 7ebd 9949 1b3d
000003a0: d730 853b 790b 69bd 4e03 3a3d de5b 6dbd
000003b0: cc6c 36bd e1c4 07bd a005 753d d421 2a3d
000003c0: 5c8b 58bd 445b 543c 2622 1c3d 8118 113d
000003d0: 39e0 e53c a594 143b f325 09bd 6ea0 d0ba
000003e0: 2cb0 31bd a427 d1ba 3a62 b4bb 24a9 303c
000003f0: dab6 693b b852 adbc b07f 003d 37a3 053d
-0.03956655 -0.0069811624 0.0508967 -0.04699852 -0.06521352 -0.059707377 0.050535012 -0.06147299
0.02220849 -0.06191302 -0.040312182 -0.023098748 -0.08191522 -0.00878955 -0.0062080766 -0.021807246
-0.029491592 -0.04207047 0.057189677 -0.005814518 -0.024729792 -0.050363317 0.050109133 -0.024647687
0.038841743 -0.044380497 0.025515592 -0.054487497 0.057944864 -0.004085908 -0.0055961907 0.0664663
0.028370792 0.022945592 -0.021894485 0.045679 -0.03358108 -0.05842195 0.0014261428 -0.012195951
0.001257308 -0.01802153 0.008740878 -0.03852544 0.0014445137 -0.051525146 0.013368462 -0.0053818915
-0.062729456 -0.017242461 -0.032467052 -0.0011940254 0.041029017 -0.051791646 -0.01436602 0.0073965313
0.0039146664 -0.014561285 -0.0015613218 -0.023845658 -0.05000321 0.041762274 0.051651992 0.05803111
-0.017234957 -0.015789593 -0.009725336 -0.01396914 0.050792184 -0.022508867 -0.04574965 -0.032900766
-0.030721994 -0.01399256 -0.045449812 -0.048448287 0.02906461 -0.020454513 -0.014379177 -0.020256286
-0.024413416 -0.12083197 -0.042140413 0.035146896 0.020495355 0.052569326 -0.00992845 0.047056165
0.050723672 -0.03967499 -0.0025185794 -0.035182834 -0.06521514 -0.039543647 -0.0046317754 0.05804154
0.058439612 0.038260084 -0.05668417 0.028951362 -0.0038369035 0.012915619 -0.026954608 0.032561272
0.037656296 0.0399039 0.075581536 -0.012393617 -0.042539913 -0.023283336 0.0019314215 0.01359216
0.049625557 -0.0030838256 -0.05539321 -0.04973219 0.048763696 -0.008852275 -0.056746203 0.0282787
-0.031032743 -0.05561662 0.011714622 0.065040454 0.015339868 0.007954571 -0.024491904 -0.049707774
0.0049194074 -0.016602766 -0.003701 -0.012513238 -0.02586846 -0.045571655 -0.026220335 -0.037361972
0.021279996 0.048073705 -0.050765913 0.04130876 0.040308867 -0.03692391 0.02711557 -0.0028293678
0.04946126 0.051210947 0.01835429 0.014712399 -0.016147174 -0.023557598 -0.05589859 0.015918689
-0.003975906 -0.023021806 -0.019092733 0.047494087 -0.04029817 -0.0252024 -0.041743394 0.009601393
0.04952583 0.042991336 -0.04411355 -0.021806357 -0.0070435097 -0.06079111 0.064533524 -0.043356944
0.036240138 -0.020778064 -0.035081074 0.01852634 0.020538567 0.040417753 0.04793895 -0.030989852
0.016003402 0.005465588 0.016595483 -0.04179035 0.030500745 0.049309526 0.023774963 0.01802234
0.056412887 -0.04701841 -0.054617137 0.014784231 0.036364257 0.03149897 0.03001204 0.013595263
0.037833735 -0.013717699 0.057845477 0.034614783 0.0558775 0.038992163 0.043061778 -0.05608989
0.043536983 0.023564242 0.0019045866 0.050782606 0.031884108 0.042153798 0.06889096 -0.017280098
0.016682543 -0.016363643 0.04407333 0.052122697 -0.039079607 -0.024756797 0.044302415 0.019301448
0.044560503 0.042943 -0.003514863 0.05849435 -0.055072915 0.007709723 0.037904162 -0.040316477
-0.034911074 -0.02002543 -0.018544849 -0.056012858 0.0029154029 0.011506949 -0.062047005 0.037911985
0.00406466 -0.056895707 0.045413308 -0.05794894 -0.04453735 -0.033146743 0.059819818 0.041536167
-0.05286728 0.012961213 0.038118504 0.03542376 0.02806102 0.0022671607 -0.033483457 -0.0015916952
-0.0433809 -0.0015957248 -0.0055048736 0.010782514 0.0035661967 -0.021157607 0.031371772 0.032626357

bias f4 [128]
00000000: fcc2 043d 95e8 0b3d 5b5a 593d d0c7 5c3b
00000010: feaa 96bc 58f4 de3c 2afa cabb b7ce 9a3c
00000020: e374 9fbc 8687 e13c e5c1 e6bc 2830 5a3d
00000030: bdb6 573b af69 833d c385 01bc 40c9 b5bc
00000040: 0eea ffbc 2a35 123d 54ac cebb 5c3e 083c
00000050: d196 5a3c f850 2abd 6b11 e93c c6cc 5e3d
00000060: 4bf3 fb3b 3991 3abd 9168 c83c 56ca 3f3d
00000070: 724d 213c 5d60 ffbb c82f 2dbd 0d00 c9bc
00000080: d96f debc da91 5e3b e4d6 bd3c 25aa 7fbd
00000090: 6111 a23a ccd1 613d 55d4 e7bc 791b 3ebd
000000a0: 7c32 493d 2e49 323c 656f 233d 9c9f b9bc
000000b0: 7579 1a3d 9f8b 4bbc 2b6a 8ebc f1f7 78bc
000000c0: 7f25 353d 7eb0 e0bc e53d 3e3d d49c f23c
000000d0: 1cb1 03ba 40b3 3d3d e55b 09bc 5d19 0ebd
000000e0: 0b4f 3a3b b840 203d 2f1f 3ebd 25ea e6bc
000000f0: c557 093d 304d 71bd 612c 613d baa0 2f3d
00000100: cff4 c93b b0cc f73c 5d52 753d a5eb 1b3d
00000110: 0abf 5cbd e5a3 553b edb8 103c 4f92 f4bb
00000120: 7d45 083b 8595 25bc 1c7e 1cbd 7fb0 013c
00000130: d871 51bc 1dfd 333c bc12 aabc 84f7 143d
00000140: aa4a f0bc 92f0 a63c 2ac0 34bd 3400 2a3d
00000150: dbdc 5b3c b798 4d3d 0eb9 3e3d 4863 163d
00000160: cfb6 833c 8793 b73c 557d 19bd 18ba 6fbd
00000170: dc00 24bd ad8d 03bc 6440 05bd d9a1 22bd
00000180: 4156 643d 495c 62bc 971b 233d 57f6 44bc
00000190: 3f68 553c 75e1 6e3d eb69 87bc 2415 db3c
000001a0: 95b1 49bc 6bae b83c 30f3 863d 9685 d03c
000001b0: e97f cebc d85e 85bc 83ee cd3c 7d97 03bd
000001c0: 5d0f 213d 4330 0e3d f43d 2abd f479 72bd
000001d0: 60e0 4a3d d1a6 84bb a078 123d 6449 9d3c
000001e0: d5b2 4d3d 2917 e7bc fef9 853d 217c 173c
000001f0: a5f5 09bd 7ce2 abb9 058c 69bd 1afb 96bb
0.032412514 0.034157354 0.053064685 0.0033688433 -0.018392082 0.027216122 -0.0061943727 0.018897397
-0.019464916 0.027530443 -0.028168628 0.05326858 0.0032915317 0.06416642 -0.007905426 -0.02219069
-0.031239536 0.035695232 -0.006307164 0.008315649 0.0133416215 -0.041581124 0.028450688 0.054394506
0.007688915 -0.04554865 0.024463924 0.046823822 0.009845125 -0.00779347 -0.042281896 -0.024536157
-0.027152942 0.0033961446 0.023173757 -0.06241812 0.0012364798 0.05513172 -0.02829949 -0.04641292
0.04912041 0.010881705 0.039901156 -0.022659115 0.037713487 -0.012423425 -0.01738461 -0.015195833
0.044225212 -0.027427908 0.046445746 0.029615797 -0.0005023645 0.046313524 -0.008383726 -0.034692157
0.002842846 0.03912422 -0.046416458 -0.02818782 0.03353097 -0.058911502 0.054973964 0.04287789
0.0061632167 0.03024897 0.059893 0.038066525 -0.053893127 0.003259891 0.008833152 -0.0074637304
0.0020793371 -0.010106449 -0.038206205 0.007915615 -0.01278349 0.01098564 -0.020760886 0.03636886
-0.029332478 0.020378385 -0.044128574 0.0415041 0.013419355 0.05019447 0.0465632 0.036715776
0.01607838 0.022409214 -0.03747304 -0.058527082 -0.040039882 -0.008029384 -0.03253211 -0.03970513
0.05574632 -0.013815948 0.039821234 -0.012021623 0.0130253425 0.05832048 -0.016529998 0.02674348
-0.012310405 0.022544106 0.06589353 0.025454324 -0.025207477 -0.016280577 0.025138145 -0.032126892
0.039321292 0.034713995 -0.04156299 -0.059198335 0.049530387 -0.0040482064 0.03575957 0.019200034
0.050219376 -0.028209286 0.06541823 0.009245903 -0.03368153 -0.00032784406 -0.0570183 -0.0046075704
